comb_mario_models/dqn_models/dqn_model_episode_6500.pth (torch, 401236 bytes, 6 tensors)

weight f4 [256, 256]
-0.062072426 0.039614618 0.020141825 -0.0578992 -0.012096427 -0.03826172 0.027907506 -0.016516462
0.06031926 0.035069913 0.02467598 0.062312722 -0.025022082 0.04466343 0.061711222 -0.026837677
0.004106216 0.0043457747 -0.047766425 -0.027304344 -0.04944326 0.045373887 0.011393011 -0.028100483
-0.037241913 0.0047235936 0.055182345 0.030087754 0.01663842 -0.05332917 0.035316974 0.010043442
0.03659133 0.053714044 -0.029067352 0.02306372 -0.04420971 -0.034044556 -0.025602281 0.035492204
-0.0063637346 -0.009274669 0.058039576 -0.01567217 0.040455967 0.045478992 0.04238148 -0.062251426
0.033804663 -0.033777885 0.02548892 -0.04312572 -0.0576628 -0.059827216 0.01457081 0.04580898
0.062276013 0.009203009 -0.009252474 0.034686767 0.0019340739 -0.02275844 0.03657542 -0.060913213
-0.044216402 -0.03761544 0.008849621 -0.03345406 -0.027468346 0.052578606 0.045382217 -0.01148621
0.016453758 0.050195046 -0.025000036 0.03521534 0.017202973 -0.030251116 0.0035996363 0.03061653
-0.00844425 0.029356234 0.05748076 0.010678202 0.019885845 -0.061591856 0.01944799 -0.03648971
0.049856447 -0.020832606 0.04616733 0.033364274 0.03341444 0.010129772 0.062036812 -3.2655895e-05
0.017029531 -0.05935193 -0.041715734 -0.043469407 -0.061773397 0.045695283 -0.022543281 -0.042683296
-0.04727722 -0.030279644 0.037256964 -0.02649489 0.012429044 -0.01751902 0.051219054 -0.023859158
0.036328077 -0.034474693 0.052866153 0.0067860857 -0.058431476 0.05216559 0.0546261 0.00049380213
-0.0052890107 0.02586972 0.015593685 -0.051051423 0.045948908 -0.041396856 -0.061217524 0.0044943467
-0.020775653 -0.023047082 -0.03472379 0.049888216 -0.049968764 -0.0014525279 -0.009612605 -0.015653305
-0.04615619 -0.019256294 -0.004226744 0.051081173 0.03228075 0.056578062 -0.04439321 -0.062061712
-0.025618345 0.03999786 -0.060865067 -0.011907548 0.048996024 0.056029484 -0.057672612 0.05690092
0.043239675 0.024797596 -0.003515698 -0.008449674 -0.034286156 -0.0481555 -0.023801856 0.050457038
-0.02973587 -0.0024555326 0.05413173 0.03512638 0.053688966 0.047189616 0.02507317 -0.061754957
0.042082988 0.037526533 0.008448176 -0.013133809 0.010653809 0.041286312 0.033920884 0.006534949
0.03483671 0.008545943 -0.023319244 0.050637715 0.03135044 0.04208062 -0.0135217905 -0.042308368
0.01985573 0.046733648 0.01063332 0.05575095 0.040796094 0.027518883 -0.05978994 -0.049582772
0.02923996 -0.062302247 0.008500867 -0.03968534 -0.035409503 -0.04438106 -0.036677957 -0.014910147
-0.03763698 -0.039529182 0.043417893 0.008984044 0.06139534 0.023715429 0.036838643 -0.008640043
0.05061277 -0.054572426 0.061894484 -0.027415752 -0.05469217 -0.037858553 0.046529226 -0.031236246
-0.04860522 0.0072409958 0.043894663 -0.00858403 -0.030834138 -0.020526439 0.051063605 -0.015639365
-0.056378223 -0.02038157 0.028842136 0.023786545 -0.0045853853 -0.039697118 0.010952957 -0.0074059665
-0.053145915 -0.05609916 0.0046873465 0.006326042 0.055022113 0.040984765 0.04306358 0.0010007396
0.022567324 -0.040893555 0.028019413 0.05850576 0.045496784 0.03780382 -0.026862375 -0.037320584
0.01822485 -0.022482187 0.02254019 0.050808355 -0.028174639 -0.011515044 -0.049843512 0.02361504
00000000: a83f 7ebd f042 223d 7800 a53c b627 6dbd
00000010: 1830 46bc 52b8 1cbd 489e e43c 884d 87bc
00000020: 5411 773d 78a5 0f3d 4825 ca3c a03b 7f3d
00000030: 1cfb ccbc 00f1 363d e8c4 7c3d b0da dbbc
00000040: 708d 863b 0067 8e3b baa6 43bd 5cad dfbc
00000050: 0485 4abd f8d9 393d c0a9 3a3c fc32 e6bc
00000060: fa8a 18bd 60c8 9a3b e206 623d 987a f63c
00000070: 4c4d 883c b06f 5abd 88a8 103d 408d 243c
00000080: cae0 153d 4203 5c3d a81e eebc 20f0 bc3c
00000090: 3e15 35bd 4e72 0bbd e0bb d1bc 4660 113d
000000a0: e086 d0bb c8f4 17bc e8ba 6d3d ec62 80bc
000000b0: 28b5 253d 2e48 3a3d 3498 2d3d 5afb 7ebd
000000c0: c276 0a3d ae5a 0abd 24ce d03c 98a4 30bd
000000d0: d42f 6cbd 620d 75bd 68ba 6e3c 32a2 3b3d
000000e0: 2215 7f3d 38c8 163c b097 17bc b613 0e3d
000000f0: c080 fd3a e86f babc 1cd0 153d 2280 79bd
00000100: 421c 35bd a612 1abd 00fe 103c 2007 09bd
00000110: 4c05 e1bc aa5c 573d b4e2 393d a830 3cbc
00000120: 08ca 863c 5299 4d3d e0cc ccbc f63d 103d
00000130: 40ed 8c3c 30d1 f7bc e0e7 6b3b 84cf fa3c
00000140: c059 0abc 7c7c f03c f270 6b3d a0f3 2e3c
00000150: a4e7 a23c be47 7cbd 6451 9f3c 3c76 15bd
00000160: 4636 4c3d 24a9 aabc f419 3d3d faa8 083d
00000170: 94dd 083d 58f7 253c 501a 7e3d 00f8 08b8
00000180: 8481 8b3c 021b 73bd 1ede 2abd fa0c 32bd
00000190: 1a06 7dbd fa2a 3b3d b0ac b8bc aed4 2ebd
000001a0: c2a5 41bd 040d f8bc c29a 183d d00b d9bc
000001b0: 30a3 4b3c 0c84 8fbc 12cb 513d 4874 c3bc
000001c0: c0cc 143d 5635 0dbd 2e8a 583d d05d de3b
000001d0: d855 6fbd 96ab 553d 9ebf 5f3d 8072 013a
000001e0: 704f adbb bcec d33c a87c 7f3c 4c1b 51bd
000001f0: ec34 3c3d c08f 29bd 3abf 7abd 5045 933b
00000200: b431 aabc 3ccd bcbc 883a 0ebd 9657 4c3d
00000210: 0cac 4cbd c062 beba 307e 1dbc 5c3b 80bc
00000220: 460e 3dbd 60bf 9dbc 8080 8abb 7e3a 513d
00000230: d238 043d 66be 673d a8d5 35bd 6c34 7ebd
00000240: 90dd d1bc ccd4 233d a64d 79bd e017 43bc
00000250: 0eb0 483d 2c7f 653d 1e3a 6cbd f010 693d
00000260: 161c 313d 5424 cb3c a067 66bb 8070 0abc
00000270: a46f 0cbd b43e 45bd 1cfc c2bc 0aac 4e3d
00000280: a498 f3bc 00ed 20bb 3cb9 5d3d aee0 0f3d
00000290: f6e8 5b3d e649 413d 4066 cd3c c4f2 7cbd
000002a0: 365f 2c3d 6cb5 193d 386a 0a3c 302f 57bc
000002b0: 508d 2e3c d61b 293d a0f0 0a3d 2023 d63b
000002c0: f0b0 0e3d 4804 0c3c 0008 bfbc 7e69 4f3d
000002d0: 5269 003d ba5c 2c3d 808a 5dbc 8a4b 2dbd
000002e0: 7ca8 a23c c86b 3f3d 6037 2e3c 1c5b 643d
000002f0: ce19 273d 486f e13c 4ce6 74bd 4e17 4bbd
00000300: a488 ef3c a430 7fbd 3847 0b3c 188d 22bd
00000310: 8e09 11bd eac8 35bd a03b 16bd b049 74bc
00000320: 3c29 1abd 5ae9 21bd f6d6 313d d031 133c
00000330: ae79 7b3d dc46 c23c 1ee4 163d f88e 0dbc
00000340: 564f 4f3d 5687 5fbd 1285 7d3d 0097 e0bc
00000350: e604 60bd 9211 1bbd 6e95 3e3d 28e3 ffbc
00000360: 4416 47bd e045 ed3b e4ca 333d 08a4 0cbc
00000370: e097 fcbc 1027 a8bc 1228 513d 201e 80bc
00000380: daec 66bd 40f7 a6bc 5846 ec3c 00dc c23c
00000390: 0041 96bb 7299 22bd 0874 333c c0ad f2bb
000003a0: 88af 59bd 3cc8 65bd 5098 993b b04a cf3b
000003b0: de5e 613d a4df 273d 7063 303d 402b 833a
000003c0: 1cdf b83c 0080 27bd f888 e53c bca3 6f3d
000003d0: d65a 3a3d 2ed8 1a3d 7c0e dcbc 78dd 18bd
000003e0: 484c 953c 902c b8bc 34a6 b83c 6c1c 503d
000003f0: 80ce e6bc 98a9 3cbc b628 4cbd 5474 c13c

bias f4 [256]
0.051578917 0.030368684 0.022626907 0.03635129 0.010874299 0.18764012 0.0008558035 -0.028478805
-0.018507339 0.20482868 0.044326406 0.039171502 -0.05331499 0.21382977 -0.0054655075 -0.049623746
-0.012827827 0.031057037 0.22733775 0.020418938 0.012181291 -0.05491478 -0.050433367 -0.05158031
0.03406582 -0.023028478 0.051593307 0.010800384 -0.04574869 0.0141150355 0.1873555 -0.031204343
0.18643089 -0.016510747 0.13984765 -0.0001867576 0.016800838 -0.03830923 0.020900927 0.03336694
-0.06232412 -0.019146739 -0.010832995 0.22888538 -0.04403133 -0.025192589 0.20243236 0.008774049
-0.016133323 -0.060412265 -0.018235676 0.01837141 -0.035446815 0.18326734 -0.011520624 -0.005436085
-0.007478602 0.024419315 -0.01808092 0.01294212 -0.011385962 0.026114685 -0.058519915 -0.02690199
-0.014042281 0.0044688946 -0.037298292 -0.044751227 -0.02072195 0.02650926 -0.05845111 -0.019174278
-0.028330714 -0.04179997 0.0164961 0.21036196 -0.041526042 -0.024269022 -0.004890933 0.051074546
-0.03279545 0.046278894 0.011722135 0.21403526 -0.028940262 0.18736596 0.21832716 -0.058296993
0.049725026 0.02605826 -0.030803442 0.026258688 -0.005011577 -0.013202257 -0.018519528 0.061055496
-0.036931183 0.029734502 0.20422001 0.17730145 -0.046451308 -0.0509817 0.02466061 0.0123470295
0.17538814 0.019671228 -0.04683003 0.21746606 0.19395529 -0.060211264 0.04725171 -0.024854355
0.016733749 -0.036411628 -0.03147769 0.22446121 0.18942451 -0.060394667 0.18227059 -0.048698224
0.19001831 0.036050603 -0.027538672 -0.0064621978 -0.02084528 0.04413653 0.21678953 0.05234318
-0.040653467 0.035661247 0.037026703 -0.026308045 0.20170228 0.0300853 0.022055166 0.05256541
0.01847061 0.19520968 0.05324977 -0.03733454 -0.053391695 -0.03547568 0.015691591 0.021668956
0.017472744 0.018059723 0.01606274 0.16660252 -0.022124887 0.043017834 0.012320586 -0.046005398
0.040820226 0.16950975 -0.030852813 -0.048148 -0.0073511153 -0.017866015 -0.055787414 -0.003130123
-0.01234673 -0.032249473 0.19939937 0.10579784 -0.051657103 -0.013270556 -0.026116118 -0.04267513
0.04652358 -0.022592038 -0.0007407963 0.2327113 -0.0299507 0.2006756 0.016742598 -0.047570445
0.012720838 -0.032343328 -0.043221213 -0.05356975 0.019797243 0.038931146 -0.044761576 -0.056424692
-0.042457096 -0.005606428 0.0062764585 -0.01785733 0.17397392 0.20082137 0.01308674 0.011855921
0.21431988 0.009023152 0.20979376 -0.004492715 0.0013116151 -0.05956825 0.04833103 -0.0035091117
-0.015429825 0.05051093 0.022892978 0.020716732 0.03775122 -0.05781378 0.015713334 -0.0048366785
-0.054367267 -0.02972266 -0.004143912 -0.010339127 0.14011772 -0.055759743 -0.010786105 -0.008215252
-0.047385126 -0.007006377 0.22878256 0.1131546 0.030658484 0.0068388805 -0.03685555 -0.006335578
0.01751683 -0.041364543 0.0269688 0.017048039 -0.032118868 0.019118894 0.052952286 0.18813299
-0.014989026 -0.011378393 -0.04205495 -0.056203686 0.0006433344 -0.043209277 -0.052800313 0.05175475
-0.046203934 -0.036704734 -0.007039195 0.12387883 -0.04996457 -0.041400015 0.011795707 -0.033781268
0.03948092 -0.0050651804 0.0012513903 -0.029616147 -0.0048850775 0.05280727 -0.0029872505 0.2367848
00000000: 6a44 533d bfc7 f83c 105c b93c 17e5 143d
00000010: 1e2a 323c bb24 403e 0058 603a 624c e9bc
00000020: b49c 97bc 9cbe 513e 9b8f 353d 4c72 203d
00000030: d260 5abd 31f6 5a3e 0018 b3bb 4542 4bbd
00000040: ce2b 52bc 546b fe3c 3acb 683e 9e45 a73c
00000050: 0a94 473c 52ee 60bd 3893 4ebd e045 53bd
00000060: 9a88 0b3d 38a6 bcbc 8153 533d 18f4 303c
00000070: fa62 3bbd c042 673c 1fda 3f3e 40a0 ffbc
00000080: bde7 3e3e 8c41 87bc 3934 0f3e 5dd4 43b9
00000090: e9a1 893c 24ea 1cbd 6c38 ab3c c6ab 083d
000000a0: 9447 7fbd 9fd9 9cbc e07c 31bc ee60 6a3e
000000b0: 325a 34bd b060 cebc 6e4a 4f3e 07c1 0f3c
000000c0: 082a 84bc da72 77bd fc62 95bc a47f 963c
000000d0: ae30 11bd 6faa 3b3e 00c1 3cbc 3021 b2bb
000000e0: 100f f5bb 040b c83c 701e 94bc 300b 543c
000000f0: 308c 3abc 77ee d53c 94b2 6fbd 9061 dcbc
00000100: 9811 66bc ce6f 923b 18c6 18bd 104d 37bd
00000110: 14c1 a9bc f329 d93c 6e6a 6fbd 6013 9dbc
00000120: d015 e8bc 7236 2bbd d422 873c 2069 573e
00000130: 3617 2abd d4cf c6bc 1f44 a0bb 8b33 513d
00000140: 8654 06bd f08e 3d3d 330e 403c 0f2c 5b3e
00000150: 2114 edbc dddc 3f3e 2891 5f3e d4c8 6ebd
00000160: 78ac 4b3d 2278 d53c 8057 fcbc 761c d73c
00000170: 2838 a4bb 484e 58bc 44b6 97bc 5415 7a3d
00000180: 2745 17bd c595 f33c 0d1f 513e 838e 353e
00000190: ba43 3ebd 30d2 50bd 0c05 ca3c 324b 4a3c
000001a0: f398 333e 8e25 a13c d8d0 3fbd 6caf 5e3e
000001b0: 379c 463e 16a0 76bd 028b 413d 5c9b cbbc
000001c0: 3715 893c 5c24 15bd c0ee 00bd 29d9 653e
000001d0: 80f8 413e 6660 77bd 24a5 3a3e ca77 47bd
000001e0: 2994 423e cca9 133d c898 e1bc d8c0 d3bb
000001f0: b8c3 aabc 82c8 343d 13fe 5d3e cd65 563d
00000200: 4084 26bd 8711 123d 50a9 173d f883 d7bc
00000210: 0b8b 4e3e 7275 f63c 09ad b43c d44e 573d
00000220: ad4f 973c 0ce5 473e 6e1c 5a3d 1aec 18bd
00000230: 40b1 5abd f24e 11bd a78b 803c 1883 b13c
00000240: 0023 8f3c fcf1 933c 0296 833c da99 2a3e
00000250: 403f b5bc 7833 303d 48dc 493c 2870 3cbd
00000260: 1c33 273d f793 2d3e 0abf fcbc d636 45bd
00000270: a0e1 f0bb c05b 92bc 5881 64bd c022 4dbb
00000280: f049 4abc 0618 04bd 592f 4c3e 8aac d83d
00000290: 6696 53bd bf6c 59bc 78f1 d5bc 1ecc 2ebd
000002a0: 828f 3e3d f012 b9bc 0032 42ba df4b 6e3e
000002b0: 2c5b f5bc e87d 4d3e c627 893c 3ad9 42bd
000002c0: 106b 503c 707a 04bd ba08 31bd f46b 5bbd
000002d0: d42d a23c 4476 1f3d ea57 37bd 941d 67bd
000002e0: 7ee7 2dbd 20b6 b7bb c0aa cd3b 8949 92bc
000002f0: 3826 323e 1ea4 4d3e c469 563c 563f 423c
00000300: ac76 5b3e d8d5 133c 2dd4 563e a037 93bb
00000310: 80ea ab3a d6fd 73bd c2f6 453d 20f9 65bb
00000320: 60cd 7cbc 8de4 4e3d 0e8a bb3c 23b6 a93c
00000330: 06a1 1a3d 24ce 6cbd 40b9 803c 007d 9ebb
00000340: 36b0 5ebd f07c f3bc a7c9 87bb 7165 29bc
00000350: 057b 0f3e 5464 64bd 34b8 30bc 4499 06bc
00000360: e816 42bd c095 e5bb fa45 6a3e 99bd e73d
00000370: 8027 fb3c b018 e03b d8f5 16bd ae9a cfbb
00000380: 747f 8f3c de6d 29bd aced dc3c 54a8 8b3c
00000390: 138f 03bd 3a9f 9c3c 7fe4 583d efa5 403e
000003a0: 8894 75bc 706c 3abc d041 2cbd d635 66bd
000003b0: 71a5 283a 36fc 30bd 2445 58bd cafc 533d
000003c0: 5640 3dbd b457 16bd 0ca9 e6bb 2fb4 fd3d
000003d0: a6a7 4cbd 1093 29bd c842 413c 3a5e 0abd
000003e0: bfb6 213d d0f9 a5bb b105 a43a 909d f2bc
000003f0: 0013 a0bb 704c 583d bfc5 43bb b777 723e

weight f4 [128, 256]
0.042280577 -0.035137746 -0.04368774 -0.0322254 -0.03892696 0.20284039 -0.05788306 -0.03698264
0.04972987 0.16222405 -0.045656297 -0.029224899 0.010645911 0.2007646 -0.017649524 -0.038248822
-0.028640425 0.062447593 0.23601316 0.0040968456 0.032105286 0.006728627 0.046671756 -0.045827918
0.031696238 0.060948312 -0.014001874 0.017365701 0.03467997 -0.0308614 0.11872519 -0.030027814
0.12272503 -0.049047433 0.13242638 0.029372599 0.023316259 0.05956538 -0.06001296 0.018646609
-0.008197792 -0.035254832 0.029259339 0.2411661 0.01243107 0.011910637 0.112935305 0.03655841
0.015100159 -0.0030220575 0.04790367 -0.042180233 -0.03503588 0.18831094 -0.033624716 -0.016656637
-0.056188237 -0.0066789105 -0.05701635 -0.022789553 0.061987624 0.055003036 0.015600242 -0.03307324
0.03122322 -0.057127796 0.008952633 0.02920764 0.05372501 0.04483658 -0.03786674 0.03174796
-0.055913784 0.04075837 0.014412209 0.21072054 0.027288362 -0.0016078725 -0.00035121207 4.7923582e-05
-0.029024892 -0.0021131167 -0.050272565 0.2261903 0.00011012808 0.22738221 0.18720521 -0.00068411866
-0.023142785 -0.0037758804 -0.047070675 0.045257654 0.043908708 0.030177638 0.046798266 -0.013090976
-0.014658756 -0.029374797 0.224086 0.1948759 -0.038177177 -0.0076243877 -0.029142924 0.049839128
0.15099154 -0.013225499 0.057602644 0.1532151 0.16133238 -0.052620836 -0.028413588 -0.05031106
-0.03661522 -0.050652444 -0.037221394 0.2265396 0.17350489 -0.034105204 0.21689734 -0.027301162
0.23058486 0.055761628 -0.04024341 -0.041859306 -0.04433412 -0.04483319 0.13613096 0.06142804
-0.008572549 0.0050691287 -0.038654156 0.060539506 0.15501079 -0.06515097 -0.015736774 0.038459476
0.036612306 0.13751669 -0.007571929 -0.020053096 0.027994558 -0.051614705 -0.026187066 0.02287348
-0.05909717 0.030416906 0.03555753 0.20467395 -0.03759595 -0.01859933 0.05877871 -0.03598261
-0.039582387 0.17271 0.0302373 0.059964016 -0.025783427 0.029563246 0.04716879 0.009247206
-0.0596833 0.0115978345 0.14664108 0.17525887 -0.015363015 -0.044580948 0.04998047 -0.02759815
0.04496051 0.028732695 0.04346638 0.17933218 0.019432642 0.19764103 0.045637935 0.046042338
0.018771142 0.03780351 0.0056670606 -0.02220571 -0.0038271025 -0.03190507 -0.017023243 0.041614562
-0.038735293 0.062095955 -0.016590245 0.017406804 0.21284585 0.19344465 0.011932331 0.012220317
0.17032045 0.045691386 0.18699007 0.036584966 0.0134582445 0.036335662 -0.046935163 0.033321917
0.006888859 -0.04287952 0.04525098 0.047484547 0.065123536 -0.008280158 -0.0065731853 -0.030712172
0.061782815 0.036570556 -0.02128723 0.03615648 0.122216046 0.05888781 0.014089906 -0.0204517
-0.0035030022 -0.00906872 0.18440673 0.11514697 0.004008502 -0.02355424 -0.030745149 -0.055194326
-0.050879247 -0.04458648 0.046099342 -0.013432711 0.0164513 0.061820004 -0.026826978 0.14998016
0.027773425 -0.008642562 0.004671693 0.008710183 0.0033361763 -0.022458702 0.005080417 0.052229233
0.051868297 0.033794895 -0.037267137 0.16634241 -0.027960539 0.031194039 -0.054715488 -0.035810217
0.039473914 0.052005857 -0.022472352 -0.05480832 0.04093481 -0.002529643 -0.066052996 0.13464083
00000000: 662e 2d3d 99ec 0fbd eaf1 32bd c8fe 03bd
00000010: e071 1fbd 64b5 4f3e ca16 6dbd 1c7b 17bd
00000020: 8cb1 4b3d 101e 263e 1902 3bbd 0e69 efbc
00000030: 306c 2e3c 3c95 4d3e bc95 90bc ccaa 1cbd
00000040: 539f eabc 0cc9 7f3d 6fad 713e d53e 863b
00000050: d580 033d d07b dc3b e22a 3f3d 0eb6 3bbd
00000060: ead3 013d f0a4 793d 1e68 65bc 8442 8e3c
00000070: 960c 0e3d 0cd1 fcbc 3126 f33d e4fc f5bc
00000080: 4357 fb3d f6e5 48bd c89a 073e ce9e f03c
00000090: bd01 bf3c d4fa 733d 26d0 75bd c6c0 983c
000000a0: 0850 06bc 5f67 10bd 48b1 ef3c 3ff4 763e
000000b0: b0ab 4b3c d524 433c a04a e73d 45be 153d
000000c0: a866 773c b60d 46bb a436 443d 2ec5 2cbd
000000d0: c881 0fbd 95d4 403e 12ba 09bd 8073 88bc
000000e0: a325 66bd c3da dabb fa89 69bd 28b1 babc
000000f0: bce6 7d3d dd4a 613d 2898 7f3c ce77 07bd
00000100: d7c7 ff3c d6fe 69bd 10ae 123c dc44 ef3c
00000110: c20e 5c3d 90a6 373d 281a 1bbd 260a 023d
00000120: da05 65bd 40f2 263d 3021 6c3c 20c7 573e
00000130: d88b df3c 40bf d2ba e322 b8b9 8e01 4938
00000140: 9cc5 edbc 377c 0abb 9bea 4dbd 6e9e 673e
00000150: 90f4 e638 e2d6 683e b9b2 3f3e 6d56 33ba
00000160: f095 bdbc c374 77bb 2ecd 40bd 1760 393d
00000170: 9ed9 333d 1837 f73c 8aaf 3f3d 887b 56bc
00000180: 472b 70bc 6aa3 f0bc cd76 653e 8c8d 473e
00000190: ac5f 1cbd 00d6 f9bb 24bd eebc 1d24 4c3d
000001a0: 879d 1a3e c3af 58bc c0f0 6b3d 6be4 1c3e
000001b0: 5134 253e f288 57bd 9dc3 e8bc f812 4ebd
000001c0: d7f9 15bd f078 4fbd 7675 18bd fff9 673e
000001d0: 44ab 313e e6b1 0bbd 561a 5e3e b0a6 dfbc
000001e0: 701e 6c3e 4e66 643d 46d6 24bd aa74 2bbd
000001f0: b297 35bd 02a3 37bd ea65 0b3e f89b 7b3d
00000200: e073 0cbc ef1a a63b d253 1ebd 46f8 773d
00000210: 26bb 1e3e df6d 85bd 68ea 80bc af87 1d3d
00000220: c9f6 153d 2dd1 0c3e f21d f8bb 6446 a4bc
00000230: d854 e53c f169 53bd 4286 d6bc 2a61 bb3c
00000240: e00f 72bd e02c f93c c6a4 113d 0c96 513e
00000250: 36fe 19bd 9f5d 98bc f2c1 703d 8062 13bd
00000260: 2421 22bd e4da 303e 37b4 f73c d49c 753d
00000270: c437 d3bc 9f2e f23c 1034 413d 9881 173c
00000280: 7a76 74bd d804 3e3c 1429 163e 1077 333e
00000290: 28b5 7bbc 839a 36bd 52b8 4c3d 8415 e2bc
000002a0: 8328 383d d460 eb3c ce09 323d dba2 373e
000002b0: 3431 9f3c 6962 4a3e d8ee 3a3d e496 3c3d
000002c0: f0c5 993c dad7 1a3d c0b2 b93b c0e8 b5bc
000002d0: 20d0 7abb e4ae 02bd 5474 8bbc 0874 2a3d
000002e0: e6a8 1ebd 5458 7e3d 44e8 87bc b798 8e3c
000002f0: 43f4 593e 5b16 463e d37f 433c b937 483c
00000300: 7c68 2e3e e426 3b3d 537a 3f3e 1eda 153d
00000310: f87f 5c3c b4d4 143d 163f 40bd 907c 083d
00000320: f0bb e13b 70a2 2fbd 1759 393d 287f 423d
00000330: 7d5f 853d 80a9 07bc e063 d7bb 1898 fbbc
00000340: fa0f 7d3d 02cb 153d 8f62 aebc d118 143d
00000350: 684c fa3d 5834 713d 59d9 663c 538a a7bc
00000360: a092 65bb f894 14bc 1ed5 3c3e 2dd2 eb3d
00000370: c059 833b d2f4 c0bc 40dd fbbc 7213 62bd
00000380: c266 50bd 50a0 36bd aad2 3c3d e014 5cbc
00000390: e0c4 863c f936 7d3d 40c4 dbbc 6694 193e
000003a0: 1885 e33c 8899 0dbc 0015 993b 28b5 0e3c
000003b0: c0a3 5a3b 50fb b7bc a079 a63b 52ee 553d
000003c0: da73 543d 846c 0a3d 6da5 18bd aa55 2a3e
000003d0: 800d e5bc a48a ff3c 591d 60bd bcad 12bd
000003e0: 66af 213d 1804 553d f017 b8bc b07e 60bd
000003f0: 42ab 273d 5ec8 25bb cb46 87bd 49df 093e

bias f4 [128]
0.20263417 0.29462406 0.010457143 0.027885718 0.014759418 0.0058295345 0.0027291821 -0.029306058
-0.052876532 -0.009919111 0.008620298 0.006379834 -0.022754857 -0.058428902 0.27126613 -0.059068896
-0.036148205 -0.04869788 -0.0040590893 -0.008850666 0.01524087 -0.06449375 -0.06805578 -0.07020848
-0.0041524656 0.036069848 0.3562058 0.02492569 -0.017001674 0.003675224 -0.02772016 0.044929735
0.04316226 -0.05985996 0.04860675 0.18477426 -0.048484452 0.03743879 -0.055801783 -0.0025718317
-0.0018453896 -0.021132777 0.3522729 -0.026672857 0.04079763 0.2877769 -0.042473435 0.0015132601
-0.064768 0.012603364 0.020292064 0.025988085 -0.04061301 -0.05376623 0.26542196 -0.06674866
-0.049875308 0.017645463 -0.010474086 0.04931481 -0.0017246176 -0.0025998238 0.020555362 0.004185881
-0.009221003 0.04755931 0.22921948 0.05824067 0.035436295 0.038888 0.19162515 -0.032961454
-0.044679984 0.22181256 -0.007925053 0.018275883 -0.031432763 0.02293722 0.3307673 -0.04120276
0.03638103 -0.05775991 0.29107326 -0.029918633 -0.007157445 0.031044707 -0.04221182 0.044270094
-0.0046335575 0.039227214 0.010060287 -0.0017561913 -0.0401918 -0.02858559 0.017964892 0.00614926
-0.053295486 0.02695375 -0.04460077 -0.075044364 0.023629375 0.032782078 0.1759904 0.01655847
-0.032236136 -0.034653176 0.013364973 -0.028021358 -0.059092235 0.39063907 0.014689646 -0.036665693
0.045987297 0.015085121 0.044443473 -0.030114073 -0.08524759 0.015567583 -0.048949182 -0.014166333
-0.04822757 0.33367008 -0.025329039 -0.038794644 -0.010173139 0.02831468 0.010321497 -0.03981357
00000000: 557f 4f3e f7d8 963e 7054 2b3c 9770 e43c
00000010: 7cd1 713c ae05 bf3b 14dc 323b 4213 f0bc
00000020: 1095 58bd c483 22bc 263c 0d3c ed0d d13b
00000030: 6568 babc 2553 6fbd 65e3 8a3e 3af2 71bd
00000040: 2410 14bd 6e77 47bd 1c02 85bb 6202 11bc
00000050: d8b4 793c 4d15 84bd d460 8bbd 77c9 8fbd
00000060: 6811 88bb fabd 133d 9b60 b63e f630 cc3c
00000070: 1847 8bbc 07dc 703b 6415 e3bc 3e08 383d
00000080: e9ca 303d b82f 75bd df17 473d 7735 3d3e
00000090: a297 46bd 6b59 193d 6990 64bd 2d8c 28bb
000000a0: 00e1 f1ba a51e adbc 1d5d b43e 0981 dabc
000000b0: 6a1b 273d 7e57 933e a0f8 2dbd 9558 c63a
000000c0: 16a5 84bd 577e 4e3c 8b3b a63c f7e4 d43c
000000d0: d459 26bd fa39 5cbd 63e5 873e 85b3 88bd
000000e0: 0d4a 4cbd 388d 903c 809b 2bbc 54fe 493d
000000f0: 900c e2ba ce61 2abb b863 a83c b729 893b
00000100: b113 17bc 8dcd 423d 83b8 6a3e c58d 6e3d
00000110: a625 113d 0649 1f3d 6239 443e 9702 07bd
00000120: 5c02 37bd d522 633e 15d8 01bc 4eb7 953c
00000130: a4bf 00bd d6e6 bb3c 555a a93e 3ac4 28bd
00000140: 4604 153d a895 6cbd 8e07 953e ec17 f5bc
00000150: 0089 eabb 7851 fe3c 4de6 2cbd 8f54 353d
00000160: 19d5 97bb b7ac 203d e7d3 243c 0030 e6ba
00000170: 28a0 24bd 542c eabc 1c2b 933c bb7f c93b
00000180: 5e4c 5abd 1cce dc3c 4caf 36bd dcb0 99bd
00000190: 6492 c13c 8046 063d d436 343e a1a5 873c
000001a0: 0a0a 04bd 7df0 0dbd c2f8 5a3c 0c8d e5bc
000001b0: b30a 72bd d801 c83e d7ac 703c c42e 16bd
000001c0: 2d5d 3c3d 9527 773c 5c0a 363d cab1 f6bc
000001d0: 4a96 aebd 2d0f 7f3c f07e 48bd e819 68bc
000001e0: 468a 45bd ced6 aa3e d87e cfbc 22e7 1ebd
000001f0: 3dad 26bc 30f4 e73c 7f1b 293c 8e13 23bd

weight f4 [5, 128]
-0.33102652 -0.3654988 0.074378796 -0.036314324 0.037048243 -0.006420724 -0.025518253 0.011574589
-0.021234646 -0.34689867 0.06806744 -0.04995903 0.035182744 -0.019362666 -0.34685352 0.08122086
0.05905857 -0.07753214 -0.07241982 0.040692516 -0.0033043325 0.031811293 0.072713 0.049727865
-0.017907634 -0.008673735 -0.43305296 -0.036566067 -0.03142567 0.032476738 0.056801476 -0.011247262
-0.00085578114 0.05732272 0.026310578 -0.3102504 -0.016197346 0.06517821 0.08258017 0.061393432
0.0012916774 0.0541571 -0.32859734 -0.075049475 -0.038047478 -0.4393162 -0.06105744 -0.3296141
0.042517327 0.025797278 -0.087194145 -0.43224397 0.102862574 -0.005089909 -0.3375109 0.06686967
-0.04701027 -0.0265067 -0.07051613 -0.027902246 -0.07116802 -0.06308871 0.07283529 0.021986889
-0.081753254 -0.065853335 -0.38399005 -0.45450318 0.05893836 -0.08181738 -0.40850034 0.06623197
-0.08732752 -0.35444123 0.039183028 0.062262185 0.0002233237 0.012091182 -0.40407714 0.016400255
-0.063483074 0.082755886 -0.45498303 -0.064320266 0.019779444 0.041254155 0.079167224 0.253256
-0.021118194 0.019205272 -0.0736884 -0.050685197 -0.04550616 -0.0038695633 -0.012995809 -0.06755503
-0.016775087 0.0707911 0.024459228 -0.021669017 0.08813197 0.026796937 -0.45379183 0.05879689
-0.04770332 0.058242284 0.056491785 -0.004930377 -0.027681027 -0.38354617 -0.021254785 -0.032335453
0.021337897 -0.049876884 0.021046154 -0.06321803 0.030603142 -0.08201919 0.086351626 -0.08546856
-0.0023098662 -0.43544173 0.076163985 0.07344348 0.013093412 -0.02890531 -0.0575272 -0.077494316
-0.04767324 0.058780767 0.05064381 0.036589384 -0.045375876 0.016386107 -0.004265137 -0.055537123
-0.0066263154 -0.05127406 -0.04603781 -0.037912775 -0.086182915 0.062712826 0.034644056 -0.004859872
-0.07110076 -0.046792693 0.025780372 0.08831983 -0.026397604 -0.12408383 -0.17059948 0.053865947
0.026737489 -0.06739729 0.0069330824 0.072811194 -0.078390144 -0.03973591 -0.04555829 0.035151653
0.027873695 -0.051912546 -0.054479554 0.01556042 -0.057294805 0.07407581 -0.03610436 0.008498818
0.019461036 -0.018983163 -0.061164066 -0.07180927 0.063575394 -0.010013786 -0.07465425 0.024280163
-0.07873618 0.012419768 0.08663496 -0.019199977 -0.15417348 0.07166348 -0.059720542 0.03515801
0.05954262 0.026156269 0.043290697 -0.08381908 0.048449762 0.06773222 0.026843034 -0.08203943
0.019078553 -0.06615145 -0.019770477 -0.032579355 -0.0010061488 -0.0632669 -0.0460886 -0.044233307
-0.040300585 0.070964426 -0.05435405 0.053967558 -0.014775485 -0.008663818 -0.04012509 -0.070799
0.04422132 -0.21245922 -0.05807277 -0.08706886 -0.03200035 -0.039597858 -0.013579175 -0.042459525
0.034169838 -0.021995574 -0.043158963 0.025300898 0.05811105 -0.083532766 -0.07216361 -0.044857595
0.059787057 0.06537899 0.07261769 -0.13433197 -0.06196112 -0.027840596 -0.04012863 0.076034196
-0.06888968 -0.04208915 -0.07838241 0.056986474 0.06033624 0.07053771 0.012443386 0.08047076
-0.010666713 -0.0065326244 -0.047952227 -0.016469672 -0.036157746 -0.06815203 -0.07106362 0.08379606
0.045550577 0.022508945 0.05865609 -0.081779994 0.0013530627 0.0017644465 0.037493654 0.024035081
00000000: 4f7c a9be a922 bbbe e953 983d 54be 14bd
00000010: e6bf 173d f064 d2bb a80b d1bc 58a3 3d3c
00000020: 48f4 adbc b49c b1be f166 8b3d d7a1 4cbd
00000030: c81b 103d 749e 9ebc c996 b1be 1f57 a63d
00000040: 66e7 713d 2cc9 9ebd d850 94bd 32ad 263d
00000050: 808d 58bb 8f4c 023d 8eea 943d 72af 4b3d
00000060: 08b3 92bc 481c 0ebc 1eb9 ddbe 4dc6 15bd
00000070: 34b8 00bd 5406 053d aaa8 683d 7046 38bc
00000080: 8056 60ba 3acb 6a3d 4889 d73c 24d9 9ebe
00000090: 4cb0 84bc 277c 853d cb1f a93d ae77 7b3d
000000a0: 804d a93a d6d3 5d3d e93d a8be 8ab3 99bd
000000b0: acd7 1bbd 0eee e0be 5e17 7abd 2ec3 a8be
000000c0: a626 2e3d d054 d33c d892 b2bd 154f ddbe
000000d0: 9da9 d23d 40c9 a6bb 3bce acbe f7f2 883d
000000e0: d78d 40bd 9424 d9bc c36a 90bd 4093 e4bc
000000f0: 8ac0 91bd a734 81bd ab2a 953d d91d b43c
00000100: 406e a7bd 1dde 86bd 589a c4be a4b4 e8be
00000110: 5a69 713d df8f a7bd f526 d1be a1a4 873d
00000120: c5d8 b2bd 5279 b5be 627e 203d a206 7f3d
00000130: 002c 6a39 181a 463c 33e3 cebe d459 863c
00000140: 6a03 82bd eb7b a93d 89f3 e8be 58ba 83bd
00000150: 8008 a23c 1efa 283d 6d22 a23d c5aa 813e
00000160: 1000 adbc 6054 9d3c f2e9 96bd 489b 4fbd
00000170: ab64 3abd 8098 7dbb 60ec 54bc 4b5a 8abd
00000180: e86b 89bc edfa 903d b85e c83c 3983 b1bc
00000190: 897e b43d 4085 db3c 6757 e8be 02d5 703d
000001a0: 8e64 43bd 768f 6e3d ee63 673d 008f a1bb
000001b0: 52c3 e2bc 2a60 c4be 841e aebc 2e72 04bd
000001c0: d0cc ae3c b44b 4cbd fc68 ac3c 7478 81bd
000001d0: 71b3 fa3c adf9 a7bd 1fd9 b03d 240a afbd
000001e0: 2061 17bb 38f2 debe ddfb 9b3d 8969 963d
000001f0: c085 563c d4ca ecbc a4a1 6bbd 57b5 9ebd
00000200: 0445 43bd 1ac4 703d e26f 4f3d c0de 153d
00000210: 0edc 39bd 283c 863c 90c2 8bbb e57a 63bd
00000220: 9021 d9bb c004 52bd 2592 3cbd 6d4a 1bbd
00000230: ab80 b0bd 956f 803d ede6 0d3d 903f 9fbb
00000240: 469d 91bd b2a9 3fbd 5c31 d33c 07e1 b43d
00000250: ca3f d8bc aa1f febd a1b1 2ebe 8aa2 5c3d
00000260: 9408 db3c 9707 8abd e92e e33b 091e 953d
00000270: 038b a0bd 1fc2 22bd 549b 3abd 2efb 0f3d
00000280: 6057 e43c 40a2 54bd f425 5fbd 22f1 7e3c
00000290: f5ad 6abd 0fb5 973d 2ae2 13bd a03e 0b3c
000002a0: c06c 9f3c 9482 9bbc 2c87 7abd bd10 93bd
000002b0: d133 823d dd10 24bc 54e4 98bd 31e7 c63c
000002c0: 6f40 a1bd 487c 4b3c ab6d b13d 4549 9dbc
000002d0: a7df 1dbe 4dc4 923d 879d 74bd d801 103d
000002e0: f6e2 733d ac45 d63c 9651 313d 56a9 abbd
000002f0: 4273 463d 31b7 8a3d ece5 db3c 4a04 a8bd
00000300: a04a 9c3c 697a 87bd b2f5 a1bc ee71 05bd
00000310: c0e0 83ba 1492 81bd 66c7 3cbd fc2d 35bd
00000320: 3a12 25bd cc55 913d 5aa2 5ebd 160d 5d3d
00000330: e014 72bc b0f2 0dbc 355a 24bd 11ff 90bd
00000340: 6a21 353d e98e 59be b6dd 6dbd 2951 b2bd
00000350: cd12 03bd 5d31 22bd 307b 5ebc 0aea 2dbd
00000360: acf5 0b3d 1030 b4bc 74c7 30bd d443 cf3c
00000370: da05 6e3d 3a13 abbd 84ca 93bd 99bc 37bd
00000380: 46e3 743d 6be5 853d 95b8 943d 528e 09be
00000390: f2ca 7dbd f611 e4bc eb5d 24bd d1b7 9b3d
000003a0: 0816 8dbd ac65 2cbd f586 a0bd a66a 693d
000003b0: 2223 773d 1376 903d 58df 4b3c dbcd a43d
000003c0: 70c3 2ebc a00f d6bb 8e69 44bd 68eb 86bc
000003d0: 251a 14bd 4b93 8bbd ce89 91bd 459d ab3d
000003e0: 3e93 3a3d ae64 b83c 5e41 703d 457c a7bd
000003f0: 4059 b13a 0045 e73a f292 193d 38e5 c43c

bias f4 [5]
-0.38804665 -0.055100117 0.21171325 0.24219573 0.4188457
00000000: 0dae c6be a9b0 61bd 5ccb 583e 2802 783e
00000010: f272 d63e
