dqn_models/dqn_model_ver11.pth (torch, 401310 bytes, 6 tensors)

weight f4 [256, 256]
000000 96 95 5f bf 01 5e 9a 40 87 01 99 3f 7a b0 1c 40
       -0.87337625 4.823975 1.1953591 2.4482713
000010 f8 70 a6 bf 29 14 2e 3f 67 28 8c 3f 1f af 48 40
       -1.3003225 0.6799951 1.094983 3.1356885
000020 c6 01 65 40 12 e5 8f 3e 47 62 f8 3e 89 b3 e4 3f
       3.5782332 0.28104454 0.4851248 1.786729
000030 a3 0c df 3f 6c f9 95 3f c7 44 03 c0 7f a0 9c 3f
       1.7425731 1.1716743 -2.0510728 1.223648
000040 93 08 01 c0 18 e9 05 c0 06 55 83 3f 88 9e d4 3f
       -2.0161483 -2.092352 1.0260322 1.661088
000050 7e 10 5c 3e 4f d3 5e 40 82 41 a2 40 02 fb b9 bf
       0.21490666 3.4816473 5.0704966 -1.4529727
000060 cd e2 97 40 c4 c9 c3 bf b0 bc 17 c0 a5 c7 82 bf
       4.7464356 -1.5295949 -2.3708916 -1.0217177
000070 ab 17 aa bf 02 e6 17 40 e4 63 fe be 1c 82 18 bf
       -1.3288473 2.3734136 -0.49685585 -0.5957353
000080 dd 12 61 3f 32 e5 51 be d8 50 2e 3f 56 78 c4 3e
       0.8791941 -0.20497587 0.6809211 0.3837306
000090 a1 0e 13 be 98 ac 0f 40 b9 d7 45 3f 64 b3 9e be
       -0.14361049 2.2449093 0.7728229 -0.3099624
0000a0 2b 2e 71 3d 30 2a ac c0 5a 91 da 3d 8f 0f ca 3f
       0.05888192 -5.38015 0.10672255 1.5785998
0000b0 35 34 d7 3f d0 d7 c7 bf 10 2c 38 c0 94 bd 2f 3f
       1.6812807 -1.5612736 -2.8776894 0.6864865
0000c0 d4 44 32 3f 7e ce 4e 40 08 81 c4 3e 94 a5 0f be
       0.69636273 3.2313533 0.38379693 -0.14028007
0000d0 15 90 2a bd c1 ce 99 3f 47 ca ca 40 ef 9f 0b c0
       -0.041641314 1.2016221 6.337192 -2.1816366
0000e0 2d 75 d8 3f ec 80 d5 be cd 88 6b 40 4c bb 47 3f
       1.6910759 -0.41699922 3.6802247 0.7802017
0000f0 a5 e0 30 3f 0e db f3 bf 6e b4 88 40 4c 5f ab bf
       0.6909278 -1.9051225 4.272025 -1.3388457
000100 a3 0e 03 c0 35 e5 24 c0 a5 93 f3 3f a6 63 a8 be
       -2.0477684 -2.5764897 1.9029433 -0.32888526
000110 1e e2 ac 3e 91 da 96 bf fc 0c f7 3e 8d 5b bd 3e
       0.33766264 -1.1785451 0.48252094 0.3698391
000120 68 d7 ed 3e 8b 4a 1b c0 1f e2 a6 bc 83 64 8c 40
       0.46453404 -2.4264247 -0.020371495 4.3872695
000130 33 a6 b2 3c 1b 54 68 bf 40 06 c4 bf 30 85 ac 3e
       0.021807766 -0.90753335 -1.5314407 0.33695364
000140 f0 cf 21 40 74 2e a6 3f b9 f8 e6 3f f2 d1 e0 3f
       2.5283165 1.2982926 1.8044654 1.756407
000150 73 09 f8 3f c3 ae 82 3f 1a 8d b9 c0 3a d7 fb bf
       1.9377884 1.0209583 -5.7984743 -1.9675057
000160 2f d7 ad 40 ae ed 87 bf 92 4f e0 bf 33 b9 f0 be
       5.4325175 -1.0619409 -1.7524283 -0.47016296
000170 20 6e d4 c0 88 57 07 c1 1f 93 b6 bf 89 72 1a 40
       -6.638443 -8.45887 -1.4263648 2.4132407
000180 e7 05 c0 bf 5f 2d 12 c0 e3 5c 93 bf c2 da 1f bf
       -1.5001801 -2.2840192 -1.1512722 -0.6244317
000190 4f e4 35 bf 21 3f 5d c0 b2 e7 04 bf 2a 4b 48 c0
       -0.71051496 -3.456978 -0.5191604 -3.1295877
0001a0 dd 9d 65 3f a3 09 76 3f d2 4e d0 3f 48 8c ac 3e
       0.89694005 0.96108454 1.6274054 0.33700776
0001b0 31 c4 ad 3e a3 cb e5 3f 20 2b 52 be 9d 4c b9 3f
       0.33938745 1.795277 -0.20524263 1.4476506
0001c0 80 b9 9a 3f 36 02 20 40 6f eb 5c 40 16 40 3c c0
       1.208786 2.500135 3.4518697 -2.9414115
0001d0 12 73 ef 3f b2 80 1b 40 c6 9c 1d bf 6a 06 14 3e
       1.8706992 2.42973 -0.6156734 0.14455572
0001e0 91 30 02 3f b9 7d b0 bf 6a 31 aa be 7d 10 11 40
       0.50855356 -1.3788368 -0.33240825 2.2666314
0001f0 0f ac fc 3f 7c a3 2e bf 89 6a b4 3f 7f 54 8b bf
       1.9740008 -0.6821821 1.4095012 -1.0885161
000200 69 06 15 40 b9 f5 41 bf 60 e0 98 3f 0d 4f 11 40
       2.3285162 -0.7576557 1.1943474 2.2704499
000210 92 5b 7f bf f3 eb 57 bf d7 d4 21 40 0d fc 14 c0
       -0.997491 -0.84344405 2.5286157 -2.327884
000220 79 68 a0 3c 2e 31 44 3f cb 4a cd bf 3c ef 48 c0
       0.019581066 0.7663754 -1.603845 -3.1396017
000230 2d 50 50 3f b2 69 52 3f af 6f 0a bf 6f 8e ca bf
       0.8137234 0.8219253 -0.54076666 -1.5824717
000240 b5 b2 ac be 3d 63 f6 3f 45 ad 45 40 39 f1 a7 3f
       -0.33730093 1.9249035 3.0887005 1.312049
000250 26 46 86 3f 84 d8 38 40 cb b1 61 40 08 a6 11 3f
       1.0490158 2.888215 3.5264766 0.5689397
000260 f0 9b 6e bf a8 ce dc 3f 45 2d a9 3f 06 2c be 3f
       -0.9320669 1.7250566 1.321694 1.4857185
000270 7b c2 2c bf 59 bf 63 3b b0 fb 22 c0 95 4e ee bf
       -0.67484254 0.0034751503 -2.5466118 -1.8617731
000280 cb f3 36 40 9b ea c9 40 7b 8f 12 c0 5a 5f c5 bf
       2.85863 6.3098884 -2.2900074 -1.5419724
000290 ec 1f dd bf f1 0d 46 40 6f f5 60 3f c5 cb dd be
       -1.7275367 3.094601 0.878745 -0.43319526
0002a0 a2 d0 4a c0 a6 a5 5a c0 63 a6 0c bf 4d de 85 c0
       -3.168984 -3.4163604 -0.54941386 -4.1833863
0002b0 12 f8 a7 3e fe db a5 c0 69 28 ab bf 6c fb 10 40
       0.3280645 -5.1831045 -1.3371707 2.2653456
0002c0 d8 f3 b4 be 9b fd d4 bf 99 1c 4c 3f 2d 12 92 3e
       -0.35342288 -1.6639894 0.79731137 0.28529492
0002d0 c3 59 88 bf e1 45 d4 bf 80 fa a7 3f 8d 91 36 40
       -1.0652393 -1.6583825 1.3123322 2.8526337
0002e0 db 0c 32 3f 34 24 2e 40 98 b0 45 3f 88 c4 0c 40
       0.69550866 2.7209597 0.77222586 2.1994953
0002f0 87 8f dc 3f 4f 9c 90 3c 8f b9 4d 40 5b d9 e9 3f
       1.7231301 0.017652659 3.2144506 1.8269457
000300 be 14 60 40 c3 ab 81 3f e8 0c 3e 40 f8 cc ee bf
       3.501266 1.0130543 2.9695377 -1.8656301
000310 d9 15 3d bf 6a 55 80 bf 34 3f b5 3f 81 78 7b c0
       -0.7386146 -1.0026066 1.4159913 -3.92923
000320 17 4d bb 3f 9b 17 2f c0 bf 94 8e be f6 4c bf 3f
       1.4632901 -2.7358158 -0.2784786 1.4945362
000330 1a db 84 bf 5e 8e 8f 3f 37 ca 87 c0 c1 9e 73 3f
       -1.0379364 1.1215322 -4.2434344 0.95164114
000340 26 49 8d 3f 04 52 0d c0 8f b7 91 bf c8 6f e8 bf
       1.1037948 -2.2081308 -1.1384143 -1.8159113
000350 96 ee 63 40 ba a4 a1 bf 77 f3 61 3f 27 bb 8d 40
       3.5614371 -1.2628396 0.8826212 4.4290957
000360 d2 c0 4e c0 78 c4 89 c0 09 d0 93 3f 8a d0 89 3f
       -3.2305188 -4.305233 1.1547862 1.0766766
000370 50 90 95 3e 74 8d fc 3e 1a 3a 09 3f bd 20 9c 3f
       0.29211664 0.4932667 0.5360428 1.2197491
000380 61 9b da c0 24 0e a0 3f af 6c 2c c0 8e 41 c7 3f
       -6.831467 1.2504315 -2.6941335 1.5566881
000390 5e 7c 14 40 4b 39 01 3d 97 19 6e 3f fe 43 29 c0
       2.3200908 0.03154878 0.93007797 -2.644775
0003a0 d3 cc c7 bf 53 fa 4d 40 f6 9a 0f 40 e0 44 45 40
       -1.5609382 3.2184036 2.243833 3.0823288
0003b0 57 41 66 3f 99 cb 12 3e 63 ab b1 c0 30 40 85 3d
       0.8994345 0.14335479 -5.552171 0.065063834
0003c0 f3 a1 05 bf 10 9c 77 bf 7f 70 a7 3f f1 2d 88 3f
       -0.5220024 -0.9672251 1.3081206 1.063902
0003d0 38 35 ee 3e 4e bf d3 bf 26 71 de 3d 6b 0f a8 40
       0.46524978 -1.6542757 0.10861425 5.251882
0003e0 da ee aa bf c9 5c d2 bd 56 4c ca bf 6f 7a 52 3f
       -1.3354142 -0.102716036 -1.5804546 0.8221807
0003f0 48 4f 51 c0 e9 b9 58 40 f5 f4 9e bf e1 4e 02 3f
       -3.270464 3.386347 -1.2418505 0.5090161

bias f4 [256]
000000 99 00 c2 3e 6d 00 12 3e 8c 80 48 bd b0 88 36 3e
       0.3789108 0.14257975 -0.048950717 0.1782558
000010 28 68 5a 3e 97 31 d8 3c 80 d6 17 bd d6 94 3b bd
       0.21328795 0.026390834 -0.037069798 -0.045796238
000020 d5 04 99 3c 1b 25 23 3f 24 52 4d bd 00 76 c5 bb
       0.018679062 0.63728493 -0.050127164 -0.0060260296
000030 a3 b9 bc 3e a1 a9 f6 bc 38 ee 21 bd 87 74 22 3f
       0.3686038 -0.030110182 -0.039533824 0.63459057
000040 ad ed aa 3e a8 2e 39 bc 6d 5a d1 3d 6d 7b 01 3e
       0.33384457 -0.011302628 0.102223255 0.1264474
000050 2c f6 ec bc d5 43 9e 3e 13 58 0e 3f 4e 15 58 bd
       -0.028925978 0.30911127 0.5560314 -0.052754693
000060 12 ca 50 bd 05 b4 96 3c 48 1e 31 bd e2 96 1f 3e
       -0.05097396 0.018396387 -0.04324177 0.15584901
000070 d4 c5 46 bd 62 68 06 bd 13 5f 41 3e d9 1c 22 3e
       -0.048528507 -0.03281439 0.18883924 0.15831317
000080 24 b9 38 bd 30 42 74 bd f1 88 f0 bc ae a5 68 bd
       -0.04509844 -0.059633434 -0.029362174 -0.05679863
000090 58 26 fc 3d 80 81 5a 3e f3 f5 ca 3d e0 a4 05 bd
       0.12312001 0.21338463 0.09910192 -0.03262794
0000a0 30 01 8b bc ed 8e 5d 3e 73 cc bf 3d 37 16 c6 3e
       -0.01696834 0.21636553 0.093651675 0.38688824
0000b0 20 f4 cc ba 94 ec dd bc 3b 16 b5 3e ad b4 0d 3e
       -0.001563672 -0.027090348 0.35368523 0.13838454
0000c0 d8 0b 60 bd d0 14 48 3c 06 80 99 3e bc ec 6c bd
       -0.054698795 0.012211993 0.29980487 -0.057842955
0000d0 3b aa 02 3d 44 24 14 bd 1e ea 24 bd 8e 90 4b 3e
       0.031900626 -0.036167398 -0.040262334 0.19879362
0000e0 e2 7c 6f bd e2 8d 59 3e 72 0e 43 bd d8 24 bf bc
       -0.058468707 0.2124553 -0.047621198 -0.023332998
0000f0 ee 48 1d bd 95 ad 85 3e d4 be 43 bd a0 3d 22 bd
       -0.03839963 0.26108995 -0.04778941 -0.03960955
000100 e4 a0 5d bd f8 6f 39 bd 3c 17 15 bd 20 89 27 3e
       -0.054108515 -0.045272797 -0.03639911 0.16360903
000110 f4 49 87 3e 4c 1a 55 bd e9 6a 78 3e 0e 5f 7a bd
       0.2642361 -0.05202703 0.24259533 -0.061125807
000120 82 c7 22 bd f1 f4 ad 3e 99 a1 5d 3c fd 51 c0 3e
       -0.039741047 0.33975938 0.013527297 0.37562552
000130 f7 42 a5 bb e0 c0 a0 3b 40 4b b8 3e 58 a5 3e 3e
       -0.005043383 0.004905805 0.3599491 0.18617761
000140 02 65 41 bd d8 0c 61 3e 49 c7 57 3e 20 e3 b8 bc
       -0.04721547 0.21977556 0.21072115 -0.02256924
000150 c4 49 f7 bc 31 ae 63 3e 9a 44 dd 3d 6c 8f dd bc
       -0.030186541 0.22234417 0.108041 -0.027045928
000160 59 51 03 bc ea 67 62 3e 17 b8 fc 3d 54 a4 22 bd
       -0.008015 0.22109953 0.123398 -0.039707497
000170 b0 18 23 bd fd 93 6f 3e eb 4a d1 3c 0f ba 0d 3d
       -0.039818466 0.23396297 0.025548419 0.034601267
000180 45 57 56 3e 7e 66 4c bd 79 31 2e 3e 88 c6 45 bd
       0.20931728 -0.04990243 0.1701106 -0.048285037
000190 2a 25 3a 3e 0e 4d 55 3e 99 31 ab 3c ab 2d b0 3e
       0.1817824 0.20830175 0.020897673 0.34409842
0001a0 39 50 64 3e ed d0 58 3e fc 64 7d 3e cc 94 21 3c
       0.22296228 0.21173449 0.24745554 0.009862136
0001b0 b0 a3 40 bd 96 c1 c6 3e 54 6c 5d bd 66 84 51 bd
       -0.047031105 0.3881957 -0.054058388 -0.051151656
0001c0 97 3f 9d 3e 7e 52 39 3e 04 f3 87 3e 92 48 43 bd
       0.30712578 0.18097875 0.26552594 -0.04767663
0001d0 90 a0 2e 3e 1c a8 74 bd 37 ed 22 bc 20 48 4c 3e
       0.17053437 -0.059730634 -0.009944252 0.19949389
0001e0 96 b0 09 bd 49 9c 59 3e a4 e7 c9 bc 1e 9b 0a 3e
       -0.03361567 0.21251024 -0.024646588 0.13535735
0001f0 66 01 0e bd 78 55 31 3e b5 be f4 3d 58 22 5c bd
       -0.034669302 0.1731776 0.11950437 -0.05374369
000200 82 3d 4d 3e bb e0 b6 3e c9 ec 96 bc 74 fc b9 bc
       0.20042995 0.3571833 -0.018423455 -0.022703387
000210 bc 60 78 bc f6 3d 7b bd 07 81 5e bd ce 98 aa 3e
       -0.015159782 -0.061338387 -0.05432227 0.33319706
000220 01 9c 51 3e e8 0b ff bc c7 a3 64 3e 80 05 45 bd
       0.20469667 -0.031133607 0.22328101 -0.04810095
000230 ce fa 51 bd f4 3d 44 bd 50 b5 48 3e a2 83 aa bc
       -0.051264577 -0.047910646 0.19600415 -0.02081472
000240 b6 e3 a2 3e fe 78 ad 3d 76 5a 47 3e 7a 0e 79 bd
       0.31814355 0.08470343 0.19468102 -0.06080482
000250 b7 c5 2c 3e 16 41 46 3e f5 3e b3 bc 4c 32 34 bd
       0.16872297 0.19360766 -0.021880606 -0.04399328
000260 07 6f e7 3d 42 a9 39 bd a6 bd 49 bd ae ea eb bb
       0.11300474 -0.045327432 -0.04925313 -0.007199607
000270 9e 20 03 bd fe db f3 bc c8 88 30 bd 31 d7 4a 3e
       -0.032013528 -0.029767986 -0.043099195 0.19808652
000280 c8 ba 29 bc cc f8 bd 3d 73 fd de bc 34 26 35 3b
       -0.0103594735 0.0927597 -0.027220463 0.002764118
000290 bd b0 10 3c 88 64 e1 bc 62 5b 51 bd 14 e8 48 3e
       0.0088312 -0.027513757 -0.05111254 0.19619781
0002a0 0a 7a 8b 3e 94 6b 53 3e aa f3 3a bd a8 f0 14 3c
       0.27241546 0.20646507 -0.045642532 0.00909058
0002b0 63 9f 36 3e 1a da 33 bd 71 1c bb 3e f2 86 d4 3a
       0.17834239 -0.04390917 0.36545137 0.0016214533
0002c0 07 f3 99 3e 3f 63 32 3e ca f2 8f 3f 6a ea 7a 3a
       0.30068228 0.17420672 1.1245968 0.00095716736
0002d0 f2 a8 0f 3e 90 33 af 3e 3c cb 4a 3e 8e 95 0a bd
       0.14029291 0.34219027 0.1980409 -0.033834033
0002e0 ac d5 72 bd da e7 58 bd 57 dc ff bc 19 9d 43 3e
       -0.059285805 -0.052955486 -0.031232996 0.19102897
0002f0 f0 83 ba 3b 9c 1f 37 3e 52 e1 79 bd 44 ac fb bc
       0.0056919977 0.17883152 -0.061005898 -0.030721791
000300 71 f5 a7 3e 71 7d 65 3e 8e c9 7d bd df 2d 51 3e
       0.32804444 0.22411133 -0.061959796 0.20427655
000310 73 38 03 3e c8 78 43 bd 90 45 95 bb 04 78 d5 bc
       0.12814502 -0.047722608 -0.0045554116 -0.026058204
000320 39 ee 6d 3e 21 56 d1 3e 24 f9 2a bd eb 1a 52 3e
       0.23235406 0.40886024 -0.041741505 0.20518081
000330 31 88 4a 3e f2 27 2d bc 72 20 2d 3f d8 99 24 3e
       0.19778515 -0.010568606 0.6762763 0.16074312
000340 83 21 28 3e 59 04 9e 3d c8 eb 48 bd de 5d 5d 3e
       0.16419034 0.07715673 -0.049052984 0.21617839
000350 7d b8 a4 3f 4e 1f 00 bd 9c 09 45 3e 95 46 66 3e
       1.2868801 -0.031279854 0.19241947 0.22487862
000360 a9 3a 29 3e 03 a4 6b bc 96 4e 4d 3e a8 1a 28 bd
       0.16526283 -0.014382365 0.2004951 -0.041041046
000370 11 4d c2 3e 6a 02 7e bd a6 58 41 3e 34 d0 b8 3e
       0.37949422 -0.06201402 0.18881473 0.36096346
000380 b2 28 1b bd da 4a 57 3e 74 86 90 bc 65 2b 41 3e
       -0.037880607 0.21024647 -0.017642237 0.1886421
000390 e8 79 0f bd e5 96 48 3e a0 6c 87 3c bd b2 8e 40
       -0.03502837 0.19588812 0.016531289 4.4593186
0003a0 c0 e8 3b bd 04 a5 6d bd 9a 20 c6 3d 4e 6e d1 3c
       -0.045876265 -0.0580187 0.09674187 0.025565293
0003b0 27 84 1a 3f 94 12 d8 bc 48 0d ee bc 03 73 ab 3e
       0.603579 -0.026376046 -0.029059067 0.33486184
0003c0 bb 1a 3e 3e 2c 1f 40 3e 24 11 ad bc c8 8f 15 3c
       0.18564884 0.18761891 -0.021126337 0.009128518
0003d0 83 be cb 3d 22 50 ed 3d 8b 7c 81 3e 76 d2 c0 3d
       0.099484466 0.1158755 0.2529033 0.09415142
0003e0 36 e4 3d 3f f4 f4 f8 bc 48 d0 12 bd b2 d9 25 3e
       0.7417635 -0.03039024 -0.035843164 0.16196325
0003f0 84 47 24 bd 1e 04 43 bd 33 23 c8 3d 4f 38 4e 3e
       -0.040107265 -0.04761135 0.09772339 0.20138668

weight f4 [128, 256]
000000 57 fc 53 40 6e ce 90 40 96 33 44 bd 93 7a 64 40
       3.3122766 4.525199 -0.04790076 3.5699813
000010 4e 4c 65 40 34 44 0f c0 fc 1d 57 bd 60 22 3d bb
       3.5827823 -2.2385378 -0.05251883 -0.00288596
000020 68 1c a6 3d 79 06 da 3e fc 10 ed 3c 98 b6 b5 bc
       0.08110887 0.42583063 0.028938763 -0.022181794
000030 62 4f 54 40 49 f3 b2 3b 5e 42 4e bd 6d 14 bb 3e
       3.3173451 0.0054611308 -0.05035626 0.3653902
000040 f9 c6 52 40 84 31 17 3d ab ee b4 40 0e ca 98 40
       3.2933943 0.036912456 5.6541343 4.774665
000050 58 77 d3 bc a4 11 5a 40 be 13 31 40 b8 c0 25 3c
       -0.025813743 3.4073267 2.76683 0.0101167485
000060 00 0c d5 bc 1d 34 98 3b f4 f5 56 3d cb d2 18 c1
       -0.026006699 0.0046448843 0.052480653 -9.551463
000070 20 93 b9 bc 42 b8 18 3d f6 8c 63 40 a2 94 6a 40
       -0.022653162 0.037285097 3.5554786 3.6653218
000080 ec 2e 49 bd a8 02 e9 3c e6 c4 5e 3d f0 b5 3f 3d
       -0.049117014 0.02844365 0.054386996 0.04680437
000090 9f 0e 85 40 c5 9e 60 40 fb 59 96 40 32 22 78 3d
       4.158035 3.5096905 4.698484 0.060579486
0000a0 a0 7f 38 3d 4a f8 69 40 45 75 a5 40 61 74 50 40
       0.045043588 3.6557794 5.170565 3.2571032
0000b0 5b 31 83 3d 70 20 e8 bb 45 27 56 40 31 94 87 40
       0.06405898 -0.007083945 3.3461468 4.23684
0000c0 52 35 4a bd ce 7a 0a 3d 8d f1 5a 40 d0 9e b0 bb
       -0.049367256 0.033808522 3.420993 -0.0053900257
0000d0 d1 d5 c8 bb 90 00 ba bb 90 cc 02 bd 5f 80 66 40
       -0.0061290045 -0.0056763366 -0.031933367 3.6015851
0000e0 de 5d 6d bd e8 86 65 40 98 60 c7 bc fc c0 d7 bc
       -0.057950847 3.586359 -0.024338052 -0.02633714
0000f0 20 51 bb 3c 31 43 5f 40 c0 38 23 bb 34 46 fe bc
       0.022865832 3.488476 -0.0024905652 -0.031039335
000100 ca 92 01 3d 0c 28 9f bc d8 3e 70 3d 3c ca 19 c1
       0.03163413 -0.019428276 0.058653682 -9.611874
000110 4b 0c 60 40 74 f8 82 3c 7a e8 63 40 2c 11 d5 3c
       3.5007503 0.015987612 3.5610642 0.026009165
000120 b8 ff cc 3c d8 ef 54 40 9c 09 40 bd bd 0a 55 40
       0.02502428 3.327139 -0.046884164 3.3287804
000130 04 1b 10 bd b8 2f 0b bc d3 84 5a 40 50 d6 69 40
       -0.035182014 -0.008495264 3.414357 3.6537056
000140 80 18 bb 3a d1 76 63 40 ed d3 62 40 02 a4 68 3d
       0.0014274269 3.554127 3.544185 0.056797035
000150 2c ca a0 bc c9 39 69 40 c3 b9 f2 bf e0 95 b8 bb
       -0.019627653 3.644152 -1.896294 -0.005633101
000160 64 7f 65 bd 55 99 66 40 3b e8 8f 40 e2 c4 31 3d
       -0.056029692 3.6031086 4.4970984 0.043400653
000170 9c 91 08 bd 06 20 90 3f da e4 1b bd e4 97 b6 bb
       -0.03334199 1.1259773 -0.038060047 -0.005572306
000180 a1 9e 62 40 9a 58 70 3d eb aa 66 40 e2 ec 64 bc
       3.540932 0.058678247 3.604182 -0.013972493
000190 3d bf 62 40 34 c7 65 40 f1 71 bc ba 70 27 55 40
       3.5429223 3.5902834 -0.0014377219 3.330532
0001a0 37 f3 66 40 0b 06 61 40 9b 94 5f 40 35 a2 e4 bc
       3.6085947 3.5159938 3.4934452 -0.027909378
0001b0 6c bc a5 bc 4a 19 56 40 d0 c4 cd bc 08 d4 91 3c
       -0.020231448 3.3452935 -0.025118262 0.0178013
0001c0 b5 99 b6 3d cb 95 67 40 15 e3 5b 40 00 f5 4b ba
       0.08916036 3.6185176 3.435735 -0.00077803433
0001d0 e5 21 79 40 d8 cc 1d bd 47 b3 86 bb d5 dd 61 40
       3.8926938 -0.038525432 -0.004110727 3.5291646
0001e0 3b c2 13 bb a3 da 6a 40 00 95 75 bb f4 e9 8c 40
       -0.002254619 3.6695945 -0.0037472844 4.4035587
0001f0 9c ca d5 bc 82 7a 64 40 21 8c 06 c0 ca 56 2b 3d
       -0.026097588 3.5699773 -2.1023028 0.041830815
000200 45 e2 7c 40 7c 1d 58 40 43 93 ea 3c 08 06 e8 bc
       3.9513104 3.3767996 0.028634673 -0.028323188
000210 2a ac 7e 3d 14 31 c2 3c d6 a0 0b bd 6e 6e 54 40
       0.062175907 0.023705043 -0.034088932 3.31924
000220 5c 5d 67 40 12 96 4f 3d 85 87 71 40 f8 d4 ad bc
       3.6150732 0.050680228 3.7738965 -0.021219715
000230 ac 7d 66 bd f0 e4 1f bd 52 4e 67 40 43 9a 11 bd
       -0.056272194 -0.03903669 3.6141553 -0.035547506
000240 29 c1 55 40 c9 32 96 40 fd 33 68 40 20 1c 52 3b
       3.3399146 4.6936994 3.628173 0.003206022
000250 27 30 6a 40 d1 d2 69 40 db 98 a7 3c 22 dd 1a 3d
       3.659189 3.6534922 0.02045863 0.037808545
000260 e2 f9 b6 40 d4 8d 4a 3d a4 e9 71 bd 11 28 94 3c
       5.7180033 0.049451664 -0.059060708 0.018085511
000270 8c de eb 3c c6 08 39 3d 4a 67 f9 3c fb f8 61 40
       0.028792642 0.045174383 0.03044476 3.5308216
000280 9e 94 2a 3d ea fd 9c 40 ac ae 21 bc d0 9d 34 bb
       0.04164564 4.9059954 -0.009868305 -0.0027559884
000290 7b b8 4e 3c 74 9c 6c 3d f8 ed b4 bc 8a dd 64 40
       0.012617226 0.057766393 -0.022086129 3.5760217
0002a0 5b 7c 5a 40 c5 b6 65 40 7e a2 46 3d 92 b9 42 3c
       3.41384 3.5892804 0.04849481 0.011885064
0002b0 93 9f 63 40 c4 e7 83 bc ab fb 4f 40 80 66 e8 3b
       3.5566146 -0.016101725 3.2497356 0.007092297
0002c0 25 e1 5c 40 a1 f4 65 40 08 71 67 c0 cf 08 2d 3d
       3.4512417 3.593056 -3.6162739 0.04224473
0002d0 9b 47 17 c1 7e 95 58 40 90 f6 66 40 ba 2f 46 3d
       -9.454982 3.3841243 3.608799 0.04838536
0002e0 6a b5 61 bd de f2 79 3d 90 ce 13 3d 38 d2 6a 40
       -0.05510465 0.06102263 0.036085665 3.6690807
0002f0 46 fa ee 3c f9 01 69 40 00 ea 45 3b 42 68 77 3d
       0.029172074 3.6407454 0.003019929 0.060402162
000300 c8 5d 59 40 77 04 63 40 b8 69 69 bc f3 52 65 40
       3.396349 3.5471475 -0.014246397 3.5831878
000310 b1 49 0a 41 c2 c0 4d 3d ac b2 4d bd 3a de 45 bd
       8.642991 0.050232656 -0.050219223 -0.048307635
000320 ef be 67 40 86 c8 4f 40 bc e5 b9 bc 56 e1 64 40
       3.6210287 3.246614 -0.022692554 3.5762534
000330 b2 93 6b 40 a5 e5 26 3d 36 7c 1c 40 cb 07 6c 40
       3.6808896 0.04074635 2.4450812 3.6879756
000340 ae 11 69 40 e3 78 ac 40 a2 14 12 bd 1d 96 68 40
       3.641704 5.3897567 -0.03566421 3.6341622
000350 a1 02 90 3e ca dd 61 bd 16 33 6a 40 3b 6f 66 40
       0.28127006 -0.055143155 3.659368 3.600539
000360 17 32 69 40 56 b7 d7 3b b8 ee 63 40 d8 2a 09 bd
       3.6436822 0.0065831346 3.5614452 -0.033488125
000370 da 77 4e 40 74 85 48 bd 5f 14 67 40 92 9e 55 40
       3.2260652 -0.048955396 3.6106184 3.3378034
000380 b2 95 44 bd 0c f5 67 40 b2 9f 7e 3d 85 1a 61 40
       -0.047994323 3.6243315 0.062164016 3.5172436
000390 d4 fe 4e bd a8 93 63 40 18 fc 91 3b 13 92 5e be
       -0.05053599 3.5558872 0.0044551007 -0.2173541
0003a0 80 77 f4 bc bc a5 08 3d df 8c 97 40 db 17 1a 3c
       -0.029842138 0.03336118 4.735946 0.009405102
0003b0 d9 26 75 3e e2 89 0b 3d 38 18 35 3c e3 67 55 40
       0.239406 0.034067042 0.0110531375 3.3344657
0003c0 e6 18 65 40 0e e5 64 40 be 20 39 bd 76 4e 01 bd
       3.5796447 3.5764804 -0.04519724 -0.031568967
0003d0 c4 5a 97 40 0b 1d 53 41 4b 21 8f 3f 65 91 9d 40
       4.72983 13.194591 1.1182035 4.9239984
0003e0 25 9e 12 40 a4 a3 6d bd b8 d6 08 bc 32 3e 6a 40
       2.2909024 -0.058017388 -0.008351974 3.660046
0003f0 76 39 7a bd 24 47 9c bc a6 e5 98 40 cb 2b 65 40
       -0.061089955 -0.019076891 4.7780333 3.580798

bias f4 [128]
000000 4f 5e de 3d 9c 35 4c bf f4 49 95 bd 4a 59 11 bf
       0.10857832 -0.797693 -0.07289496 -0.5677687
000010 fe 8c b4 3f 34 f9 bb 3e bc 59 8e bc 4f 44 56 3d
       1.4105527 0.36713564 -0.017376773 0.052311238
000020 b6 9e 9d bf 55 97 5a 3f 59 ce 8b bd 13 a0 f7 3c
       -1.231406 0.85387164 -0.06826467 0.030227697
000030 63 b8 9c 3f 19 d5 a7 3e ea be 85 3c 83 93 67 bd
       1.224377 0.32779768 0.016326386 -0.056537163
000040 07 08 9f 3f 84 f7 f0 3f c3 d6 95 3f 7c 69 ec 3e
       1.2424325 1.8825536 1.1706165 0.46174228
000050 41 f9 45 3f 85 60 fb 3e 2e 1c 45 3b 74 e7 fc bc
       0.77333456 0.49097076 0.003007661 -0.030872084
000060 5a 56 ae 3a ba d2 24 3f 72 88 25 bf 98 90 8b bd
       0.0013300881 0.64384043 -0.64661324 -0.068146884
000070 77 74 1a 3d b4 67 dc 3c f0 05 19 3f 0c 89 2d 3f
       0.037708726 0.026904918 0.59774685 0.6778724
000080 55 d5 2f bd e9 56 2d bd ad a6 f3 3f 26 df 01 40
       -0.04292806 -0.042319212 1.903524 2.029245
000090 b9 f6 a2 bf 1f ba ae 3f 77 9a 02 3d d5 f0 0b 3c
       -1.2731544 1.365055 0.03188559 0.008541306
0000a0 91 d4 69 bd aa 93 30 3c 7a b1 e2 3c 98 ca 00 3c
       -0.057087485 0.010777393 0.027672518 0.007860802
0000b0 3e 17 c3 3f 9a 2b 49 bf 7b a3 b6 3c 78 87 cd bc
       1.5241468 -0.78582156 0.02229475 -0.02508901
0000c0 26 b0 15 bd 66 44 82 3c 92 06 02 bd 4a 64 08 bd
       -0.03654494 0.015901756 -0.031744547 -0.033298768
0000d0 b2 f5 ae bd f7 34 b4 3f 32 9d 90 3e c7 73 af 39
       -0.085429564 1.4078664 0.2824493 0.00033464862
0000e0 00 cf 34 3e 4b bd 16 3e 8f 91 da 3f c0 50 b9 3f
       0.17657089 0.14720647 1.7075671 1.4477768
0000f0 60 c2 5a bd 77 86 1c bd 30 4a 5e bc 08 01 09 bc
       -0.053408027 -0.038214173 -0.013567492 -0.008362062
000100 f9 41 6a 3c 74 f9 a7 bc 90 8b 3d bd d1 2a 7e bd
       0.014297956 -0.02050469 -0.046275675 -0.06205255
000110 26 4a 11 be b1 92 37 bc a1 12 26 3d 19 22 e6 3e
       -0.14188442 -0.011204408 0.04054511 0.4494789
000120 86 ca 49 3e 86 f9 85 3e c5 ba d7 bc b4 37 18 bd
       0.19706163 0.26166934 -0.026334176 -0.037162498
000130 ae 5c d4 3e 95 c2 1a 3f 66 f2 6d be 07 a0 ee 3e
       0.4147696 0.6045316 -0.23236999 0.46606466
000140 25 06 17 bc 14 f6 1d bd ec f0 aa 3f 07 c7 cf bc
       -0.009217774 -0.038564757 1.3354774 -0.025363458
000150 28 de 11 bd 4b 52 a3 3f 45 19 9c 3e 9e 85 4d 3b
       -0.035612255 1.2759489 0.3048803 0.003136016
000160 cc b5 a4 3f 04 62 79 bd 6e 41 1c 3f dc 63 27 3d
       1.286798 -0.06088449 0.6103734 0.040866718
000170 9b 4b 7f bd 38 60 0b bc 49 1e 1d 3f 46 6f 8f 3b
       -0.062327962 -0.008506827 0.61374336 0.0043772785
000180 f5 0f 00 3f 6e 45 c7 3f 92 a6 f2 3f 2a 67 21 bc
       0.5002435 1.5568063 1.8957083 -0.009851256
000190 75 2d e6 3f 76 87 92 bd 8f 44 01 3f 73 68 0d 3e
       1.7982622 -0.071547434 0.5049524 0.13809375
0001a0 78 3c 06 bd 28 93 db 3e 87 54 0a bd b7 fb 1e bd
       -0.03277251 0.4288571 -0.033772018 -0.038814273
0001b0 fa 70 d9 3a 21 08 dd 3e ae fe 0f bd 0b 58 a2 3b
       0.0016589456 0.43170264 -0.03515499 0.004954343
0001c0 b1 5a e7 3c 95 85 c8 3c 16 e6 45 3d 36 66 5c bd
       0.028241487 0.02447776 0.04831513 -0.053808413
0001d0 ed 6c d0 3e 4e d3 4a bb 5e 07 50 bd ff 5c c9 bf
       0.40708104 -0.0030948701 -0.050788276 -1.5731505
0001e0 52 55 21 3d 8b d3 dc 3f 34 6f 72 bd 0c dd e8 bc
       0.03938801 1.7252058 -0.059188083 -0.028425716
0001f0 7b a0 d8 3e 7e be 59 bd 96 0a dc be 5f 27 47 be
       0.42309937 -0.053160183 -0.42976826 -0.19448613

weight f4 [5, 128]
000000 54 6e 07 40 31 4b 0d 40 b6 ce 5e 3d 2b e5 06 40
       2.116109 2.2077143 0.054396354 2.1077373
000010 1c 19 10 40 90 f8 03 40 03 b4 33 bd d7 43 4c 3d
       2.2515326 2.062046 -0.043872844 0.049869385
000020 f8 05 18 40 9d 43 05 40 74 a8 21 3d 93 4d 9c 3d
       2.3753643 2.0822518 0.03946729 0.076319836
000030 da d6 91 40 e1 67 01 40 ce ac 5a 3c a5 bd e1 3c
       4.557477 2.0219653 0.013346864 0.02755625
000040 a0 f6 14 40 94 60 d8 40 b8 78 90 40 4a 54 07 40
       2.3275528 6.7617893 4.514736 2.1145196
000050 d0 d4 02 40 b7 35 05 c0 56 d6 fa 3c 6c 9f c6 3c
       2.044239 -2.0814035 0.030619781 0.02424594
000060 60 5e cd bb 88 59 fe 3f e5 be 0a 40 82 a1 e3 3b
       -0.006267354 1.9871073 2.1679013 0.0069467435
000070 48 29 80 bd 42 42 3d bd 05 ad 07 40 87 9d 04 40
       -0.06257874 -0.046205766 2.1199353 2.0721147
000080 77 20 b3 bd 45 98 87 bd b7 ae d6 40 47 01 e6 40
       -0.087464266 -0.0662084 6.7088275 7.187656
000090 e8 34 15 40 43 87 a5 40 82 ab 9c 3d 5e 40 9f 3d
       2.3313541 5.1727614 0.076499 0.07775949
0000a0 6e 59 6b 3d f8 df 88 3d 3f 31 8e 3d 90 57 35 3c
       0.057458334 0.06683344 0.06942987 0.01106824
0000b0 cb 51 b1 40 fd 2c 0b 40 61 99 97 3d b2 6a fe bc
       5.5412345 2.1746209 0.074023016 -0.031056736
0000c0 24 f5 7c 3d a7 3c 60 3d 48 6d 8c bd 36 a8 2e 3d
       0.06175722 0.054745343 -0.06856781 0.042640887
0000d0 da b3 01 3c a0 e6 a4 40 3e 39 09 40 62 bb ae 3d
       0.007916415 5.1531525 2.1441188 0.08531834
0000e0 f9 f4 06 40 1c b4 6c 3f e5 19 c4 40 7f 02 0f 40
       2.108702 0.92462325 6.128161 2.2345273
0000f0 fc 52 32 3d 6d 2a 01 bd ea ca 7d bd d8 d4 eb 3c
       0.04353617 -0.0315346 -0.061961092 0.028788015
000100 67 93 aa 3d d1 e0 00 bd 8e 00 31 3d 31 25 96 bd
       0.08328896 -0.0314644 0.04321342 -0.073313124
000110 90 d9 07 40 14 f4 ad 3d 05 53 2c bd 90 99 03 40
       2.122654 0.0849382 -0.04207136 2.0562477
000120 8f d0 72 3f 99 9e 04 40 e5 0f 01 bd 77 34 9a 3d
       0.94849485 2.07218 -0.0315093 0.07529538
000130 a7 21 e7 bf 78 7e 03 40 03 d5 0e 40 e5 04 06 40
       -1.8057145 2.054594 2.2317512 2.0940487
000140 79 a1 8e 3d 28 eb 71 bb 62 15 9d 40 83 57 5d 3d
       0.06964392 -0.0036913846 4.90886 0.054038536
000150 2c 1f ca 3c 88 3b 99 40 51 68 09 40 e2 9f 60 3d
       0.024673067 4.788517 2.146992 0.054839976
000160 38 c5 9c 40 bc 71 9d bc 89 9b 05 40 15 eb 63 bd
       4.8990746 -0.019219272 2.087618 -0.055644114
000170 c2 5b 3b bd 86 00 90 bd a9 25 05 40 d2 88 8a 3c
       -0.045741804 -0.0703135 2.0804236 0.016910944
000180 8f 16 00 40 39 4c b2 40 cd bd d6 40 5a c3 62 bd
       2.0013769 5.5718045 6.710669 -0.055362083
000190 ee 78 ca 40 ea bb b6 3b 1d a1 ed bf 20 67 82 3f
       6.327262 0.0055766003 -1.8564793 1.0187721
0001a0 73 9e 8f bc 67 a0 05 40 ec 72 5c bd 99 27 8a 3d
       -0.01753161 2.0879152 -0.053820536 0.06745834
0001b0 3f 6b 86 3d 68 6b 03 40 9f d6 05 40 c6 ee 2f bd
       0.06563424 2.0534306 2.0912244 -0.04295232
0001c0 b9 6b 66 3d 14 f0 87 3c c6 7f 20 bb d0 44 c3 3b
       0.056255076 0.01659397 -0.0024490221 0.005959131
0001d0 d7 87 96 3f 22 6a b5 3d ea 53 9d bd d0 3e 2f 40
       1.1760205 0.08858134 -0.07682021 2.7382088
0001e0 2d f9 72 bb b2 f4 c2 40 26 7b 19 3c 50 01 53 bc
       -0.003707479 6.09237 0.00936774 -0.012878731
0001f0 77 9c 05 40 86 7e 16 bd 25 b6 09 40 33 07 06 40
       2.0876749 -0.036741756 2.1517422 2.0941894
000200 7e 23 08 40 d4 f4 0a 40 bd 84 24 3d da e9 0e 40
       2.1271663 2.1711931 0.04016565 2.2330232
000210 c8 9c 13 40 0a b4 06 40 90 cc dc 3c a0 95 90 bc
       2.3064442 2.1047387 0.026953012 -0.017649472
000220 21 3d 14 40 63 52 02 40 c0 02 25 bd fc 43 10 bc
       2.316231 2.0362785 -0.040285826 -0.008805271
000230 6f 06 98 40 91 79 09 40 9c 2b 02 be bd f9 ad 3d
       4.7507854 2.1480448 -0.12711948 0.084948994
000240 21 e2 0e 40 0a 34 d4 40 d7 80 94 40 db 2b fd 3f
       2.2325518 6.6313524 4.6407275 1.9779009
000250 46 fe 04 40 6a 48 f7 bf 0d 87 bf 3c c2 fa 2c 3d
       2.0780196 -1.9318974 0.023379827 0.04223133
000260 2b dc 4b bd f0 a4 03 40 29 dd 0a 40 68 b1 ac 3d
       -0.049770515 2.056942 2.1697485 0.08432275
000270 14 ec 19 bd 92 20 88 bd 08 f5 06 40 86 48 06 40
       -0.037578657 -0.06646837 2.1087055 2.0981765
000280 22 cf 92 bd 93 58 04 bd 04 44 d3 40 31 46 dd 40
       -0.07168414 -0.032311033 6.6020527 6.9148183
000290 a9 3a 14 40 cc a2 a6 40 de 85 17 bc 55 42 59 bd
       2.3160803 5.2073727 -0.009248225 -0.053041775
0002a0 a9 33 95 3d 05 e0 0e bd 93 60 b9 3c d2 05 20 bd
       0.07285244 -0.03488161 0.022629058 -0.03906805
0002b0 22 b9 b2 40 6a ac 07 40 ca 51 56 3d d8 a2 1c 3c
       5.585099 2.1198983 0.052324094 0.009560309
0002c0 ec 7f 4d 3d 70 56 c1 3b d4 ad fd 3c f6 64 67 3d
       0.050170824 0.0059001967 0.030966677 0.05649277
0002d0 c0 54 9a bc 21 68 a3 40 9b ba 06 40 9d b5 8e 3c
       -0.01883924 5.106461 2.1051395 0.017420584
0002e0 09 a9 0b 40 f9 b3 67 3f 86 40 c4 40 e7 70 11 40
       2.182192 0.9050899 6.1328764 2.272516
0002f0 eb 81 27 bd af 45 57 bd b8 4c 62 bc ca d2 73 bd
       -0.040895384 -0.05255669 -0.0138122365 -0.059527196
000300 cf 6e c8 bb b3 aa 24 bd f8 60 53 bd 82 03 89 3d
       -0.006116725 -0.040201854 -0.05160615 0.06690122
000310 b7 ea 08 40 fa 73 82 3d a4 cd 6b 3d e7 02 03 40
       2.1393259 0.06369777 0.05756916 2.0470521
000320 53 82 71 3f 48 1c 05 40 68 06 ce 3c 24 e3 8d bd
       0.94339484 2.0798512 0.02514954 -0.06928089
000330 17 c1 01 c0 48 97 03 40 66 84 03 40 ac 5e 03 40
       -2.0274103 2.0561085 2.054956 2.0526533
000340 dd a6 e0 bc ba 9f f3 bc a5 a4 9d 40 54 5a 13 bd
       -0.027423317 -0.02973925 4.926348 -0.035974815
000350 e0 dd 99 bd d9 02 97 40 3d 39 03 40 64 2b 5e bd
       -0.075130224 4.7190976 2.0503685 -0.0542406
000360 7c 0a a4 40 2b 21 86 3d bf 3f 08 40 07 2a 52 bd
       5.12628 0.06549295 2.1288908 -0.05130961
000370 a5 7c 8f bd 60 64 2b bd ba 2f 06 40 b6 91 d9 bc
       -0.07006196 -0.041843772 2.096663 -0.026558738
000380 b3 48 07 40 66 46 b3 40 34 02 d2 40 3f 5a 0e bc
       2.1138122 5.6023436 6.562769 -0.0086885085
000390 88 29 ca 40 54 ac 80 bd 70 df f5 bf 80 35 80 3f
       6.3175697 -0.06282869 -1.9208813 1.0016327
0003a0 c3 61 51 bd 3c 23 fd 3f 2b 25 c0 bc 73 de f8 bc
       -0.051118623 1.9776378 -0.023455223 -0.03037951
0003b0 3c ad 8c 3c c8 1b 05 40 1d 7b 06 40 84 7a 3d bc
       0.017172448 2.0798206 2.1012642 -0.0115648545
0003c0 8a 02 ec bc 52 3b 64 ba d1 a1 94 3d 7c 46 b2 3c
       -0.028809804 -0.0008706349 0.072574265 0.021762125
0003d0 99 64 89 3f f4 46 bd 3c 9c b3 3b 3d 17 21 34 40
       1.0733825 0.023105122 0.045825586 2.8145196
0003e0 09 a1 33 3d 89 7a c1 40 f1 d8 1f bc 36 5a 39 3d
       0.043854747 6.046208 -0.009756313 0.045252047
0003f0 81 77 01 40 60 d2 cb bb 54 55 0d 40 11 5a 07 40
       2.022919 -0.006220147 2.208333 2.1148722

bias f4 [5]
000000 76 35 5e 3f c4 18 56 3f 85 c8 89 3f 0c ff 6c 3f
       0.86800325 0.8363154 1.0764319 0.9257667
000010 3f 17 80 bf
       -1.0007094
