dqn_models/dqn_model_ver6.pth (torch, 401172 bytes, 6 tensors)

weight f4 [256, 256]
0.051095262 -0.022173911 0.02859743 -0.062204808 0.03290417 -0.04482828 -0.026609711 0.042384245
0.007877238 0.05958073 0.043689586 0.006320432 0.041822627 0.061318748 -0.024812952 -0.009806588
-0.03919182 0.05209446 -0.031604193 -0.04441856 0.014718652 -0.017347865 0.015669666 -0.022494636
0.0019420683 -0.033014946 -0.0341641 -0.038600042 -0.035166204 -0.034239486 0.05893074 -0.029022895
0.0069910064 0.03171836 0.060796328 -0.015716404 -0.0086604655 -0.042031713 -0.032461517 -0.029526867
0.011025026 -0.027134977 -0.03953834 0.0050856844 0.0248968 -0.05670321 -0.016494133 0.008799486
0.027092338 0.00030549616 -0.029817067 0.017840713 0.033376366 0.06121838 0.019067444 -0.020924494
-0.010030702 0.0461376 -0.030956268 0.0033954456 -0.04802292 -0.06114378 0.02994126 -0.042746983
0.013699971 -0.0349812 0.034868628 0.016252324 -0.0245604 0.020534754 0.05877795 0.03929039
-0.0037091747 -0.037332512 0.002128154 -0.044223577 0.021047823 0.01777754 0.039782003 -0.01708933
0.042916723 0.06034626 -0.014526814 0.056251578 -0.003753677 -0.026591256 0.04735262 -0.041517742
-0.04261726 -0.055982888 -0.032224037 -0.026228383 0.015001945 -0.045164824 0.033876806 0.009763427
-0.059508517 0.008210748 0.01838161 0.02087088 -0.05659295 -0.048119456 0.04081127 0.033448756
0.047303423 0.007691011 -0.015630081 0.021156661 0.02598302 -0.049208634 -0.021479107 0.013306081
-0.021541677 0.02584812 0.011593349 -0.030255526 -0.043539815 0.045084 0.024584152 -0.060958296
0.018215738 0.030830204 0.046880707 0.010833792 -0.03497055 -0.006341733 0.060672164 0.045032896
-0.021367319 -0.003357403 -0.061685935 0.06062445 0.055762284 0.024972834 0.0060677603 -0.008475468
0.010438643 0.053066447 -0.040257573 0.050654404 0.054035358 0.033292577 0.010530077 -0.052725352
0.03525272 -0.02689761 -0.045462526 -0.02560588 -0.020760678 -0.028898664 -0.006375015 -0.045856938
-0.022206552 -0.0068288073 -0.0023734197 0.044942014 -0.046899885 -0.03823711 0.01779475 -0.0054187626
0.010985754 0.059525132 0.03505785 -0.020023301 -0.012957394 -0.028006583 0.060180135 -0.01601465
-0.034182325 0.016672134 0.012621097 0.024343692 0.061272293 0.033292457 0.013453737 0.038105875
0.038716108 0.018862471 -0.05012051 -0.0016176999 0.03894458 0.046550952 -0.005590886 0.041040808
-0.05463385 -0.011932887 -0.00797005 0.009137258 -0.044494092 0.04309769 0.024886966 -0.01614967
-0.016154245 0.037512876 -0.00067296624 -0.034143068 0.008660398 -0.028777413 0.053401418 -0.021833673
-0.00083657354 -0.017195664 0.0350888 0.0044984743 -0.022141516 -0.036648892 -0.043810852 0.053474054
-0.03366106 -0.008472495 -0.05836343 -0.049175173 -0.040570647 1.7136335e-05 -0.019696347 0.010859065
-0.015892036 0.026830055 -0.045672596 0.058419347 -0.04388368 0.058040746 -0.059806682 -0.03791801
0.030458726 0.05503355 0.027063519 0.013674729 0.039935037 0.01892373 0.020916358 -0.031373784
-0.039331652 0.014053807 0.025271878 0.03222744 0.047073953 -0.035254084 -0.05873581 0.04256723
0.043321386 0.034439556 -0.008071698 0.059023418 -0.04830549 0.0506277 -0.0014706254 -0.0127129555
0.010324098 0.045938008 0.05047772 0.029603764 -0.007409118 0.03530158 -0.045334756 0.027346842
00000000: 4449 513d 10a6 b5bc 2845 ea3c 78ca 7ebd
00000010: 86c6 063d dc9d 37bd 9cfc d9bc 1a9b 2d3d
00000020: 880f 013c ec0a 743d daf3 323d a01b cf3b
00000030: 344e 2b3d 5e29 7b3d 8844 cbbc d0ab 20bc
00000040: 9a87 20bd 0061 553d 6673 01bd 3cf0 35bd
00000050: 8026 713c 1c1d 8ebc ac5d 803c ac46 b8bc
00000060: 008d fe3a ae3a 07bd a8ef 0bbd 141b 1ebd
00000070: 700a 10bd b43e 0cbd 5c61 713d 6cc1 edbc
00000080: d014 e53b 1ceb 013d 9205 793d b0bf 80bc
00000090: a0e4 0dbc 7229 2cbd 5ef6 04bd 54e2 f1bc
000000a0: 50a2 343c 2c4a debc f4f2 21bd d0a5 a63b
000000b0: 60f4 cb3c a041 68bd b41e 87bc b82b 103c
000000c0: c0f0 dd3c 002b a039 ec42 f4bc b026 923c
000000d0: a8b5 083d 20c0 7a3d 5433 9c3c d869 abbc
000000e0: d057 24bc c8fa 3c3d 0098 fdbc 2086 5e3b
000000f0: aeb3 44bd e671 7abd 6047 f53c 7617 2fbd
00000100: d875 603c 7248 0fbd 68d2 0e3d 9823 853c
00000110: e432 c9bc 8038 a83c 26c1 703d f6ee 203d
00000120: a015 73bb fae9 18bd 8078 0b3b c823 35bd
00000130: 7c6c ac3c 34a2 913c 74f2 223d ecfe 8bbc
00000140: 72c9 2f3d a42d 773d e001 6ebc 0e68 663d
00000150: 4000 76bb e8d5 d9bc d2f4 413d 820e 2abd
00000160: 708f 2ebd 504e 65bd 5afd 03bd e8dc d6bc
00000170: b8ca 753c c0fe 38bd 68c2 0a3d c8f6 1f3c
00000180: 34bf 73bd 6086 063c 0895 963c 68f9 aa3c
00000190: 02ce 67bd e818 45bd b829 273d 9001 093d
000001a0: 3cc1 413d e004 fc3b a80a 80bc bc50 ad3c
000001b0: 58da d43c fe8e 49bd f4f4 afbc c001 5a3c
000001c0: 2c78 b0bc 70bf d33c 08f2 3d3c 70da f7bc
000001d0: ce56 32bd 00aa 383d b464 c93c 68af 79bd
000001e0: 2c39 953c a08f fc3c fc05 403d 3880 313c
000001f0: 483d 0fbd 50ce cfbb 6083 783d 6a74 383d
00000200: 840a afbc e007 5cbb 64aa 7cbd 5851 783d
00000210: fe66 643d d493 cc3c 10d4 c63b b0dc 0abc
00000220: d806 2b3c 345c 593d 20e5 24bd fe7a 4f3d
00000230: 2e54 5d3d cc5d 083d 5886 2c3c 8af6 57bd
00000240: 2865 103d 6058 dcbc ea36 3abd 6cc3 d1bc
00000250: 4c12 aabc e4bc ecbc 80e5 d0bb 7cd4 3bbd
00000260: 84ea b5bc 30c4 dfbb 608b 1bbb 1e15 383d
00000270: 181a 40bd 849e 1cbd 4cc6 913c e08f b1bb
00000280: 98fd 333c a0d0 733d d298 0f3d e807 a4bc
00000290: 404b 54bc 106e e5bc 727f 763d 2831 83bc
000002a0: c402 0cbd 0094 883c b8c8 4e3c 6c6c c73c
000002b0: a8f8 7a3d ac5d 083d 106d 5c3c e814 1c3d
000002c0: c894 1e3d 7885 9a3c 2a4b 4dbd 0009 d4ba
000002d0: 5a84 1f3d 36ac 3e3d c033 b7bb 681a 283d
000002e0: bec7 5fbd 2882 43bc d094 02bc 70b4 153c
000002f0: 703f 36bd 3487 303d c0df cb3c 504c 84bc
00000300: e855 84bc 1aa7 193d 006a 30ba 9ad9 0bbd
00000310: 58e4 0d3c 9cbe ebbc 72bb 5a3d 88dc b2bc
00000320: 804d 5bba ecdd 8cbc 46b9 0f3d f067 933b
00000330: 2062 b5bc 261d 16bd 0273 33bd 9c07 5b3d
00000340: 2ee0 09bd 38d0 0abc 7e0e 6fbd e86b 49bd
00000350: 682d 26bd 00c0 8f37 3c5a a1bc 38ea 313c
00000360: 0430 82bc b4ca db3c 3013 3bbd 2049 6f3d
00000370: 60bf 33bd 22bc 6d3d daf7 74bd ea4f 1bbd
00000380: 9484 f93c dc6a 613d 50b4 dd3c f80b 603c
00000390: ec92 233d f005 9b3c c858 ab3c cc81 00bd
000003a0: 3a1a 21bd f041 663c f806 cf3c ec00 043d
000003b0: 9ed0 403d 9666 10bd f694 70bd fa5a 2e3d
000003c0: c471 313d 7e10 0d3d 283f 04bc 8ac2 713d
000003d0: fadb 45bd fe5e 4f3d 00c2 c0ba 004a 50bc
000003e0: 6826 293c 7e29 3c3d bac1 4e3d 9883 f23c
000003f0: 30c8 f2bb 6498 103d f0b0 39bd 7c06 e03c

bias f4 [256]
-0.048884697 -0.011908347 0.034168713 0.050264157 -0.007374324 -0.05449146 0.030845372 0.009193728
0.027632624 0.044293858 -0.05853466 0.03001366 -0.02257996 -0.011930202 0.006420149 -0.059807554
0.015081491 -0.05552083 -0.013187382 -0.037949383 -0.037450187 -0.059273884 0.04706766 0.008361932
-0.030810282 -0.03982471 -0.051522724 0.047625814 0.024464652 0.033108853 -0.06638321 -0.02599801
-0.039421193 0.04380851 0.053288747 -0.032697752 -0.04251057 0.008693449 -0.008525237 0.03001085
-0.062432088 -0.053308994 -0.028079972 -0.03342481 -0.04056631 0.030568795 -0.011162619 0.04411326
0.049471896 -0.055253156 -0.025210477 -0.053164333 -0.0007077293 -0.024639368 0.0077251676 -0.054909125
0.042148866 -0.044339627 -0.03814894 0.009690267 -0.047434054 0.050272353 0.024148421 0.033323076
0.034641027 0.042301565 0.0572917 -0.029651575 0.0100824805 0.051759273 0.0143453 -0.04341933
-0.00082860887 -0.015760792 0.046481885 -0.05669997 -0.0571391 0.00021307224 0.01497332 -0.03980715
0.011911862 -0.017036505 -0.043489985 -0.0033881867 -0.0049002497 -0.011222721 0.03108525 -0.02525134
0.017939735 0.048458636 -0.061516017 -0.05876729 0.046683066 -0.045232795 0.04320082 -0.032099836
0.052975588 -0.057654575 -0.01702889 0.029097272 0.015374444 -0.011519864 -0.0059803203 0.015784651
-0.04220023 0.0016628727 -0.013586253 -0.036184587 -0.0124966465 0.048851375 -0.050464958 0.022425942
-0.019497423 0.0568565 -0.030543081 0.0117674805 -0.022553168 -0.03275124 -0.057515956 0.047118634
-0.045002207 -0.034098186 0.023480764 0.03390099 -0.0016551986 -0.04758407 -0.0048167994 -0.050310194
-0.013543368 -0.05313023 -0.004164748 0.04649668 0.045400593 -0.029437812 -0.012834452 -0.054590315
0.031137958 -0.055613466 -0.021194167 -0.02552042 0.021919122 0.0010541877 -0.009738967 0.05593048
-0.038000956 0.03446684 -0.032559685 0.0019470081 0.020247914 0.022075193 0.022390828 0.029263899
-0.0029974058 -0.04751671 0.053431686 -0.039098606 0.04839635 -0.005621241 -0.012599707 0.0240629
0.042229507 0.036035642 -0.01955662 -0.060248367 -0.00787732 0.03100844 -0.018000387 -0.04486213
0.03490254 -0.0025821403 0.06115943 0.0047513735 -0.021978902 -0.0142214075 0.052384533 0.023148114
0.05178328 0.051833417 -0.007485397 -0.032640174 0.010501067 0.04175515 0.0025572777 -0.03852067
0.041436896 -0.0074563627 -0.04046377 -0.0288307 0.01971692 0.056896698 -0.015817367 0.03160012
0.023562547 -0.056667294 -0.0056352764 0.060092896 -0.047831684 0.046915296 -0.05928865 0.059884533
0.009348229 0.012901327 0.01217261 -0.031148419 0.04173618 -0.056382984 -0.06137132 0.037156057
-0.03907655 -0.03318511 -0.005505502 0.025891671 -0.047903925 0.03969031 -0.023295855 -0.012443617
0.050506894 0.013774596 -0.012422355 0.016855855 -0.03923557 0.024201475 -0.02894036 0.012119763
0.04892598 -0.02476053 -0.048962794 -0.04908637 0.058206756 -0.031418428 0.0019936338 -0.00063169
-0.049086228 -0.016878162 -0.03028898 0.0016436361 -0.059732497 -0.03191808 0.044683028 -0.020924877
0.03472075 0.052451637 0.046893604 0.0051767607 0.060755968 0.051417176 0.004608078 0.056295507
0.0033636093 -0.0015354902 0.049476616 -0.019870311 0.062292233 0.014242238 -0.011269417 0.00754788
00000000: 523b 48bd 3a1b 43bc 7ef4 0b3d cae1 4d3d
00000010: 50a4 f1bb 7032 5fbd 6faf fc3c 4aa1 163c
00000020: d05d e23c 7a6d 353d 0ac2 6fbd 35df f53c
00000030: 9cf9 b8bc e576 43bc 1d60 d23b c4f8 74bd
00000040: 5c18 773c cf69 63bd e40f 58bc d070 1bbd
00000050: 5e65 19bd 2cc9 72bd 05ca 403d 7c00 093c
00000060: d865 fcbc 3c1f 23bd 7e09 53bd 4913 433d
00000070: 186a c83c 269d 073d ecf3 87bd c7f9 d4bc
00000080: 1e78 21bd 8d70 333d 4d45 5a3d 14ee 05bd
00000090: 901f 2ebd f86e 0e3c 70ad 0bbc 50d9 f53c
000000a0: cab8 7fbd 885a 5abd f807 e6bc 74e8 08bd
000000b0: dc28 26bd 696b fa3c 6be3 36bc 1bb0 343d
000000c0: 0ba3 4a3d 2251 62bd 3486 cebc d8c2 59bd
000000d0: e986 39ba 80d8 c9bc 6723 fd3b 64e8 60bd
000000e0: 4aa4 2c3d 789d 35bd 1042 1cbd edc3 1e3c
000000f0: 364a 42bd 62ea 4d3d e9d2 c53c c77d 083d
00000100: c0e3 0d3d 6844 2d3d b4aa 6a3d dce7 f2bc
00000110: fd30 253c 8801 543d 8d08 6b3c 78d8 31bd
00000120: 0037 59ba c71c 81bc ca63 3e3d 3a3e 68bd
00000130: b00a 6abd 256c 5f39 a852 753c d20c 23bd
00000140: f829 433c 2490 8bbc 8e22 32bd 570c 5ebb
00000150: 4692 a0bb 81df 37bc 7fa6 fe3c e6db cebc
00000160: 5af6 923c 907c 463d 38f8 7bbd f8b5 70bd
00000170: be36 3f3d 0646 39bd 58f3 303d 1e7b 03bd
00000180: eefc 583d 3427 6cbd 2c80 8bbc 675d ee3c
00000190: 18e5 7b3c d0bd 3cbc 90f6 c3bb d04e 813c
000001a0: 26da 2cbd c0f4 d93a e098 5ebc 4a36 14bd
000001b0: bcbe 4cbc 6118 483d 58b4 4ebd 9cb6 b73c
000001c0: 0fb9 9fbc 5de2 683d 7c35 fabc 64cc 403c
000001d0: 6cc1 b8bc 2a26 06bd da95 6bbd 78ff 403d
000001e0: 3c54 38bd 8aaa 0bbd bb5a c03c c4db 0a3d
000001f0: 40f3 d8ba 84e7 42bd 3ed6 9dbb 1012 4ebd
00000200: 01e5 5dbc 169f 59bd 7078 88bb 4d73 3e3d
00000210: f9f5 393d 9127 f1bc 9847 52bc 189a 5fbd
00000220: 0815 ff3c f2ca 63bd 649f adbc 3310 d1bc
00000230: bb8f b33c ab2c 8a3a 3090 1fbc 5c17 653d
00000240: e4a6 1bbd 1a2d 0d3d 4e5d 05bd c032 ff3a
00000250: f4de a53c 09d7 b43c f86c b73c d8ba ef3c
00000260: 2070 44bb e2a0 42bd 2fdb 5a3d dc25 20bd
00000270: 403b 463d 6332 b8bb 006f 4ebc 8f1f c53c
00000280: d9f8 2c3d 1c9a 133d 3435 a0bc fec6 76bd
00000290: e00f 01bc 6905 fe3c 8c75 93bc 5ac1 37bd
000002a0: f7f5 0e3d 2039 29bb 4f82 7a3d 69b1 9b3b
000002b0: 190d b4bc e800 69bc 2a91 563d 1da1 bd3c
000002c0: b41a 543d 474f 543d 1048 f5bb b4b1 05bd
000002d0: ab0c 2c3c 7307 2b3d 0098 273b dac7 1dbd
000002e0: bcb9 293d 8154 f4bb 57bd 25bd 5c2e ecbc
000002f0: 6185 a13c 830c 693d 6c93 81bc 216f 013d
00000300: 3e06 c13c f71b 68bd 20a8 b8bb f823 763d
00000310: 28eb 43bd 412a 403d a8d8 72bd 7c49 753d
00000320: 5029 193c 1660 533c a06f 473c f82a ffbc
00000330: 8ff3 2a3d d8f1 66bd 7e60 7bbd f330 183d
00000340: bc0e 20bd 1ced 07bd 8067 b4bb c51a d43c
00000350: e836 44bd 4e92 223d f3d6 bebc 50e0 4bbc
00000360: 51e0 4e3d d8ae 613c 2287 4bbc 4a15 8a3c
00000370: 7ab5 20bd 2c42 c63c 5514 edbc f891 463c
00000380: 9c66 483d 98d6 cabc 368d 48bd ca0e 49bd
00000390: 356a 6e3d 9cb0 00bd a0a7 023b 0098 25ba
000003a0: a40e 49bd 1244 8abc 9820 f8bc 476f d73a
000003b0: 10aa 74bd 88bc 02bd 8d05 373d a66a abbc
000003c0: 5837 0e3d 87d7 563d 8213 403d d1a1 a93b
000003d0: 40db 783d d19a 523d 5cff 963b 1e96 663d
000003e0: 0070 5c3b 8042 c9ba fea7 4a3d 10c7 a2bc
000003f0: 2426 7f3d 4758 693c 5ca3 38bc 3554 f73b

weight f4 [128, 256]
0.06075707 0.04431694 -0.053092673 0.016528696 0.047877006 0.03191065 0.04583337 0.06005076
0.017680816 0.047330905 -0.021807179 -0.04903554 0.0089885 0.012079002 0.047325358 0.023897648
0.03184469 -0.05096176 -0.05738443 -0.03569629 -0.022229023 0.035038516 -0.058842193 -0.00011821927
-0.033415463 -0.056238234 -0.0032379478 0.035471607 -0.04225868 -0.060495093 0.011130735 0.00080195814
-0.01541315 -0.026339814 -0.021377392 -0.04204178 -0.059002317 0.018443674 -0.051630467 -0.01230091
-0.0075325295 -0.013667792 0.05818396 -0.040670715 -0.023788542 0.0010652143 -0.06194803 0.052196298
0.006350267 -0.013218194 0.047937684 -0.0151440725 -0.0040387246 -0.050850898 0.019472187 -0.038461447
-0.06027305 0.054722935 0.048196137 -0.020637779 0.017095484 -0.046937633 -0.020313254 0.05445544
0.022105046 -0.012158987 -0.0646004 -0.002036266 0.028435875 -0.024117172 -0.04679492 -0.03359203
-0.053120807 0.028441349 -0.049151808 -0.022220396 -0.024357148 -0.0031198836 -0.05279964 0.06103547
-0.012623903 -0.034633853 -0.02909682 0.03826038 0.0035124437 -0.027462427 -0.035821415 -0.06503682
-0.024172481 -0.020503795 -0.057788126 -0.007955454 0.040654395 0.06126394 0.05162704 -0.020655952
0.03117863 0.0025148168 0.059930623 -0.026594525 -0.026924342 -0.029699579 -0.006742947 0.046645537
0.0112300515 0.04503548 0.061462082 -0.066183016 -0.050048597 0.058339898 -0.048030056 -0.060096614
0.013053104 0.037178606 0.025253646 -0.012694503 0.025297299 0.04285142 0.0447035 0.024933636
-0.016084097 0.02703923 0.022155365 -0.05489117 0.015091158 0.0037666943 -0.009418841 0.05775678
0.046190616 -0.06013505 -0.04947006 -0.06527177 0.023650145 0.011571772 -0.042271778 0.045086406
0.05964776 -0.05540338 0.016682671 0.05385766 -0.010361578 0.043168116 -0.059442885 -0.017711286
-0.017145745 -0.025036948 -0.04353874 -0.0009377599 0.048375938 -0.019702127 -0.0141560575 0.04333672
-0.027828664 0.049932197 -0.05721791 -0.048599504 0.037626415 -0.052713398 -0.02073133 0.04401992
-0.051664144 -0.044101574 0.03166847 -0.048248433 -0.028372012 0.00014799474 -0.010546789 0.04385499
0.04126933 -0.032915346 -0.053209204 -0.059524566 0.034259327 0.034673885 -0.04990504 0.00052574335
0.06185668 -0.012455484 -0.024385318 0.002115275 -0.004968796 -0.04303706 0.060194865 0.04603582
0.05681239 0.012938236 0.018368496 -0.024584003 -0.045013707 -0.050326683 0.0037349388 0.012217416
-0.016163228 -0.04461343 0.037639424 -0.009591989 -0.045660473 -0.0492015 0.0072840154 -0.007972828
0.0013626218 0.019261768 0.0041856095 -0.021413095 -0.004649701 0.0052156746 -0.0062767863 -0.031359356
0.013376899 0.014086037 0.044097163 -0.037191704 -0.018198907 0.059179105 0.04912425 0.061999895
0.03900906 -0.050470345 -0.0018337226 -0.06373046 0.022720277 0.054025915 -0.020020328 0.05198326
-0.0006272933 0.022405557 -0.061081383 0.051996805 0.0063703987 -0.0054273307 -0.047239818 0.040471815
0.060653977 0.009806961 0.06194716 0.042580623 0.026201904 0.044578888 0.025093272 -0.011171827
0.04187241 -0.027598081 0.04368355 0.006714832 0.0457919 0.026057873 0.03403074 0.046869766
0.049188845 -0.034970842 -0.0050395043 -0.038063128 -0.052110285 -0.026731933 -0.03803538 0.03718537
00000000: 68dc 783d ae85 353d b477 59bd 3067 873c
00000010: ae1a 443d beb4 023d c6bb 3b3d c9f7 753d
00000020: 5cd7 903c 0dde 413d f8a4 b2bc 7ed9 48bd
00000030: 8044 133c 02e7 453c 3cd8 413d 00c5 c33c
00000040: 946f 023d 47bd 50bd f00b 6bbd 4636 12bd
00000050: a419 b6bc 8c84 0f3d 8304 71bd 7dec f7b8
00000060: a7de 08bd 105a 66bd c033 54bb ad4a 113d
00000070: 7017 2dbd b4c9 77bd b05d 363c 803a 523a
00000080: 7087 7cbc 98c6 d7bc a41f afbc 0034 2cbd
00000090: 6aac 71bd 3017 973c 787a 53bd c289 49bc
000000a0: 70d3 f6bb e0ee 5fbc 4e52 6e3d 5696 26bd
000000b0: 30e0 c2bc a99e 8b3a 38bd 7dbd c9cb 553d
000000c0: e715 d03b 2091 58bc 4e5a 443d d81e 78bc
000000d0: 4757 84bb 0849 50bd 2384 9f3c c089 1dbd
000000e0: e0e0 76bd 2825 603d 5069 453d 8f10 a9bc
000000f0: d40b 8c3c ad41 40bd fb67 a6bc ab0c 5f3d
00000100: a415 b53c 7d36 47bc 374d 84bd e072 05bb
00000110: 5af2 e83c 6091 c5bc 08ac 3fbd cc97 09bd
00000120: 3495 59bd d5fd e83c 6853 49bd 8c07 b6bc
00000130: a488 c7bc f676 4cbb 6f44 58bd 5400 7a3d
00000140: 7dd4 4ebc 3adc 0dbd 745c eebc ebb6 1c3d
00000150: 0731 663b e2f8 e0bc 7ab9 12bd 0632 85bd
00000160: 5e05 c6bc 93f7 a7bc 3eb3 6cbd 9857 02bc
00000170: 3985 263d e6ef 7a3d e076 533d ac36 a9bc
00000180: 546a ff3c a0cf 243b d079 753d c3dc d9bc
00000190: 7090 dcbc 884c f3bc f0f3 dcbb 640f 3f3d
000001a0: 40fe 373c 2077 383d aabf 7b3d f68a 87bd
000001b0: c2ff 4cbd d1f5 6e3d 2abb 44bd de27 76bd
000001c0: b0dc 553c 9848 183d bce0 ce3c 9bfc 4fbc
000001d0: 483c cf3c f884 2f3d 041b 373d a041 cc3c
000001e0: ccc2 83bc 6081 dd3c 2b7f b53c 90d5 60bd
000001f0: e840 773c a5da 763b 7c51 1abc 6092 6c3d
00000200: 5f32 3d3d 2c50 76bd 1ea1 4abd 35ad 85bd
00000210: f3bd c13c 8897 3d3c 2c25 2dbd 86ac 383d
00000220: 3651 743d a8ee 62bd 19aa 883c da99 5c3d
00000230: 9cc3 29bc 0dd1 303d 627a 73bd 4217 91bc
00000240: 3c75 8cbc 491a cdbc ae55 32bd 00d4 75ba
00000250: d925 463d 5b66 a1bc cfee 67bc d881 313d
00000260: f0f8 e3bc b485 4c3d 545d 6abd 4610 47bd
00000270: 281e 1a3d 01ea 57bd c0d4 a9bc 3b4e 343d
00000280: c89d 53bd daa3 34bd ccb6 013d 26a0 45bd
00000290: 6c6c e8bc 092f 1b39 70cc 2cbc 4aa1 333d
000002a0: 070a 293d 3ed2 06bd e5f1 59bd 08d0 73bd
000002b0: 8253 0c3d 3406 0e3d 3a69 4cbd 0ad2 093a
000002c0: 6e5d 7d3d 1612 4cbc b8c3 c7bc 6da0 0a3b
000002d0: 48d1 a2bb a147 30bd e48e 763d 0e90 3c3d
000002e0: 1cb4 683d e5fa 533c 8779 963c 6464 c9bc
000002f0: 4b60 38bd 5a23 4ebd e0c5 743b 8f2b 483c
00000300: bf68 84bc 92bc 36bd cc2b 1a3d b827 1dbc
00000310: 7a06 3bbd 8387 49bd c0ae ee3b 77a0 02bc
00000320: 009a b23a dbca 9d3c 7027 893b 846a afbc
00000330: 855c 98bb 40e8 aa3b 80ad cdbb ab72 00bd
00000340: c82a 5b3c 1fc9 663c 3a9f 343d 5456 18bd
00000350: e015 95bc ca65 723d 8236 493d 9af3 7d3d
00000360: f7c7 1f3d feb9 4ebd 8559 f0ba 1e85 82bd
00000370: e01f ba3c 474a 5d3d ac01 a4bc 66ec 543d
00000380: f170 24ba dc8b b73c 7930 7abd 9afa 543d
00000390: c7be d03b c0d7 b1bb 8a7e 41bd c6c5 253d
000003a0: 4e70 783d 60ad 203c 4ebc 7d3d 0569 2e3d
000003b0: 60a5 d63c 5a98 363d 6890 cd3c 0a0a 37bc
000003c0: 6782 2b3d 5f15 e2bc 86ed 323d 1808 dc3b
000003d0: 4a90 3b3d 5277 d53c d163 0b3d 83fa 3f3d
000003e0: 3e7a 493d 963d 0fbd 6d22 a5bb 15e8 1bbd
000003f0: 9871 55bd edfc dabc fdca 1bbd b04f 183d

bias f4 [128]
0.0072794585 -0.033725522 -0.055794187 0.037505466 0.045770865 0.011428604 0.0052780136 -0.04015197
0.022522233 0.02569403 0.020226773 0.032058235 -0.0019604636 -0.038604178 -0.004306193 -0.004971252
0.03430548 0.05080046 -0.034411363 -0.03418816 -0.058403067 -0.019269727 0.037296273 -0.02154172
0.04134646 0.061838128 0.020123543 0.0016488874 -0.00060482323 -0.0340937 0.05836539 0.03234805
-0.07837432 0.028633548 -0.026929222 0.034925785 0.047148872 0.028605841 0.04793914 -0.055328324
0.030014576 0.026711684 0.03545383 -0.0769364 0.041726544 -0.026316218 -0.008304509 0.018791035
-0.0037574023 -0.03817699 0.04298283 -0.044357307 -0.043700542 -0.059694633 -0.0025497417 -0.013978438
-0.041699015 -0.04421123 0.04493905 0.036615476 0.0010737106 -0.04801181 -0.02787908 -0.046140034
0.02202376 0.0457334 0.0014278997 -0.0211626 -0.023792617 0.039190684 -0.00012677908 -0.03162383
0.027482867 -0.033139944 0.018311685 -0.026606329 0.047604006 -0.047399625 -0.036670234 -0.034362458
-0.03692172 -0.011346049 0.012677477 -0.021302437 -0.029223688 -0.0153552005 -0.024246797 -0.05145677
-0.056720756 -0.034514748 -0.060891934 -0.009444169 -0.042029426 0.020192755 -0.020652339 -0.045775026
-0.049550056 -0.043086406 -0.030234829 -0.027550764 0.052966367 0.010441296 0.02742641 -0.021662273
-0.03310378 -0.031017587 -0.05084333 0.044562824 0.07033663 -0.047731195 -0.056640845 -0.005571209
0.048212286 0.006852717 -0.036424674 -0.039735094 0.038376175 0.03825243 -0.0012081988 -0.052204523
0.039132234 0.03769989 -0.008545496 -0.014578298 0.052191865 0.024061017 -0.031479947 -0.015687093
00000000: 8688 ee3b c623 0abd 7288 64bd 559f 193d
00000010: 3b7a 3b3d 0a3f 3b3c 30f3 ac3b 6476 24bd
00000020: 8c80 b83c 497c d23c 9eb2 a53c 7f4f 033d
00000030: 1f7b 00bb 6a1f 1ebd f71a 8dbb e2e5 a2bb
00000040: e783 0c3d 2514 503d eef2 0cbd e208 0cbd
00000050: 0e38 6fbd 8cdb 9dbc fac3 183d 4378 b0bc
00000060: e85a 293d fa49 7d3d 21da a43c 7b1f d83a
00000070: 008d 1eba d6a5 0bbd 8c10 6f3d 647f 043d
00000080: b782 a0bd e790 ea3c ac9a dcbc 570e 0f3d
00000090: 2d1f 413d cc56 ea3c d55b 443d f49f 62bd
000000a0: 21e1 f53c 76d2 da3c 0938 113d d590 9dbd
000000b0: 74e9 2a3d 1c95 d7bc a30f 08bc a8ef 993c
000000c0: c03e 76bb 7a5f 1cbd c40e 303d 02b0 35bd
000000d0: 57ff 32bd 5c82 74bd 9119 27bb d205 65bc
000000e0: 96cc 2abd d616 35bd 0212 383d 1cfa 153d
000000f0: c0bb 8c3a 08a8 44bd ab62 e4bc 55fd 3cbd
00000100: 2c6b b43c f252 3b3d 5d28 bb3a 305d adbc
00000110: bce8 c2bc 6986 203d 00f0 04b9 fd87 01bd
00000120: c023 e13c c0bd 07bd 6302 963c 84f5 d9bc
00000130: 6bfc 423d 1c26 42bd 8733 16bd a6bf 0cbd
00000140: 3b3b 17bd c7e4 39bc 31b5 4f3c 7382 aebc
00000150: 8466 efbc 6194 7bbc 38a1 c6bc 56c4 52bd
00000160: 0654 68bd 565f 0dbd d269 79bd b7bb 1abc
00000170: 0c27 2cbd 476b a53c 182f a9bc 987e 3bbd
00000180: 00f5 4abd 5f7b 30bd 08af f7bc 24b2 e1bc
00000190: 43f3 583d f811 2b3c 5aad e03c 1475 b1bc
000001a0: d497 07bd 9818 febc 1841 50bd 8287 363d
000001b0: a70c 903d c981 43bd 3b00 68bd b08e b6bb
000001c0: 3f7a 453d c28c e03b 0a32 15bd 44c1 22bd
000001d0: 5630 1d3d 94ae 1c3d 6d5c 9eba 69d4 55bd
000001e0: 1f49 203d 336b 1a3d 6802 0cbc d0d9 6ebc
000001f0: 23c7 553d 9c1b c53c 1ef1 00bd 3882 80bc

weight f4 [5, 128]
0.045764033 -0.00472188 0.08250693 0.25276768 -0.08004424 -0.07159576 0.0045045917 -0.052213937
0.009542552 0.32258695 0.31439507 0.32814962 0.31302902 -0.07130458 -0.05606423 0.3632502
0.38986176 0.35258618 0.32997596 0.058494925 -0.037907053 0.086366095 -0.03315737 -0.0791158
0.029708313 0.37710673 0.28122112 -0.022608666 0.006537861 0.40169898 0.3983037 0.39523518
0.39463145 0.4019691 0.07826585 0.28634486 0.31909037 0.04833195 0.31785947 0.36194134
0.30321062 0.05265566 0.31482995 0.3321168 -0.057406377 -0.07148892 -0.020391664 0.39314127
0.0010559787 0.022774681 -0.020709852 -0.000113269656 0.38298514 0.35726517 0.31479257 0.34627753
0.35622948 -0.07630735 0.050029203 0.3290139 0.054259885 0.0839559 -0.08373874 -0.012347429
-0.060751826 0.3178574 -0.028243639 0.009199098 -0.06153465 -0.05217505 -0.0321899 -0.0630498
0.02569356 -0.028257512 -0.028423464 0.3097315 -0.075932845 -0.070772395 -0.015441213 -0.049841825
0.35870355 0.3829623 -0.05862571 0.028770844 -0.027981313 0.34005892 -0.035324167 0.07244702
0.39434624 0.01214737 -0.060781796 0.3506175 -0.053018562 0.0042209364 -0.021995703 0.026944848
-0.06310183 0.02548642 -0.0030145429 -0.059336357 0.3965268 0.3217537 0.24617887 -0.040528134
-0.032827534 0.07379952 0.40565598 0.33212358 0.2961994 0.0252966 0.36286727 -0.07518865
0.34410065 0.26369488 -0.08086956 -0.048567627 0.36361268 0.3304677 -0.021235319 0.39025587
0.33683538 0.029303031 0.013545891 -0.0749612 0.3418605 -0.07207792 0.061147943 -0.041646607
-0.0516481 0.0260422 0.050175633 0.38426054 -0.027409326 0.0828319 0.06464489 0.02029609
0.044924114 0.3969078 0.33539134 0.26480484 0.38250628 0.07844753 -0.02435456 0.38557962
0.3312878 0.3065851 0.36612204 0.06718156 -0.03634234 -0.034141287 0.044786002 -0.0016133202
-0.0082138935 0.29297966 0.30894083 0.06821545 0.0054185777 0.28177515 0.27291238 0.35839972
0.35801756 0.4016489 0.052214645 0.32996875 0.25613773 0.058205355 0.3710148 0.30131653
0.38444218 -0.057005264 0.34572595 0.269241 -0.047788102 0.012676487 -0.04863858 0.39249006
0.022036426 -0.0066059176 0.057829075 -0.04460071 0.2705223 0.3145291 0.32138443 0.32172588
0.39001068 0.085590936 -0.045162622 0.39968023 0.07529484 0.062399305 0.07877213 0.09505753
0.060208812 0.30729106 -0.051145535 0.0153650865 0.0023925712 -0.054205135 0.030622182 -0.06515711
-0.017809154 -0.033118635 0.030956184 0.36315158 0.03145371 -0.056579363 -0.07276715 -0.051572207
0.31497368 0.40724093 0.08286305 0.002333963 -0.015650416 0.31558168 0.051103696 0.06149419
0.3789552 0.039854087 0.01506145 0.3598767 -0.04980469 -0.015129554 0.0573925 0.017005874
-0.007100056 -0.02559304 -0.06849509 0.08007986 0.3811413 0.39783147 0.38141903 -0.023947839
0.0022515564 -0.072473824 0.36840755 0.33590227 0.3791971 -0.059820674 0.37574098 0.029481161
0.2620639 0.2482813 0.051965114 -0.032917436 0.39517158 0.33667383 -0.0185553 0.3750928
0.2600478 -0.076541685 0.03541195 0.08579173 0.3925096 -0.03918458 0.051663373 -0.024791408
00000000: 1173 3b3d 00ba 9abb 65f9 a83d c46a 813e
00000010: 3cee a3bd cca0 92bd 419b 933b 48de 55bd
00000020: 5d58 1c3c 1e2a a53e 64f8 a03e 3a03 a83e
00000030: 5745 a03e 2308 92bd 9ba3 65bd eefb b93e
00000040: f69b c73e 2d86 b43e 9cf2 a83e 6098 6f3d
00000050: 6d44 1bbd b5e0 b03d 06d0 07bd 7707 a2bd
00000060: d95e f33c 2214 c13e 37fc 8f3e cf35 b9bc
00000070: 8e3b d63b 7dab cd3e 76ee cb3e 445c ca3e
00000080: 220d ca3e e5ce cd3e d949 a03d cb9b 923e
00000090: d05f a33e b9f7 453d 7abe a23e 6050 b93e
000000a0: 6c3e 9b3e 76ad 573d 6431 a13e 370b aa3e
000000b0: f322 6bbd c868 92bd 6b0c a7bc d049 c93e
000000c0: c468 8a3a f891 ba3c b5a7 a9bc 2f8b edb8
000000d0: a116 c43e 76eb b63e 7e2c a13e 4a4b b13e
000000e0: b663 b63e 0747 9cbd 6ceb 4c3d 8374 a83e
000000f0: 9d3f 5e3d 12f1 ab3d 377f abbd df4c 4abc
00000100: e8d6 78bd 35be a23e 345f e7bc d0b7 163c
00000110: c20b 7cbd 81b5 55bd 8ed9 03bd 4120 81bd
00000120: 4d7b d23c 4c7c e7bc 53d8 e8bc 2195 9e3e
00000130: ae82 9bbd 1ef1 90bd 24fd 7cbc f126 4cbd
00000140: fea7 b73e a213 c43e 8321 70bd d5b0 eb3c
00000150: 1139 e5bc 341c ae3e 13b0 10bd 1a5f 943d
00000160: c0e7 c93e c305 473c 55f6 78bd 2384 b33e
00000170: fe29 59bd c84f 8a3b 5530 b4bc 71bb dc3c
00000180: 883b 81bd e6c8 d03c a38f 45bb ae0a 73bd
00000190: 9005 cb3e e7bc a43e 5016 7c3e d400 26bd
000001a0: 2a76 06bd 3424 973d 24b2 cf3e 1a0c aa3e
000001b0: 73a7 973e d13a cf3c bdc9 b93e 82fc 99bd
000001c0: f62d b03e 0403 873e f19e a5bd d9ee 46bd
000001d0: 712b ba3e 1033 a93e b1f5 adbc 9ecf c73e
000001e0: b075 ac3e e90c f03c 96ef 5d3c 4285 99bd
000001f0: 5708 af3e 979d 93bd 4476 7a3d a295 2abd
00000200: f58c 53bd 7456 d53c f784 4d3d ccbd c43e
00000210: 8689 e0bc c5a3 a93d 8a64 843d fc43 a63c
00000220: 5902 383d 8037 cb3e 6ab8 ab3e 8094 873e
00000230: ddd7 c33e 19a9 a03d 3783 c7bc b16a c53e
00000240: 8e9e a93e b9f8 9c3e 5974 bb3e 7c96 893d
00000250: b5db 14bd bcd7 0bbd 8771 373d 0b76 d3ba
00000260: 9193 06bc 6e01 963e 7e2d 9e3e 8bb4 8b3d
00000270: 538e b13b d544 903e 2cbb 8b3e 2b80 b73e
00000280: 144e b73e eda4 cd3e 06df 553d aaf1 a83e
00000290: 7c24 833e bd68 6e3d a7f5 bd3e 2946 9a3e
000002a0: 9bd5 c43e 5a7e 69bd fe02 b13e f5d9 893e
000002b0: 75bd 43bd 0ab1 4f3c 3f39 47bd 75f4 c83e
000002c0: bc85 b43c 7476 d8bb 2ede 6c3d 3caf 36bd
000002d0: e681 8a3e f509 a13e 808c a43e 41b9 a43e
000002e0: 7baf c73e 4d4a af3d 71fc 38bd e3a2 cc3e
000002f0: 2e34 9a3d 6a96 7f3d 4853 a13d 86ad c23d
00000300: 849d 763d 4155 9d3e fb7d 51bd d8bd 7b3c
00000310: afcc 1c3b 3406 5ebd 5fdb fa3c 1771 85bd
00000320: 81e4 91bc 68a7 07bd d397 fd3c 01ef b93e
00000330: 9bd5 003d c3bf 67bd f206 95bd 613d 53bd
00000340: 3b44 a13e e281 d03e 1ab4 a93d 67f5 183b
00000350: 4d35 80bc ec93 a13e 1c52 513d 55e1 7b3d
00000360: 6a06 c23e 0a3e 233d 4dc4 763c c241 b83e
00000370: 0100 4cbd f3e1 77bc 6614 6b3d e74f 8b3c
00000380: 96a7 e8bb 7fa8 d1bc 2747 8cbd e900 a43d
00000390: f424 c33e 91b0 cb3e 5b49 c33e 422e c4bc
000003a0: d98e 133b 286d 94bd ea9f bc3e 62fb ab3e
000003b0: 1f26 c23e 8606 75bd 1f61 c03e 7a82 f13c
000003c0: 3d2d 863e 743d 7e3e 5fd9 543d 6fd4 06bd
000003d0: ee53 ca3e 8360 ac3e 4901 98bc 2a0c c03e
000003e0: fc24 853e e3c1 9cbd 1f0c 113d 93b3 af3d
000003f0: 05f7 c83e 0380 20bd f99c 533d 5a17 cbbc

bias f4 [5]
-0.056058962 -0.051118255 0.031276453 -0.033340618 0.047166426
00000000: 159e 65bd 6061 51bd bd1b 003d 2c90 08bd
00000010: 9531 413d
