dqn_models/dqn_model_ver2.pth (torch, 398478 bytes, 6 tensors)

fc1.weight f4 [256, 256]
00000000: 0070 24b9 c80f 9fbc 40ac 4dbc 64b5 ccbc
00000010: 90f0 03bc e403 993c 9c77 cc3c 322d 513d
00000020: c67a 20bd 2c6a 31bd 2874 7a3c 6042 5b3d
00000030: 204d 783c 823c 363d a8cc 26bc 7c74 92bc
00000040: d4fb 61bd f84e d73c b032 ab3c 52dd 7e3d
00000050: 6cf0 583d 1e63 72bd ca1b 74bd 76c2 353d
00000060: fadb 09bd a0e8 51bb fc89 113d 7ab7 5c3d
00000070: 60f1 0ebc c0c9 633b b048 ccbc 605b 23bc
00000080: c035 dcbc 507a 5bbd 74d1 ac3c 3468 ddbc
00000090: 1834 cb3c 009e 213b d064 b03b 00bb 35ba
000000a0: 3017 91bc c03c 913b 1a2c 00bd 885e 58bc
000000b0: c052 793b 4af2 203d a04b 73bd 28fb e43c
000000c0: c234 2abd b89e 193d 74d3 0e3d 38b1 f13c
000000d0: 2ac5 1cbd d84e 71bd e23c 7abd c400 793d
000000e0: d2b1 0fbd 0866 d83c 9456 b13c ec41 a1bc
000000f0: ecc3 303d 4a7d 133d 7208 49bd 8443 88bc
00000100: b292 17bd 789d b23c b6fb 29bd e0e4 963c
00000110: d069 423c 10fe ce3c aa72 5b3d 4c72 56bd
00000120: ec3b 703d ecfe e8bc 9403 d8bc b46f 4d3d
00000130: f60e 103d 6003 5bbd 603a 1f3c a4c7 95bc
00000140: 225b 68bd 707a 09bd c061 f93a 4048 8e3b
00000150: c662 2e3d 305f 84bc 6491 493d 80c4 3b3d
00000160: a87f 953c 00b5 803a 5820 02bc 44b2 51bd
00000170: 200b 73bd 60c7 1fbc 20f6 093c a011 5bbd
00000180: a879 08bd 001e 233a 02a5 5a3d 120c 51bd
00000190: 40f1 38bd 0a66 43bd bc79 49bd ecf8 0c3d
000001a0: 0006 fbba 4092 55bd b4c1 4f3d 785b 033d
000001b0: b84b e0bc f060 d43c d47f c23c 5848 1f3d
000001c0: 880f 98bc 8acd 11bd 7803 273c 02c7 4ebd
000001d0: a0f3 603d 829b 413d 9eac 56bd acf0 9fbc
000001e0: d8a4 2ebd 3898 34bc d0c8 90bb 38cd 2d3d
000001f0: 704c 61bc f696 06bd 04c9 d6bc d6ca 29bd
00000200: bccd 1abd 76b8 633d 0823 cc3c 18f5 10bc
00000210: 2e33 2a3d 7217 6a3d d07c eabb b466 71bd
00000220: ae3c 2d3d 58e2 213d 8833 c2bc d095 b73c
00000230: ecc1 1e3d 7a12 023d 54f6 333d a09d fb3b
00000240: 6e8c 27bd d40a 2fbd 40f5 f7bb b2eb 143d
00000250: f44f 493d 4cdf e73c aac7 683d 8ea3 7fbd
00000260: 4e58 203d 5e8f 60bd dc2f e6bc 38c8 4dbc
00000270: c2f9 3abd 548d a0bc cc2e dabc 00f2 48bc
00000280: e48c 613d 8219 453d 8c23 ce3c c82e 99bc
00000290: d462 003d 082d 6f3d 42e3 393d 8cc3 f3bc
000002a0: 4ebf 22bd 38de 6c3d a8f9 283c 3c30 fbbc
000002b0: 20ee 04bb fa36 75bd 9c87 f43c 7018 13bd
000002c0: cec0 60bd 0099 06ba 7831 6dbc c00b df3c
000002d0: 0034 823b 8cff 8b3c 20df fe3c 988b cebc
000002e0: b415 3b3d c01e ddba 5032 3b3d 5ebe 3c3d
000002f0: 28c1 7abc 1822 73bc a054 523d 52b1 26bd
00000300: ea2f 13bd 7ce0 b73c 50e0 203d 9046 6fbc
00000310: 10e6 293d 9601 133d 5076 babb ee39 613d
00000320: e40f 47bd 3e95 6d3d a06e 263c 4ed4 213d
00000330: 88d4 473c 10dc d63c d003 efbb 2098 313c
00000340: 4c3b 81bc 6ad6 18bd d275 18bd 789e 113c
00000350: 9e2e 483d 90a2 343d 640c 183d aa14 5fbd
00000360: 22c7 73bd d423 cebc 4231 32bd 0050 acb9
00000370: f219 26bd d0fa 0ebd f25e 3dbd 382b bf3c
00000380: a2c5 003d 7ee9 6c3d 1e96 773d 3872 1fbc
00000390: 98b8 00bd 50bc f0bb cef7 263d 6cf4 523d
000003a0: c013 d3bc 98e9 423d 768b 663d 469f 2cbd
000003b0: 28d2 4a3c d2ed 1bbd a88c 0c3c 90d8 703c
000003c0: 4292 04bd e018 db3c 0ee7 1d3d b425 dabc
000003d0: f8de 803c 8c73 a53c 4aa8 42bd cc84 a93c
000003e0: cac8 5cbd 36ac 093d 4237 4dbd d891 77bc
000003f0: b84e fd3c feb3 1e3d 304c 3e3d b0f6 703c
-0.00015681982 -0.019416705 -0.012553275 -0.024988838 -0.00805296 0.018678613 0.024959378 0.051068492
-0.039179586 -0.043314144 0.015286483 0.053530097 0.015155107 0.0444913 -0.01018063 -0.01787781
-0.055171803 0.026282772 0.020898193 0.062222786 0.05296366 -0.059176557 -0.059596814 0.044374906
-0.03365705 -0.0032029524 0.035531983 0.053885914 -0.0087245405 0.0034757704 -0.024937004 -0.009970516
-0.026881099 -0.053583443 0.021095969 -0.027027227 0.024805114 0.0024660826 0.0053831115 -0.0006932467
-0.017711252 0.004432291 -0.03129206 -0.013206132 0.0038043708 0.039293565 -0.059398293 0.027951792
-0.04155422 0.03750488 0.034869626 0.02950345 -0.038273968 -0.058913082 -0.06109322 0.060791746
-0.035081692 0.02641584 0.021647729 -0.019684754 0.043155596 0.036008157 -0.04908032 -0.016633756
-0.037005134 0.021803603 -0.041499816 0.018419683 0.011866048 0.02526763 0.05357615 -0.052355096
0.058650896 -0.028441869 -0.026368894 0.050155357 0.035170518 -0.053470016 0.0097185075 -0.018283673
-0.056727536 -0.03356403 0.0019026324 0.004342109 0.042574666 -0.01615867 0.04921092 0.045841694
0.018249348 0.0009819567 -0.007942282 -0.051195398 -0.05933678 -0.009752125 0.008420497 -0.053483605
-0.033319145 0.0006222427 0.05338002 -0.0510369 -0.04515195 -0.047704734 -0.04918836 0.034417078
-0.0019151568 -0.052141428 0.05072184 0.032069653 -0.027379856 0.02592513 0.023742594 0.03888735
-0.018562093 -0.035596408 0.010193698 -0.050482757 0.05491984 0.047267444 -0.052410714 -0.019523941
-0.042637676 -0.01102262 -0.00441847 0.04243204 -0.013751134 -0.03285881 -0.026218899 -0.041453205
-0.03779386 0.055595838 0.024919048 -0.008847497 0.041552715 0.057151265 -0.007155992 -0.058935836
0.042294197 0.0395225 -0.023706213 0.022410303 0.038759157 0.031755902 0.04393609 0.0076787025
-0.04090541 -0.042734936 -0.007567078 0.03635759 0.049148515 0.028304718 0.05683104 -0.062411837
0.039146714 -0.054824226 -0.028098993 -0.012559943 -0.045648344 -0.01959864 -0.026633643 -0.012264729
0.055066004 0.04812003 0.025163434 -0.018699065 0.03134425 0.058392555 0.045382746 -0.02975633
-0.039733224 0.05782911 0.010313429 -0.030662648 -0.0020283535 -0.059866883 0.02984982 -0.035911977
-0.054871373 -0.0005134493 -0.014477126 0.027227283 0.003973484 0.017089628 0.031112254 -0.025213048
0.045674995 -0.0016870126 0.04570228 0.046079986 -0.015304841 -0.014839672 0.051350236 -0.04069645
-0.035934366 0.02244591 0.03927642 -0.014604226 0.04147917 0.035890184 -0.0056903735 0.054986887
-0.04859914 0.058003657 0.010158211 0.03950911 0.0121966675 0.02622798 -0.0072941557 0.010839492
-0.015775345 -0.037313856 -0.037221737 0.00888788 0.048872583 0.044100344 0.03712119 -0.054463066
-0.05951608 -0.025163569 -0.043504007 -0.00032866 -0.040552087 -0.034907162 -0.046233125 0.023336038
0.031438477 0.057839863 0.060445897 -0.009731822 -0.031426042 -0.0073466673 0.04076367 0.05150263
-0.025766253 0.047586054 0.056285344 -0.042144082 0.012379207 -0.0380686 0.008578457 0.01470007
-0.032366045 0.02674526 0.03855043 -0.026629306 0.01573132 0.020196699 -0.047523774 0.020693205
-0.053902425 0.0336115 -0.050101526 -0.015110455 0.030921325 0.038745873 0.046459377 0.014707252

fc1.bias f4 [256]
00000000: 58c7 123c b0a2 913c 04ad 853c e813 ba3c
00000010: 2e9c 6abd c873 fabc 8a44 6cbd 8e3a 7b3d
00000020: 3460 c23c 841e 45bd 0c76 a8bc 20b2 e53b
00000030: 4052 013c 60b8 e53b 8491 afbc 6841 adbc
00000040: 809f 64bb 8ce0 9fbc c005 fdbc c066 09bb
00000050: f8f4 fabc 966c 5a3d 00a5 87b9 c032 663c
00000060: f024 913c 0873 b8bc 609c 5c3c 5839 b83c
00000070: 4e51 683d 7023 213c 30d3 883c 3ab1 7bbd
00000080: 00fa 0f39 50cb bdbb 0040 75bb 90db 0cbd
00000090: 443a 9abc 44ce 7b3d 784f b5bc f8b5 6bbc
000000a0: ccd6 523d e09e 6f3c 2ac7 78bd b08d 5b3d
000000b0: 3e7d 3dbd 6a13 0c3d a0cb b8bb a00f 14bd
000000c0: 2212 323d 2046 c73b 0c0a 753d 100c d73c
000000d0: cc46 b9bc 7456 183d b8d3 86bc ea01 46bd
000000e0: 940c 603d 8880 41bd c478 243d 6ca4 983c
000000f0: f40a a0bc b8a2 3dbc a84f 67bc 2060 523b
00000100: 7685 16bd 2082 7c3d 84e3 8bbc d236 41bd
00000110: 0c0d 843c e8fe a73c bc86 d63c 0286 0cbd
00000120: b0ae 19bc 7072 ff3c ca6a 03bd 027e 083d
00000130: 6856 bf3c e82e e3bc f295 17bd 785f c0bc
00000140: 3897 37bd 2a6c 1ebd a8e1 a1bc 0a4e 503d
00000150: 4063 d33b 86bc 17bd d6da 1a3d 82c2 1f3d
00000160: 5810 14bd e058 34bc 889d 51bc d018 7d3d
00000170: f09d 593c a485 6b3d d09a 06bd c0b1 4e3d
00000180: 24fc e1bc 4042 6f3b ec58 e33c 582e 84bc
00000190: c012 783b 9e6c 19bd 4896 353c 7c61 9b3c
000001a0: 6a8b 123d bccf e3bc 60e3 753b 58e2 d23c
000001b0: c0f6 a33b ec26 a93c 5082 cfbb ae5c 543d
000001c0: f811 c7bc ee26 183d e0f1 41bd 66e9 553d
000001d0: 4eb6 21bd 4cfc 1d3d 20b5 dcbc 760f 56bd
000001e0: 6243 3e3d 4800 3abd d49a 71bd 8cfa 3cbd
000001f0: dc2c ccbc 32a6 3abd b8af 2cbd 345f 15bd
00000200: 4c72 873c 48f6 203d 6ee6 50bd 0488 e83c
00000210: 60f9 523c 8c81 fc3c f22c 5a3d b021 f5bb
00000220: ca42 14bd 3edf 21bd 00d8 baba 6819 61bd
00000230: 225e 783d a0fe 2d3d 102a 3abc da1e 2abd
00000240: b4f5 b53c 3453 43bd 6061 28bd 7467 6c3d
00000250: f49b 543d bcac c0bc a0ba 3dbb 1041 e13c
00000260: 7caf 47bd 08f5 19bd 8cd1 89bc d006 a3bb
00000270: f64d 4d3d d4af a5bc f2d0 79bd 2809 40bc
00000280: 0009 8dbb 8208 7f3d be84 53bd fc9f 6e3d
00000290: 4ecb 2d3d e005 5a3d c430 a4bc 4c61 613d
000002a0: ec7e 49bd e0f5 003b 44cf f6bc 2a6d 583d
000002b0: 849a 9cbc 3e28 40bd 8606 0ebd 5073 db3b
000002c0: d0ae 65bd 86ee 1c3d 78d5 b43c 34a5 83bc
000002d0: 2813 a3bc 64eb f5bc 6c80 f7bc d4a3 403d
000002e0: f084 acbc 4871 50bd ee03 5b3d e0b3 553d
000002f0: b091 3f3c 70ff b63c 7c98 90bc 80be de3b
00000300: 4223 28bd 00d4 9b3a 7855 4a3c acaa c73c
00000310: e0fa 1b3c 8c8f 1d3d 60b8 dc3b 5489 1cbd
00000320: c0d0 80bb 10f7 15bc 2066 e2bb 0856 5abc
00000330: f6bb 323d 0a77 2f3d 88a3 5fbc 8023 45ba
00000340: 0430 9fbc fc9d e2bc ae0f 3d3d 807e 5bbc
00000350: 3ea9 3d3d 2477 6ebd d87b 2f3d eafd 2f3d
00000360: bc38 b3bc 7036 bfbc 7e89 2c3d acbb ab3c
00000370: 1c4e 373d 509c 393d 7cde 86bc 4cc5 c33c
00000380: 609a 0abc 00bb 5e3a e4a0 c9bc e64f 1bbd
00000390: c05a 513c c6b7 39bd 7011 41bc f875 763c
000003a0: 5047 38bc e0ca 49bd a01d e13b a0d7 0f3b
000003b0: 709c aebb 00ef 4cbb e85f 8ebc 5093 b4bb
000003c0: 14e6 f33c 4ecc 7fbd 1cf6 a13c 1619 51bd
000003d0: beb3 3f3d 68aa 033c 8a8f 5cbd 0c2e e33c
000003e0: 4a59 29bd 4c82 26bd d0bd 4abd 189e cebc
000003f0: 4057 2b3d c020 663d daf7 743d 0473 71bd
0.00895866 0.01777777 0.016317852 0.02271457 -0.05727785 -0.030572787 -0.05768255 0.06133514
0.023727514 -0.048124805 -0.020564102 0.0070097595 0.007893145 0.0070105046 -0.021431692 -0.021149352
-0.0034885108 -0.019516252 -0.03088653 -0.0020965785 -0.030634388 0.053326212 -0.0002587214 0.014050186
0.017717808 -0.022515789 0.013465017 0.022488281 0.056718163 0.009835109 0.016702265 -0.061448313
0.00013730675 -0.005792059 -0.003742218 -0.03438908 -0.018826611 0.061476007 -0.02213262 -0.014386646
0.051474378 0.014625281 -0.060736813 0.05360192 -0.04626202 0.034198202 -0.0056395084 -0.036147714
0.043474324 0.0060813576 0.059824035 0.026250869 -0.022616766 0.037191823 -0.016458377 -0.04834167
0.054699495 -0.047241718 0.040154234 0.01863309 -0.019536473 -0.01157444 -0.014118113 0.0032100752
-0.036748372 0.061647534 -0.017076261 -0.04717142 0.016119502 0.020507291 0.026187293 -0.034307487
-0.009380028 0.031182498 -0.032084264 0.033323295 0.023356631 -0.027732328 -0.037008233 -0.023483023
-0.044821948 -0.038677372 -0.019760922 0.050855674 0.0064510405 -0.037045024 0.037806354 0.039003856
-0.0361484 -0.011007518 -0.012793906 0.06179124 0.013282284 0.057500497 -0.032862484 0.050462484
-0.02758605 0.0036507994 0.027752362 -0.01613538 0.0037852973 -0.0374571 0.011083193 0.018967383
0.035777487 -0.027809016 0.003751956 0.025742695 0.00500378 0.020648442 -0.006332673 0.0518462
-0.02430056 0.0371465 -0.04734981 0.05222454 -0.0394805 0.038570687 -0.026941836 -0.05226084
0.04645098 -0.045410424 -0.058985546 -0.046137378 -0.024923734 -0.045568652 -0.042159766 -0.036467746
0.016533993 0.039297372 -0.051001005 0.02838517 0.012876838 0.030823492 0.05326552 -0.0074808225
-0.036196508 -0.03951954 -0.0014255047 -0.05495587 0.060636647 0.042479157 -0.011362568 -0.04153333
0.022211887 -0.04768677 -0.04110849 0.057715848 0.05190654 -0.023519866 -0.0028950348 0.027496845
-0.04875134 -0.037587196 -0.016823553 -0.0049751773 0.050123177 -0.020225443 -0.06099028 -0.011720933
-0.0043040514 0.062263973 -0.051640265 0.05825804 0.042430215 0.05322826 -0.020042785 0.05502443
-0.049193308 0.0019677803 -0.030128129 0.052838482 -0.019116648 -0.046913378 -0.03467419 0.006697096
-0.056074917 0.03831341 0.022074446 -0.016069986 -0.019906595 -0.03001947 -0.030212604 0.04703124
-0.021059483 -0.050889283 0.053470545 0.052173495 0.011692449 0.022338599 -0.017650835 0.0067976117
-0.04104925 0.0011888742 0.012349479 0.024373375 0.0095202625 0.038466975 0.0067358464 -0.038216904
-0.003931135 -0.009153143 -0.006909147 -0.0133261755 0.043636285 0.042838134 -0.013649829 -0.00075202435
-0.019432075 -0.027663223 0.04615753 -0.013396859 0.04630398 -0.05821909 0.042842716 0.04296676
-0.021877639 -0.023341388 0.04212331 0.020963512 0.044752225 0.045315087 -0.01646351 0.02389779
-0.008459657 0.0008496493 -0.024612851 -0.037917994 0.012777984 -0.045341276 -0.011783943 0.015042774
-0.011247471 -0.049265742 0.0068699867 0.002194859 -0.0053287074 -0.0031270385 -0.017379716 -0.005510725
0.029772796 -0.0624507 0.019770674 -0.051049314 0.046802275 0.0080362335 -0.053847827 0.027731918
-0.04134492 -0.040651605 -0.049497426 -0.02522187 0.041831255 0.056183577 0.059806682 -0.058947578

fc2.weight f4 [128, 256]
00000000: e88c fc3c faa1 433d a445 343d 1026 d2bc
00000010: 2430 463d 8099 50bd e00e 86bb 8cea 4e3d
00000020: f493 acbc 5067 e7bc 043e 8b3c 00a1 d23a
00000030: f6a3 7fbd 7e3b 703d bed6 45bd 6c4c 8b3c
00000040: 10f4 34bd 9ec2 6b3d 8069 2fbd 30ae c3bb
00000050: 30f8 f7bc 0004 d63b 244f 46bd 7066 0cbd
00000060: c445 b6bc 9014 4fbc e015 853c a093 75bc
00000070: 102c 343d dab2 433d 80c4 2ebc e0bf 6f3b
00000080: 36e4 3cbd 56c3 3c3d c6b9 1dbd a02c 083c
00000090: a0bf 7abd 10ed f53b 08c7 13bd dc1b 6fbd
000000a0: e69a 473d 88fe 4a3c bce7 373d e457 763d
000000b0: d083 0a3d 3884 413c d07f e5bc 703f 93bb
000000c0: 80c6 193b 2091 c2bb 2857 ffbc a668 72bd
000000d0: 6899 93bc 1262 21bd e0cf aebb 6c7c 4dbd
000000e0: d03e 5fbc 86bb 25bd 4044 7ebb a06d 2b3c
000000f0: 9842 3d3d 2419 0abd ec82 c9bc 9c10 433d
00000100: da54 0d3d 60cc 373c bce7 66bd 3862 91bc
00000110: 68e1 113c 484d 8ebc d48d b13c 406a 30bc
00000120: 462b 0fbd a430 27bd 8082 9a3b 886e 86bc
00000130: 90d9 383c a8f2 803c 0043 dcbb a86f 06bc
00000140: 0c60 2abd eaeb 233d 26bb 74bd 6614 6dbd
00000150: a89a 6a3d 2ec0 143d a060 933c 4e1c 5bbd
00000160: b406 86bc 28d8 de3c 661f 58bd c04e 78bc
00000170: c4c1 aa3c d481 873c a880 37bc 0016 a1b9
00000180: d094 3c3c e8ad 8a3c 70ca 51bc 0000 30b9
00000190: 9e9b 463d 70d9 c83c 2083 0b3b cc89 bf3c
000001a0: d208 60bd e017 69bb 16c9 07bd 68c6 1ebc
000001b0: ecf1 9d3c d4c8 38bd 644f 57bd b49e f5bc
000001c0: 3071 fbbb 848e 36bd 402c 363b 9c0e 603d
000001d0: 1a75 743d 9882 14bc c07b 0ebd 500d ce3b
000001e0: dc14 54bd fcde 753d 1ac1 5f3d d850 af3c
000001f0: cac7 183d 3c7e 88bc 0091 323d d050 a4bb
00000200: 18cd 563d 880f 1bbd e4d1 edbc fa26 603d
00000210: 804a 303b aa3f 753d c84b 73bc 9093 8bbc
00000220: f854 bf3c 388a aa3c b8b1 f6bc d8ea 3abc
00000230: 78a7 613c e0e1 d1bc fc3c 3fbd 5e4b 07bd
00000240: 90a1 cabc c252 4e3d 84f9 82bc 18a5 3a3d
00000250: 3874 bd3c 728c 7abd d4c4 203d 407d 35bd
00000260: e006 efbb f02b 25bd d0e7 743d 0827 fbbc
00000270: 9235 02bd 104a cfbb e4b5 efbc 4827 5fbc
00000280: c8ee 443d 584d 6c3d 6866 7abd 4cfd 793d
00000290: ca29 013d a20b 09bd 207b 4cbb d8cd 77bc
000002a0: 5ab6 18bd 2833 13bd b0e1 933c 48da 473d
000002b0: 48d2 033d b8d4 69bd 40d4 fbba a821 48bc
000002c0: f000 e63c 40e3 8c3b c02e 583d ecf5 febc
000002d0: 3003 48bc 8075 a93a 9078 87bb c082 0e3b
000002e0: ec30 aebc fcdf 1abd 80d6 6f3d 3ade 403d
000002f0: a8a3 4e3c 6453 263d da2c 093d 4c60 fa3c
00000300: a890 11bc 46e9 7f3d 4421 c0bc 888a 3d3d
00000310: 46de 76bd 6013 ef3c 96fe 623d 4092 3c3c
00000320: 9cc1 0cbd 0065 f3ba 641e 213d 589d 6c3d
00000330: 804b 7fbd b00d 93bc 72d4 3a3d 0c18 813c
00000340: c8fe 81bc 3601 38bd 1e12 393d cc2f 133d
00000350: a094 e93b b0a3 3abc 406a 00bc 00a8 b638
00000360: 0080 183c 7435 5bbd b423 263d cef2 7ebd
00000370: 1c29 41bd 1402 f43c 383e 283c 0ab4 143d
00000380: b089 52bc e020 88bc 6a44 013d a603 3cbd
00000390: a40d 1e3d b800 74bc 3cb2 aabc 40e2 af3c
000003a0: 6083 693c c0b2 87bb 7c16 41bd 1c9d d23c
000003b0: a0ca 4bbc 1c19 82bc 8004 8b3c 9a5b 6c3d
000003c0: b08e 82bc 8839 d2bc 306e d53b bab6 0e3d
000003d0: 1865 01bc c01e a43b f2b4 153d 80f6 d5bb
000003e0: 72b5 27bd 2c8b f7bc a0f1 323b b034 dabc
000003f0: e8dd be3c 0850 aa3c a2f5 59bd 007c 173a
0.030828908 0.047761895 0.044011727 -0.025652915 0.048385754 -0.05092764 -0.0040911287 0.05051665
-0.021066643 -0.028247505 0.016997345 0.001606971 -0.062412225 0.058650486 -0.048300497 0.017004214
-0.04417807 0.05755865 -0.042825222 -0.0059716925 -0.030269712 0.0065312386 -0.048415318 -0.03427738
-0.022250064 -0.01263918 0.016245782 -0.01498881 0.043987334 0.047777988 -0.010666966 0.0036582872
-0.046116076 0.046084724 -0.038507245 0.008311421 -0.061217904 0.0075050667 -0.036078483 -0.05837618
0.048731707 0.012389787 0.044898733 0.060142413 0.033817112 0.011811309 -0.028015047 -0.0044936463
0.0023464262 -0.0059377104 -0.031169489 -0.05918183 -0.018017486 -0.039400168 -0.005334839 -0.050167486
-0.0136258155 -0.04046204 -0.0038798004 0.010463148 0.046206087 -0.033715382 -0.024598561 0.04762326
0.03450475 0.01121816 -0.056373343 -0.01774703 0.008903839 -0.017370835 0.021674074 -0.0107675195
-0.03495338 -0.04081787 0.004715264 -0.016410127 0.01128234 0.015740708 -0.006721854 -0.008205332
-0.041595504 0.040019907 -0.05974879 -0.05788078 0.057276398 0.03631609 0.01799041 -0.05349379
-0.016360618 0.02720268 -0.05276432 -0.015155494 0.020844348 0.016541399 -0.011200108 -0.00030724704
0.011510089 0.016928628 -0.0128046125 -0.00016784668 0.048488252 0.024517745 0.0021287873 0.023381136
-0.05469591 -0.003556721 -0.033150755 -0.009690858 0.019280396 -0.0451134 -0.052565947 -0.029982902
-0.007673405 -0.044569507 0.002779737 0.054701433 0.05968199 -0.009064339 -0.034785986 0.006288208
-0.051777706 0.060027108 0.054627515 0.021400854 0.03729991 -0.016661756 0.043595314 -0.0050145164
0.052441686 -0.03785661 -0.029030748 0.05472467 0.0026899874 0.059875168 -0.014849611 -0.017038137
0.023355946 0.020817861 -0.03011404 -0.01140853 0.013772838 -0.0256204 -0.04668902 -0.03303086
-0.024735242 0.050371893 -0.015988119 0.045567602 0.023126706 -0.061169095 0.03925021 -0.0443089
-0.0072945207 -0.040325105 0.059791386 -0.03065826 -0.03178937 -0.0063259676 -0.029261537 -0.013620205
0.048079282 0.05769095 -0.06113282 0.06103258 0.031533994 -0.03345836 -0.0031201318 -0.015124761
-0.03728328 -0.03593746 0.018051952 0.048792154 0.03218296 -0.05708763 -0.0019213036 -0.0122150555
0.028076619 0.0042995512 0.05277896 -0.031123124 -0.012207791 0.0012928694 -0.004134245 0.0021745414
-0.021263562 -0.037811264 0.058554173 0.04708693 0.012612261 0.04060687 0.03349004 0.030563496
-0.008884586 0.062478326 -0.023453362 0.04627469 -0.06027057 0.029184043 0.055418573 0.011509478
-0.034364328 -0.0018569529 0.039335623 0.057767242 -0.06232786 -0.017950863 0.04561276 0.015758537
-0.01586856 -0.04492303 0.045183294 0.035934255 0.007128313 -0.011391565 -0.007837832 8.709729e-05
0.009307861 -0.053517774 0.040561393 -0.062243275 -0.047158346 0.029786147 0.01026874 0.03630451
-0.01285021 -0.016617239 0.031559385 -0.045901917 0.038587227 -0.0148927495 -0.020836942 0.02147019
0.014252514 -0.0041411817 -0.047140583 0.025709681 -0.012438446 -0.015881114 0.01696992 0.057704546
-0.01593718 -0.025662199 0.0065133795 0.03484223 -0.007897638 0.0050085485 0.036549516 -0.006529629
-0.040944524 -0.03021773 0.0027304664 -0.026636451 0.023299173 0.020790115 -0.05321277 0.00057786703

fc2.bias f4 [128]
00000000: 7abd 1cbd d095 88bb 6455 4cbd f6bc 51bd
00000010: 00db 6cbb 9e9c 2b3d 2421 b3bc 684b 713c
00000020: c052 ce3a 8e64 413d 6c5d e03c d0be 6d3d
00000030: c68c 38bd 145d 9e3c 7cb5 5ebd f8af 3ebd
00000040: a2be 483d c0e3 c03a 9436 8dbc c864 2ebd
00000050: e260 613d 0003 5c3d 1486 c1bc 7018 8ebb
00000060: 30b1 043c d453 8a3c 0832 67bd 0cff dcbc
00000070: 96f4 343d 24d6 bebc 640c 213d fea2 20bd
00000080: f078 b83c b078 cfbc a80c 743d 7ccf 17bd
00000090: da8b 4fbd b645 273d 6a9f 14bd 5456 f03c
000000a0: 8669 523d de1f 34bd 98c3 5b3d fa2c 4c3d
000000b0: 2025 10bc 5632 5dbd 40c3 663d 80fe 3c3d
000000c0: a02a 263c 785e 093c e21d 5dbd 30c7 e03c
000000d0: bc5c 783d 50ab 54bc 78d1 a1bc 487d 643d
000000e0: 78c9 5cbd 207e 4abc 5a3b 2a3d 3cb7 4c3d
000000f0: a83f 0b3c 1efd 7ebd a8fc 59bc 32e6 183d
00000100: e2e1 1a3d 14da fa3c d0a9 863b 5eb2 573d
00000110: f06b 753d 008c e8bc e46d ac3c 7207 583d
00000120: 7053 96bc 002d 26bb 88c0 0d3c e85b 7dbd
00000130: 68c7 8a3c ecec e93c fc22 f73c 5c92 b3bc
00000140: 947f 57bd 882f 043d b00a dbbc 84f2 43bd
00000150: 5043 62bc f072 51bd 10f5 17bd f08e 7f3d
00000160: dcaf 963c 7877 583d e86d d33c 4836 4a3d
00000170: dcc8 e7bc 608b 72bb a495 903c 7eb1 2a3d
00000180: 7005 133d 1640 403d 8c26 ffbc 00d8 aebc
00000190: 0809 2bbc 6061 c03b 28c8 e8bc c037 b73b
000001a0: c07f 32bd 6098 4d3c e88f 0e3d 10ba fb3c
000001b0: 129e 1c3d e0ac 503c b044 3bbd 404a 38bd
000001c0: 3016 d83c f034 14bc 20f8 483d 10b4 ab3c
000001d0: f8b8 95bc 4c63 64bd b07d 70bd f870 cbbc
000001e0: a667 0bbd 387a 1d3d 48f1 15bc 32af 033d
000001f0: b6cd 343d 10e5 ac3c 8407 603d 00be 883a
-0.038266636 -0.0041682497 -0.049886122 -0.051205598 -0.0036141276 0.04189741 -0.021866389 0.014727451
0.0015741214 0.047215037 0.027388297 0.0580433 -0.045056127 0.019331492 -0.054372296 -0.046554536
0.049009927 0.0014716312 -0.017237939 -0.04257658 0.055024035 0.0537138 -0.023623504 -0.0043364093
0.008098885 0.016885675 -0.056444198 -0.026977085 0.044178568 -0.02329547 0.039318457 -0.03921794
0.022518605 -0.025326103 0.059582382 -0.037063107 -0.050670482 0.040837966 -0.03628484 0.02933804
0.051370166 -0.043975703 0.05365333 0.04984758 -0.008797914 -0.054003082 0.05633855 0.046141148
0.0101419985 0.0083843395 -0.053983577 0.02743873 0.060635313 -0.012980297 -0.019753203 0.05578354
-0.053903073 -0.012359172 0.04156051 0.049979433 0.008499064 -0.06225311 -0.013304867 0.037328906
0.037813075 0.030621566 0.0041095987 0.05266034 0.05991739 -0.02838707 0.021048494 0.052741475
-0.018350333 -0.0025356412 0.00865186 -0.061855227 0.016940787 0.028555356 0.030168049 -0.021920376
-0.052611902 0.03227189 -0.026738495 -0.047838703 -0.013809994 -0.051135004 -0.037098944 0.062392175
0.018394403 0.05284831 0.025809243 0.049368173 -0.02829402 -0.0037009344 0.01764948 0.041673176
0.035893857 0.046936117 -0.03114631 -0.021343231 -0.010439165 0.005870983 -0.028415754 0.0055913627
-0.043578863 0.012548536 0.03480521 0.03072837 0.038236685 0.012736529 -0.045719802 -0.044992685
0.026377767 -0.009045824 0.049064755 0.020959884 -0.018276677 -0.05575876 -0.058713615 -0.024834141
-0.034034394 0.038446635 -0.009151764 0.0321495 0.044141494 0.02110532 0.054694667 0.0010432601

fc3.weight f4 [2, 128]
00000000: 8281 46bd 13d1 3fbc 5c63 9ebd cad6 c5bc
00000010: b63b 7e3d e4c3 9dbd 128d 94bd cb6b 413d
00000020: 05f3 21bd 1473 273d 0b55 ae3c ae30 503d
00000030: 4dca 193d b852 aebd e1c4 9ebd 4572 f3bb
00000040: ead0 f73b e886 06bd dd35 94bd 1d8f 843d
00000050: 8ca5 013d 4af6 903c ce62 3c3c 7c1f 83bd
00000060: 5848 b23d 2199 73bd b98a 853d 868d 9cbd
00000070: e39c 993d 045c 173d 79ff 51bd 1ada 9d3d
00000080: 4f11 943d 2866 d6bb 98d6 8cbd 1fc0 acbd
00000090: c3da b3bd 0213 8c3d d752 29bc 87a4 aabc
000000a0: e773 0abd 43db febc 2644 ac3c f065 dabc
000000b0: 37ba 9cbd b72f 9abd a34e 90bd ccac ec3a
000000c0: 0cc0 37bd b54e 053d f5ef 9a3d 6b43 893d
000000d0: b393 1b3c ed7c 5fbd 5877 a03d b71f b33d
000000e0: d42c 6dbd 7e9e 33bc 576c ad3c 20f7 89bd
000000f0: 11b9 e7bc face a1bc 64fc 03bd e2c5 b4bc
00000100: 088a 8ebd 73dd 883c 7323 a0bd b9d8 f9bb
00000110: d5b9 68bd c7a1 de3b 00e4 6f3c 46ab 98bc
00000120: 88ae 933d f8b2 8e3d 403f b33c f88f a43d
00000130: eff9 303d d6be a93d 007c aa3d aaa6 c43c
00000140: c7a3 a53c b14b 1e3d cad2 6b3d a6db af3d
00000150: 22a4 29bd 9b04 31bd 9064 09bd 131a df3a
00000160: c80b 5cbd fdd4 323d 7d8f 65bd 4621 123d
00000170: a7fb 943d 2fd2 a43d a81a 36bd 787f 87bd
00000180: 2cec d73c 37e5 843d e2e6 a23c 0b18 a83a
00000190: b98e 1ebd 5781 8ebc 2da9 81bd cc07 7dbc
000001a0: e6db a2bd e587 8a3d b59a d13c 8623 303d
000001b0: dbee 9abd 58a9 dc3b 03a1 933d 38dd 5a3d
000001c0: 5f83 1b3d d290 2dbb ff32 a2bd 568c 703b
000001d0: 7084 b3bd 9260 ab3c 9adc 733d 1fe1 a5bb
000001e0: e9be 963d 0367 23bd 5256 33bd 4f62 373d
000001f0: d7f3 b0bd 532e 2bbd 4d35 52bb eff7 4d3c
00000200: df9d 44bd 583f 3bbd 5b91 673c 2957 2bbd
00000210: 28c1 6f3d a628 b33d 4319 0abc d506 06bd
00000220: 3604 923d f38f 1abd dacd 4fbd 0c8f 81bd
00000230: 945c af3d 15af 5e3c c8c3 63bd c87a 5dbd
00000240: 2b88 963c 3a7d 7c3d 04e2 01bc bdcd d83c
00000250: e9f5 45bd ff64 113c 4c33 9a3d 32b2 473d
00000260: 1745 b4bd 4316 9e3c 1802 0abd 5cc0 833d
00000270: 6493 563d df6e ea3c cf75 7b3d ea16 b2bd
00000280: 7f8a dcbc 3ee0 3bbd c8ef d13c 760c 873c
00000290: 65f4 acbc 16db 5c3d ada8 053c d719 9ebc
000002a0: 6855 96bd f289 a5bd accc a1bd f73b 45bd
000002b0: 7069 4c3a 6bb7 a9bd 18f4 96bb ac21 a53a
000002c0: e06e 52bd c82f cdba dd30 4b3d 0cdd 22bc
000002d0: 0e21 833d cc07 adbd 0e48 e4bc 119f 97bd
000002e0: af9d a4bd 680f d63c 5327 56bd 0838 0c3d
000002f0: a3ce a9bd b3dc c33c 1343 cc3b ccb7 903a
00000300: ef87 86bd b940 a03d c5a8 b23d caf8 b1bd
00000310: 5ee8 143d c9ae 4fbc c462 bfbc 7167 b43d
00000320: ed4c 0e3d af9a 87bd d38e 613c c193 1bbd
00000330: 6dc2 8dbd d726 f5bc aaa5 a43d 20d8 4d3d
00000340: 7d12 89bd 04d0 993c 6745 3ebb eeb5 9dbd
00000350: f48f 223d 8b26 3abd d8a1 10bd ce43 503c
00000360: fb7b 6bbd ac60 f03a 56b9 96bd b8c2 863d
00000370: a5bb f93a 8144 94bd 0def 06bc 1cb1 723d
00000380: 98ed 213d 21fb 533d 6570 40bd 61f0 973d
00000390: a5c9 6ebd 57cc 073d a023 1fbd dcf0 7abd
000003a0: de85 283d b6a3 103d d302 14bd d03e 7ebd
000003b0: 8bf4 603b e575 0ebd 3238 283d d0e3 9dbc
000003c0: 2c16 2d3d 4a62 35bd 2178 c03c 1f6b a13d
000003d0: 37d0 b03d d15e abbd c33b a63c a67e 05bd
000003e0: ddf0 9bbd 2b78 60bd 6c40 ea3c 4039 a6bd
000003f0: 5031 f1bc a104 c8bc 2c46 fabc 8fe3 433d
-0.048463352 -0.011707562 -0.07733795 -0.024150271 0.062068664 -0.07703379 -0.072534695 0.04722194
-0.039538402 0.04088123 0.021280786 0.050827675 0.037546445 -0.08511871 -0.077523954 -0.0074293935
0.0075627463 -0.0328435 -0.07236836 0.06472609 0.03165202 0.017695565 0.011498166 -0.064024895
0.08705205 -0.059472207 0.065206 -0.07644181 0.07500627 0.036952987 -0.05126903 0.07707615
0.07229864 -0.0065429397 -0.06876868 -0.08435082 -0.0878196 0.06839563 -0.010334692 -0.020830406
-0.03380194 -0.031110412 0.02102859 -0.026659936 -0.07652705 -0.07528632 -0.07046249 0.0018056869
-0.044860885 0.032545764 0.075652994 0.06702312 0.009495663 -0.054562498 0.07835263 0.087462835
-0.05790408 -0.01096308 0.021169825 -0.067365885 -0.028286489 -0.019752014 -0.03222312 -0.022067014
-0.06959921 0.016707158 -0.078192614 -0.0076247123 -0.05681785 0.0067941877 0.014641762 -0.018636357
0.072110236 0.06967729 0.021880746 0.08035272 0.043207105 0.08288352 0.083244324 0.024005253
0.020219697 0.038646404 0.05757407 0.085868165 -0.041416295 -0.043217283 -0.03354317 0.001702132
-0.053722173 0.043660153 -0.056045044 0.035676263 0.072745614 0.08047902 -0.044459015 -0.066161096
0.026357733 0.06489032 0.019885484 0.0012824548 -0.03871033 -0.017395658 -0.06331096 -0.015443753
-0.079520985 0.06764201 0.025586465 0.043002628 -0.07565089 0.0067340545 0.07208445 0.053433627
0.037967082 -0.0026484025 -0.07919883 0.003670474 -0.08765495 0.020920072 0.059536554 -0.005062237
0.07360632 -0.03989316 -0.043783493 0.04477149 -0.08640259 -0.041792225 -0.0032075227 0.012571319
-0.04800212 -0.045714706 0.014133777 -0.04183117 0.058533818 0.087479874 -0.008428874 -0.03272136
0.071297094 -0.037734937 -0.050733425 -0.06326112 0.0856258 0.0135915475 -0.055606633 -0.05407217
0.018375477 0.061642863 -0.0079274215 0.026465291 -0.04833022 0.008874177 0.07529315 0.048753925
-0.0880224 0.019297725 -0.033693403 0.06433174 0.052386656 0.02861732 0.061391648 -0.08695777
-0.026921509 -0.04586815 0.025627032 0.016485434 -0.02111263 0.053919874 0.008157891 -0.01929943
-0.07340509 -0.080829516 -0.07900366 -0.04815289 0.0007797694 -0.08286937 -0.004606735 0.0012598536
-0.05137527 -0.0015654499 0.049607147 -0.009940397 0.06402789 -0.08448753 -0.02786639 -0.074033864
-0.08037888 0.026130393 -0.052283596 0.034233123 -0.08291366 0.023908949 0.006233582 0.0011041104
-0.06568896 0.07824845 0.087235965 -0.08690031 0.036354415 -0.012675949 -0.023362525 0.088087924
0.03474133 -0.066213004 0.013766962 -0.037982706 -0.069218494 -0.029925747 0.080394104 0.05025494
-0.066929795 0.018775947 -0.0029033066 -0.07700716 0.039688066 -0.045446914 -0.035310596 0.012711478
-0.057491284 0.0018339357 -0.07359569 0.065801084 0.0019053115 -0.072396286 -0.008235705 0.059250936
0.039533228 0.051753167 -0.046982188 0.074188955 -0.058297772 0.033153858 -0.038852334 -0.061264858
0.04114329 0.035312377 -0.036135506 -0.06207162 0.0034325446 -0.0347804 0.041069217 -0.019273669
0.042257473 -0.04428319 0.023494782 0.0788176 0.08633464 -0.08367694 0.020292168 -0.032591484
-0.076143004 -0.0548021 0.028595172 -0.08116388 -0.02944246 -0.02441627 -0.030551039 0.04782444

fc3.bias f4 [2]
00000000: a4d1 de3c 55a4 afbd
0.027199574 -0.08576266
