dqn_models/dqn_model_ver3.pth (torch, 400014 bytes, 6 tensors)

fc1.weight f4 [256, 256]
00000000: 7cd7 ccbc d694 033d 50b4 16bd 62a0 6dbd
00000010: 6c2e c1bc c405 cbbc a4fe 4e3d 16ef 68bd
00000020: 6eed 77bd 20b8 a93b 209d 1b3c 509a debb
00000030: 0052 583c f407 ccbc 0403 88bc acf9 f9bc
00000040: 1a76 73bd 883d c2bc 78e1 18bc 1a8a 2abd
00000050: 364b 2a3d da75 253d 9ca2 ab3c 8ad0 46bd
00000060: 1c11 d93c 18a3 8dbc f0fb 7c3c c0e9 453c
00000070: c00c c33b 7aa6 6e3d fe5e 5b3d fcd1 80bc
00000080: b86e 86bc 36b8 543d acf5 e63c b8a9 6abd
00000090: 78ba 29bc 4cea f43c c862 6ebd 0458 2bbd
000000a0: e059 bebb ec6e 57bd 9606 3abd 60c3 083b
000000b0: f03e eb3c 041f dabc c018 eebb 8c9d fbbc
000000c0: 8026 a2bc 0494 e93c 7652 173d c09a ae3a
000000d0: 20f7 2c3b f050 25bc f061 09bd a05e da3c
000000e0: 102e 5c3d 9024 aebb 7842 1bbc a048 733b
000000f0: 0077 b1bc e4d3 263d 4090 89bc d608 77bd
00000100: a0e9 783b b05e abbc daf4 15bd d650 173d
00000110: 2428 553d da10 0fbd b0aa 65bd 489a 033c
00000120: 2048 34bc 7099 b53c faa4 2dbd ec9e ad3c
00000130: e866 79bd e09f 02bb 9087 17bd c4fe 5abd
00000140: 14d3 6e3d 3a32 08bd c073 363c b490 d4bc
00000150: 6030 543d de85 373d b0aa 10bc 84bc fb3c
00000160: 0681 2c3d 5aca 563d e06e 37bc 1067 373d
00000170: 40bb 2a3d 64de c23c b094 dfbb 7665 0fbd
00000180: 0046 ffbc da0f 75bd 60f3 453b ce04 083d
00000190: 10b4 413d c0bb 72bd 182f e53c d09d 5abd
000001a0: 084a d7bc dcf4 58bd 6026 2dbb 40e9 d7bc
000001b0: fcd3 babc caee 3a3d e886 e43c 70b4 c0bc
000001c0: d035 883c b086 ecbc c44e efbc b69e 34bd
000001d0: c0b3 57bc 9ac1 54bd 8029 7a3a 8836 87bc
000001e0: 806b 783c 0c47 463d c4b1 f43c 6072 733b
000001f0: 3eb6 213d 502e 52bd 60ce fa3b 3069 eabc
00000200: ccfb 4ebd 62f4 75bd 4279 1f3d 8c5a 103d
00000210: ce7a 70bd 0ee8 28bd 28fc 4abd 6c52 1b3d
00000220: b6be 593d 382a 733c b049 a93c 1c35 7a3d
00000230: 7e93 60bd 3825 223d 547c 253d 8640 5c3d
00000240: f04d b4bc 445b c7bc 7e1f 7abd 80d0 043a
00000250: e806 d1bc 442f 643d 2095 a43b 62bc 31bd
00000260: c0ae 703c c096 b83b a4cc 5f3d 3612 59bd
00000270: d058 3f3c 64e4 893c 7a9e 183d 62d2 40bd
00000280: 0074 e839 9459 2d3d 0a8c 013d 12ef 09bd
00000290: 9a6b 4abd d81d 6e3c 4273 0f3d 6c00 a43c
000002a0: 6e9e 53bd 08fc 473d 40f4 823a c827 bdbc
000002b0: 1003 7dbc 74a8 4a3d c8a3 673c d0dd f93c
000002c0: d4f5 b5bc 18ba 1f3c 6872 edbc 00c7 5dbc
000002d0: 6aa4 7abd 9042 1c3c 2cf6 98bc 3866 b63c
000002e0: a037 34bc 00a3 7dbb 7871 5ebd e83a 993c
000002f0: aa94 3fbd 4a41 5fbd da76 49bd 2239 663d
00000300: 342b 38bd a42e a33c 56cc 33bd 4cc6 84bc
00000310: 7ca9 6cbd 6039 643b 00ff dd3b daa7 4ebd
00000320: bc85 543d 3aba 2ebd d0ce c43c 58f4 0e3c
00000330: 681e a7bc 000d 223d d67c 05bd d8dc f0bc
00000340: 50df b0bb 8004 f43a 4a3d 7e3d 0a61 5ebd
00000350: 5e32 123d 8e66 1ebd 1488 efbc 5a37 11bd
00000360: 0078 d5b9 c4b8 843c c8d5 1cbd 54be b1bc
00000370: a02e 69bb 209b 12bd dc0c 71bd 7ebf 26bd
00000380: 80a8 a73b 9e53 07bd 104c 2a3d ce48 093d
00000390: 9aeb 053d 12c7 2a3d eca0 19bd b8b3 4cbc
000003a0: c097 14bd f04a c6bc 8678 1cbd 406f eabb
000003b0: 80ba d83a 74f1 b0bc 5ed5 7b3d 90f4 303d
000003c0: 4821 3ebc 5863 39bd 588b b73c 486e 6cbd
000003d0: be6d 753d aad5 7b3d 2c23 3f3d c09f 523c
000003e0: eca9 333d 9698 363d 8018 dcbc 9895 ec3c
000003f0: c287 513d c0df e23a 9067 edbc 0c64 98bc
-0.025005095 0.032124363 -0.036793053 -0.05801428 -0.023581706 -0.024783023 0.050535813 -0.056868635
-0.060529165 0.00517942 0.009497911 -0.006793298 0.013203144 -0.024906136 -0.016603 -0.03051456
-0.059438802 -0.023710981 -0.0093311 -0.04163561 0.041575633 0.040395595 0.020951562 -0.048538722
0.026497416 -0.017289683 0.015440926 0.012079656 0.0059524477 0.058264233 0.05355739 -0.015725128
-0.016410217 0.05193349 0.028193317 -0.057290763 -0.010359399 0.029896878 -0.058199674 -0.041831985
-0.005809054 -0.052596018 -0.045416437 0.0020868406 0.028716534 -0.026626118 -0.007266134 -0.030714773
-0.019793749 0.028512962 0.036943875 0.0013321266 0.0026392415 -0.010090098 -0.033540666 0.026656449
0.053754866 -0.005314417 -0.009476297 0.0037122145 -0.021663189 0.04072942 -0.016792417 -0.06031116
0.0037981048 -0.020919174 -0.03661046 0.036942326 0.052040234 -0.03492818 -0.056070983 0.008032389
-0.011003524 0.022167891 -0.042393662 0.021193944 -0.060889155 -0.0019931719 -0.036994517 -0.05346562
0.05830677 -0.033251025 0.011135995 -0.025947906 0.051803946 0.0448054 -0.008829758 0.03072954
0.042115234 0.05243907 -0.011195868 0.044776022 0.04168248 0.023787685 -0.006823145 -0.03500887
-0.031161308 -0.05982957 0.0030204877 0.033207707 0.04729086 -0.059261084 0.027976558 -0.053373158
-0.026280418 -0.05296789 -0.0026420578 -0.02635634 -0.02280616 0.045637883 0.02789636 -0.02352354
0.016627222 -0.028872818 -0.029212363 -0.04409667 -0.013165414 -0.051942445 0.0009542927 -0.016505495
0.015162349 0.0484076 0.029869922 0.003714703 0.03948044 -0.0513137 0.0076539963 -0.02861461
-0.0505331 -0.060047515 0.038934 0.035242602 -0.058710866 -0.04123693 -0.04955688 0.0379204
0.05316039 0.014841609 0.02066502 0.061085805 -0.05482816 0.039586276 0.04040177 0.05377247
-0.02200982 -0.024335511 -0.06106519 0.00050664693 -0.025515988 0.05570914 0.00502266 -0.043392546
0.014690101 0.005633205 0.05463852 -0.052995883 0.011678889 0.016832538 0.03726051 -0.047075637
0.00044336915 0.042321756 0.031627692 -0.03367526 -0.049419023 0.0145334825 0.035022028 0.020019732
-0.051664762 0.04882434 0.0009991005 -0.023090258 -0.015442625 0.049477056 0.01413817 0.030501276
-0.022211947 0.009748958 -0.028985217 -0.013536215 -0.061191954 0.009537354 -0.018672071 0.022265539
-0.01099959 -0.0038701892 -0.05430743 0.018704847 -0.046772636 -0.054505624 -0.04918561 0.05620683
-0.044963077 0.0199197 -0.04389604 -0.016207837 -0.05777882 0.0034824237 0.006774783 -0.050453044
0.05188535 -0.04265807 0.024024397 0.008725248 -0.020400241 0.03956318 -0.032589756 -0.029402182
-0.0053977147 0.0018617064 0.06207017 -0.054291762 0.035692565 -0.038672023 -0.029239692 -0.035453178
-0.00040715933 0.016201384 -0.038289815 -0.0216972 -0.003558077 -0.03579247 -0.058850154 -0.040709965
0.0051165223 -0.033038728 0.041576445 0.033516698 0.03269539 0.041693754 -0.037506983 -0.01249402
-0.036277533 -0.024205655 -0.038200878 -0.0071543753 0.0016535074 -0.021599509 0.06148278 0.043201983
-0.011604615 -0.045260757 0.022405311 -0.05772236 0.05991911 0.061483063 0.046664402 0.01285547
0.043863222 0.04457911 -0.026867151 0.028879926 0.05115486 0.0017309114 -0.028980047 -0.018602394

fc1.bias f4 [256]
00000000: 7a02 4bbd 5092 643c 50d4 a23b 88e1 4abc
00000010: a6d8 75bd 0065 1aba 085a 0f3d 50dc 14bc
00000020: d419 afbc d6d6 303d 722b 15bd 8025 2bbc
00000030: 0ac8 71bd 180a c43c 4022 5fbc e083 233c
00000040: ec05 c5bc 74c6 c7bc 840e 303d bc5d 73bd
00000050: d020 33bc 9070 f1bb e433 4e3d d071 4fbd
00000060: 9249 533d 1653 11bd f06f 373c e882 8abc
00000070: f804 453d e047 c4bb a8e4 af3c 1861 25bc
00000080: c867 a73c 90c9 da3c 34e2 013d f871 383c
00000090: 14ba c73c c8d2 6d3d 7aa7 7b3d 18d9 4dbd
000000a0: 486c 25bc f88a dc3c 80ec ec3a ee25 07bd
000000b0: 2c43 bfbc d428 a53c fcf0 31bd 903f 4dbc
000000c0: 301c a03b 32a9 5b3d 0054 69bb a48b 58bd
000000d0: a04c 7b3d 7e0c 363d fcac 91bc 8c72 703d
000000e0: ec85 4fbd b8dd 1b3d 1892 febc 068a 2cbd
000000f0: 88dd e53c f0b3 ed3b 4081 a2ba 0067 b7b9
00000100: 1a2b 033d e661 473d 06e9 583d 0478 2fbd
00000110: 044d 5abd 7cb1 80bc a079 4b3d 1442 473d
00000120: c2a0 72bd e805 0f3c a0e4 693c 8ad2 5e3d
00000130: 4069 bb3b 2489 103d 40f6 a53b a05d 16bc
00000140: 0449 4c3d 905d 1dbc 9079 1cbc e413 793d
00000150: c03f 07bd fc15 ec3c a807 cabc 40ae 31bc
00000160: 68ec 1e3c 6c63 9ebc 60ba d5bc 409e 53bb
00000170: dc92 debc ce85 073d b46c a0bc 20b7 663d
00000180: 482a dbbc 805c 58ba 78bf 073c 5840 2ebd
00000190: e0d2 0b3d 8414 cd3c f844 4f3c 9052 7abc
000001a0: 004f 993a 929b 1e3d 407f f23a ee14 4fbd
000001b0: b05d 463d 64ad ccbc 6cf2 ce3c a02c ef3b
000001c0: f2b5 7dbd 54e8 043d 3031 05bd 20d7 563c
000001d0: 6cb3 ad3c 743b 66bd 7414 933c 8a0a 53bd
000001e0: 400f 6abd 3439 103d 1019 fb3b 389d 443d
000001f0: 88b3 0d3d 1684 15bd b4cb 613d e894 4abc
00000200: 8411 003d 7068 1f3c 30dd a53c 80ab d1bc
00000210: 2ce9 39bd 3a93 413d ec62 473d 12b7 64bd
00000220: 2827 26bd f214 003d 826e 3f3d a83a 1cbc
00000230: c263 703d 989b 043c 7e6f 303d 7035 d9bc
00000240: c088 09bc 2049 433b 3867 63bd ae2b 673d
00000250: a406 223d e643 093d bc3e b0bc b05c b5bc
00000260: 7ec8 12bd 5816 23bd f8c7 ec3c 1e5e 10bd
00000270: 4cb0 a93c ca6b 4dbd ea3d 1cbd ea55 533d
00000280: 406b 5dbc 00bd b9bc 88c9 713c 7ae7 21bd
00000290: accb ecbc a24e 03bd e0b9 863c e094 023c
000002a0: 64a9 3ebd 220f 7f3d c81b bd3c 509f aabb
000002b0: c8a3 70bc 2af4 3abd 5c2f f5bc ec02 3cbd
000002c0: c8f6 d3bc 20e5 12bc 0a58 693d 2012 fbbb
000002d0: 04a9 fbbc 0864 143c 6e5f 443d d4c1 c53c
000002e0: 448e b6bc 385e 07bc 5cf4 bdbc 6037 2d3c
000002f0: fcf2 36bd 1891 ba3c a46e a13c 742e 54bd
00000300: b895 68bc 584e a4bc 6a72 06bd d42c 0d3d
00000310: ec02 513d b0a1 78bc ec2b 1dbd d059 0fbd
00000320: c8c8 f7bc ae20 6b3d d61e 713d 923e 503d
00000330: 6cf0 72bd 7011 a6bc a8de 0dbd 46c1 393d
00000340: 0ccf 803c ba65 2f3d 0c8a 9cbc 80de 01ba
00000350: 46d8 7cbd 9c4e 633d 52cd 7f3d ccb7 793d
00000360: 38ba 62bd 3853 c9bc 00f3 4cbd 22d1 6c3d
00000370: 2042 563b 28d1 63bc 005e 3a3b a08e bf3c
00000380: b248 333d f0ff f13b 6c6a 573d 8451 f8bc
00000390: b26f 053d 64ed c03c b0f8 eb3b b8ed bb3c
000003a0: 9ca4 64bd 1cc1 c9bc 60f3 bb3c a8bc 51bc
000003b0: 126b 7f3d 289f eebc 4c95 113d e80a 033d
000003c0: da6a 493d d80c ec3c 60b6 343c 4084 843c
000003d0: 2071 54bd c06a 6b3d 98ca 503d 68c7 2e3d
000003e0: 8a87 383d 0caa f03c b8c0 b8bc bc31 7cbd
000003f0: 6cd1 c73c 589f 5cbd 9c75 07bd ccb8 e9bc
-0.04956291 0.013950899 0.0049691573 -0.012382872 -0.060021065 -0.0005889684 0.03499797 -0.00908573
-0.02137462 0.043173634 -0.036418386 -0.010445952 -0.059028663 0.023930594 -0.013619006 0.009980172
-0.024050675 -0.024386622 0.042982593 -0.059415564 -0.010933116 -0.007368155 0.050342456 -0.05064565
0.051583834 -0.035479628 0.011196122 -0.016908124 0.04810044 -0.0059900135 0.021471336 -0.01009395
0.020435229 0.02670744 0.031709865 0.011257641 0.024380721 0.058062345 0.061439015 -0.050255865
-0.010096617 0.026921734 0.0018075854 -0.032995157 -0.02334746 0.02016107 -0.04344271 -0.0125273615
0.0048861727 0.053628154 -0.0035603046 -0.052867547 0.061352372 0.044445507 -0.01778268 0.05870299
-0.050664827 0.038053244 -0.031075522 -0.042123817 0.028059736 0.0072541162 -0.0012398139 -0.0003498122
0.032023527 0.048677348 0.052956603 -0.042839065 -0.053296104 -0.015709631 0.049676538 0.048647
-0.05923534 0.0087294355 0.0142757 0.054400004 0.005719334 0.035287037 0.0050647557 -0.009177595
0.04987432 -0.009604827 -0.009550467 0.060809985 -0.03301978 0.028819077 -0.024661854 -0.010844767
0.009699918 -0.019334517 -0.026089847 -0.003229037 -0.027169637 0.03308659 -0.019583084 0.056326985
-0.02675356 -0.00082535297 0.008285396 -0.04254183 0.034136653 0.025034197 0.012650721 -0.0152784735
0.0011696517 0.038722582 0.0018501058 -0.05055707 0.04842919 -0.024985023 0.02526208 0.007299021
-0.061941095 0.032448128 -0.032517612 0.013112813 0.02120372 -0.056209043 0.017954089 -0.051523723
-0.05714345 0.035210803 0.0076629 0.048001498 0.034595042 -0.03650292 0.055125907 -0.012364604
0.031266704 0.00972949 0.020247072 -0.025594473 -0.045388386 0.047259547 0.048678324 -0.055838652
-0.040564686 0.031269975 0.046736248 -0.009535469 0.058688886 0.008093737 0.043075077 -0.026514739
-0.00839442 0.0029798225 -0.05551836 0.05643814 0.039557114 0.03351202 -0.02151429 -0.022138923
-0.035835735 -0.03981623 0.028903946 -0.035246007 0.020713948 -0.050151624 -0.038144983 0.051595606
-0.01351434 -0.02267313 0.014757521 -0.039527394 -0.028905712 -0.032057412 0.016446054 0.007970065
-0.046548262 0.06227029 0.023084536 -0.00520698 -0.014687486 -0.04564301 -0.02992981 -0.045901224
-0.02587451 -0.0089657605 0.056968726 -0.007662073 -0.030720241 0.009057052 0.04794257 0.024140276
-0.022284634 -0.00826221 -0.023187809 0.010572284 -0.04466532 0.022774264 0.019706078 -0.051802114
-0.014195852 -0.020056888 -0.032823958 0.03446658 0.051028177 -0.015175268 -0.038371965 -0.03499776
-0.030247107 0.057404213 0.058867298 0.05084092 -0.059311315 -0.020271987 -0.03463617 0.045350336
0.015723728 0.042821623 -0.019108795 -0.00049541146 -0.061729692 0.05549489 0.062451668 0.060966298
-0.055353373 -0.024575815 -0.05003643 0.057816632 0.0032693222 -0.013904847 0.0028437376 0.023383439
0.0437705 0.0073852465 0.052591726 -0.030312307 0.032577224 0.023550697 0.0072012767 0.022940502
-0.055821046 -0.024628215 0.022943199 -0.012801327 0.06235797 -0.029128626 0.03554277 0.031992823
0.049174167 0.028814718 0.01102981 0.016176343 -0.051865697 0.05747485 0.05097446 0.042670637
0.045051135 0.02937796 -0.022552833 -0.061570868 0.024391852 -0.0538629 -0.033071145 -0.0285305

fc2.weight f4 [128, 256]
00000000: 4cc7 493d d4c9 fcbc ae2b 223d 3c71 233d
00000010: 6869 b33c 7c33 14bd 508e c23c d259 7a3d
00000020: c8e6 f23c 76c1 5ebd 4019 42bb 00b8 83b9
00000030: 404e 74bd 0ce5 e1bc 1c36 233d 3c69 da3c
00000040: 9019 023d 4401 5ebd 00fc 233a 4aee 6e3d
00000050: 6071 753b 0cd6 2ebd f0e7 1c3c 086d 69bd
00000060: fa2c 073d 00f3 b339 4651 13bd 42f0 2fbd
00000070: d032 bf3b 00b5 80bc c4b7 b0bc 2c0b 01bd
00000080: 1c34 f4bc 2c0a 32bd c23e 203d 9824 1cbc
00000090: 4e97 3d3d a003 d9bb 4cab 053d 6219 2f3d
000000a0: 6282 093d 7a09 593d 5a6f 013d 6003 01bc
000000b0: 2a35 47bd 58f9 dabc d400 d53c 00f9 2f3c
000000c0: 38c4 bb3c 68c3 1c3c e0a9 273c fa81 023d
000000d0: 9c10 20bd 1641 363d bce9 aabc 4063 1f3d
000000e0: cc8a 773d 0486 603d 9851 bdbc 5005 75bd
000000f0: b88f b63c 7802 583d bcbb c2bc c016 893b
00000100: 2a50 603d ca3e 17bd 3e09 1ebd e0c4 0fbd
00000110: de44 1d3d 548b d53c 1451 2a3d c464 c3bc
00000120: dca3 ce3c 8406 37bd 306b b93c 847b 0e3d
00000130: ec95 a43c a0e5 303b 0e58 123d bc01 47bd
00000140: e8d9 123d 80b1 5c3b 00e8 ca3a 6c9b 1fbd
00000150: f6cf 52bd dcb7 52bd 60cf 1f3c 56f8 713d
00000160: 1c7d 5d3d 6087 703d 92f5 153d 2862 8ebc
00000170: 1a0c 1c3d 96c9 06bd b801 01bc 542d c83c
00000180: c011 3f3d 6876 4a3c 008a 333c 0a14 3dbd
00000190: 8ab9 743d 5275 143d 907e 443d ccbf 89bc
000001a0: 403f 113b 406a 32bc 6815 8bbc 9c4f a7bc
000001b0: 2072 00bd 544e 63bd 2423 a6bc c0e4 c7bc
000001c0: 3cf6 533d 20a8 d6bc c852 3cbc 6c9b 463d
000001d0: b61a 0ebd 08a1 a7bc a099 903b 5c4c 773d
000001e0: f0ba 95bb 96ef 40bd 50fc f03c 9a02 5e3d
000001f0: a0c6 6b3b 2a62 5d3d 44be d5bc d874 2abd
00000200: 90d9 ecbc b08c ef3b 762d 72bd 80f7 573a
00000210: 8a89 3e3d 8477 9dbc 44d2 0abd b043 693d
00000220: e07b 37bc 542e 79bd b853 28bc c0f2 a33c
00000230: f670 753d 300c 933c b858 2dbc 501f 6dbc
00000240: c89a dcbc baa0 72bd 006f 773c 2e99 133d
00000250: 38ca f5bc aa28 623d ce06 12bd 4c1a 28bd
00000260: 447c fcbc 3470 49bd 9c89 48bd 984b c33c
00000270: 800d 213c 102e f4bb 3844 1f3d a47f 243d
00000280: 400a 173b d864 c5bc ca97 1d3d b0e9 a53c
00000290: 40d2 e1bc 0c51 d33c 3e83 47bd 0835 173d
000002a0: 00b2 a03b ca65 10bd 34fc 053d f0e4 1bbc
000002b0: fc8b da3c a0d8 7ebb 60eb 17bb d628 44bd
000002c0: 48e7 6c3c 96f8 39bd 2c3f d4bc 2c5e 133d
000002d0: 6c9d 643d 803e df3b 869f 463d 449d a33c
000002e0: 00fd 55bb 808c 72bd f488 ab3c b8d2 653c
000002f0: 3e47 443d 6604 3c3d 5601 393d 34d8 ac3c
00000300: 282c c93c aca1 28bd 4846 c43c 6059 803c
00000310: 0885 e13c 863c 50bd 700c bf3c 888d e5bc
00000320: 00d4 b4b8 d016 d83c de36 6ebd 6050 1bbb
00000330: 5883 173d f44a 82bc a2a2 4cbd 7a65 3bbd
00000340: d0cd f1bc ee31 1c3d bc76 713d 7a69 0f3d
00000350: f0d2 75bc fcdc 0e3d c0a5 c83c 9c16 2a3d
00000360: b8d2 513d 9843 1dbd 947d 0a3d 80ad 4c3d
00000370: a48e e9bc 645d 8fbc 7884 3d3c c04e 2ebc
00000380: a4de 50bd 68c0 6b3c 80e6 58ba 0080 29b9
00000390: e8ef 073c 04da 843c e87e c6bc bad2 2c3d
000003a0: 6843 febc ace0 733d 26db 2dbd 7cb6 533d
000003b0: 709c ce3b b0a2 2d3d a472 2e3d d001 2bbd
000003c0: 400a 96bb 0c69 76bd ccec 11bd ecbc 33bd
000003d0: 5021 eabc 7e39 4bbd a071 96bb 5caf 74bd
000003e0: e458 b7bc b06b 19bc 207c 293d 60a1 50bb
000003f0: bab1 41bd 58dd aebc 6a5b 363d 78e8 ba3c
0.04926233 -0.030857958 0.039592437 0.03990291 0.021900848 -0.03618191 0.0237495 0.061120816
0.02965106 -0.054383717 -0.00296171 -0.00025123358 -0.059644938 -0.027575038 0.039846525 0.026661508
0.03176266 -0.054200426 0.00062555075 0.05833272 0.003745161 -0.0426846 0.009576783 -0.056988746
0.033001877 0.0003432259 -0.03596618 -0.042953737 0.0058349147 -0.015711308 -0.021572001 -0.031504795
-0.029810004 -0.043466732 0.03912235 -0.009530209 0.046286874 -0.0066227466 0.032634065 0.042748816
0.03357161 0.052987553 0.031600334 -0.00787434 -0.048634686 -0.026730224 0.026001371 0.010740519
0.022920713 0.009568073 0.010233372 0.031862237 -0.03907834 0.044495665 -0.020863406 0.03891301
0.0604351 0.054815307 -0.023110196 -0.05981952 0.022285327 0.05273673 -0.02377116 0.00418362
0.05476395 -0.036925115 -0.038583033 -0.035099864 0.038395755 0.026067413 0.04158123 -0.02385176
0.025224619 -0.04468395 0.022634119 0.034785762 0.02009102 0.0026992336 0.035728507 -0.04858564
0.035852343 0.0033675134 0.0015480518 -0.03896658 -0.05146786 -0.051444873 0.009754032 0.059074722
0.05407439 0.058722854 0.036611147 -0.017380789 0.03809748 -0.03290709 -0.007873945 0.024435677
0.046647787 0.012357332 0.010958195 -0.04616169 0.059747256 0.036244698 0.047972262 -0.016815089
0.0022162944 -0.01088959 -0.01697798 -0.020423703 -0.031358838 -0.05549462 -0.020280428 -0.024401069
0.0517485 -0.026203215 -0.011494346 0.048488066 -0.034693442 -0.020462528 0.004412845 0.060375556
-0.004569404 -0.047103487 0.029417187 0.0542017 0.0035976544 0.054048695 -0.026091702 -0.041615337
-0.028912336 0.0073104724 -0.059125386 0.00082384795 0.046517886 -0.019222029 -0.03389193 0.056949317
-0.011198968 -0.060835198 -0.010273866 0.020013213 0.05992218 0.017950147 -0.010580234 -0.0144727975
-0.026929274 -0.059235312 0.015102148 0.036034755 -0.030003652 0.05521456 -0.03565102 -0.041040704
-0.030820973 -0.04917927 -0.04895936 0.023839757 0.009829879 -0.00745178 0.038883418 0.04016079
0.002304688 -0.024095938 0.038474835 0.020253032 -0.027566075 0.025795482 -0.048709147 0.03691581
0.0049040318 -0.035253324 0.032711223 -0.009515032 0.026678078 -0.0038886443 -0.0023181066 -0.047890507
0.014459439 -0.045403086 -0.025909029 0.03597848 0.05581419 0.0068128705 0.048491977 0.019972451
-0.003265202 -0.059216022 0.020939328 0.01402729 0.047919504 0.045902632 0.04516729 0.021099187
0.024557188 -0.041169807 0.023959294 0.015667617 0.027529255 -0.05083897 0.02332136 -0.028021589
-8.622557e-05 0.026378065 -0.058157794 -0.002369903 0.036990494 -0.015904881 -0.049959786 -0.045751072
-0.029517084 0.038133554 0.058951125 0.0350127 -0.015003905 0.034878716 0.024493098 0.04152547
0.051226348 -0.03839454 0.033811167 0.04997015 -0.0285104 -0.017500587 0.011567228 -0.010638893
-0.050993577 0.014389135 -0.0008274093 -0.0001616478 0.008296944 0.01621724 -0.024230435 0.042193152
-0.031038001 0.059540436 -0.042445324 0.051687703 0.00630527 0.04239148 0.0425898 -0.041749775
-0.0045788586 -0.060158774 -0.035626218 -0.04388134 -0.028580338 -0.049615376 -0.004591182 -0.05973755
-0.022381254 -0.009364054 0.04137814 -0.0031834468 -0.047288634 -0.02134578 0.044520773 0.022815928

fc2.bias f4 [128]
00000000: 4a43 5b3d b27b 793d 509a 433c 6c32 debc
00000010: 28bc 623d a861 35bd 5093 62bd 20e6 0ebc
00000020: 4802 053d 8867 563d 3808 ca3c 263b 5a3d
00000030: 381a 473d 6e92 573d 6042 343c 74ec cc3c
00000040: bca1 e33c a666 3b3d 049b e83c b42e b73c
00000050: e89c bb3c 78b4 f43c 389a 343d 0ee0 343d
00000060: 5c14 cf3c ccf0 9fbc 3033 823c 0048 a3bc
00000070: c07e 38bb d89b 143c ca93 0cbd 08f4 663d
00000080: 5411 3dbd d0c6 fd3b 20ef 15bd 9098 0cbd
00000090: 2686 2d3d c0b8 133d 708d 38bd a649 23bd
000000a0: 24ca acbc 6028 d1bc 1829 e7bc f830 5a3c
000000b0: 008a 6c39 3297 503d 8a2c 73bd f098 1dbd
000000c0: acc7 893c 4005 973c c8f5 bf3c d0fc 4ebd
000000d0: 0e70 5e3d cece 46bd 7686 493d ecb8 753d
000000e0: 80a5 97ba 108b 2ebc 487c 843c 28e3 443c
000000f0: d842 803c 5838 783c 8480 b93c 2017 bcbb
00000100: aed2 2c3d e8df abbc 6ac0 16bd 8023 a73a
00000110: 2889 8bbc 3860 04bd 0062 d33b 6c65 013d
00000120: 780e df3c 8ca1 423d e2fa 5bbd 565d 6c3d
00000130: 3cc9 cd3c 46f8 6d3d 5494 bf3c 1047 84bb
00000140: 8034 3d3b 44f1 8b3c 12cb 7b3d d089 8bbc
00000150: 6a3b 0a3d 9024 0f3c 3860 b23c b404 123d
00000160: 92f1 76bd f83b 073d e40d 823c 302f 4cbc
00000170: 385e 90bc c26d 74bd 98e6 ee3c 089b 37bc
00000180: 02d3 183d 8433 74bd a008 833b 88bd 9bbc
00000190: fe53 533d 2e9d 3dbd 8401 1a3d 9685 42bd
000001a0: b2de 6cbd c094 8f3c dc1d 23bd 3417 cabc
000001b0: 6a1d 5cbd 4a0a 3abd 9eaa 63bd 6cbc ea3c
000001c0: 60a9 64bc c8f7 a73c 10a2 5fbc 4843 f63c
000001d0: 80fb 193a 6011 143d 7020 8f3c 304d e93b
000001e0: 089c f5bc 14fa 2c3d f8ca 4e3c 2ca3 323d
000001f0: fa8c 04bd f87d 97bc ee6e 3bbd 3c5f 2e3d
0.05353097 0.06090898 0.011938646 -0.027123652 0.05535522 -0.044282585 -0.05531627 -0.008721858
0.03247288 0.05234483 0.024662122 0.053279065 0.04860899 0.05262988 0.011002153 0.025015093
0.027787082 0.04575219 0.02839423 0.022361137 0.022901967 0.02987121 0.044092387 0.044158988
0.025278263 -0.019524 0.015893549 -0.019931793 -0.002815172 0.009070359 -0.03432063 0.05638507
-0.046159104 0.0077446476 -0.036605 -0.034325182 0.042364262 0.036064863 -0.04505676 -0.03986516
-0.021092482 -0.025531948 -0.028217837 0.013317339 0.00022558123 0.05092544 -0.059368648 -0.03847593
0.016818844 0.01843512 0.023432627 -0.05053407 0.054306082 -0.048537068 0.049200498 0.05999081
-0.0011569709 -0.010653272 0.016172543 0.012017049 0.015656874 0.015150152 0.022644289 -0.0057400614
0.042193107 -0.02098079 -0.036804594 0.0012751669 -0.017033175 -0.032318324 0.0064508915 0.031590864
0.027228579 0.047517344 -0.053706057 0.0577062 0.02512037 0.0580981 0.023386158 -0.0040367916
0.0028870404 0.017082818 0.06147296 -0.017033488 0.033748068 0.0087367445 0.021774396 0.035649016
-0.060288973 0.033016175 0.015875764 -0.012462422 -0.017623052 -0.059674986 0.02916269 -0.011206396
0.037310608 -0.05961944 0.003998831 -0.019011274 0.051593773 -0.046292476 0.0375991 -0.04749068
-0.057829566 0.017526984 -0.039823398 -0.024669267 -0.05373899 -0.04541997 -0.055582635 0.0286543
-0.013956398 0.020503893 -0.013649479 0.03006138 0.0005873963 0.036149383 0.017471522 0.007119797
-0.029981628 0.04223068 0.012621634 0.043612644 -0.03236101 -0.018492684 -0.045760088 0.04257129

fc3.weight f4 [5, 128]
00000000: 055e 073d 3cae 20bd 83c7 57bd 7572 58bd
00000010: a5cf 873c a818 42bd 6cf2 f13c 32aa 8e3c
00000020: bf27 88bc 8cdf acbd 8e7c edbc eef4 89bd
00000030: b92d 843d 7a75 2b3d 969e 3ebd 058e f83c
00000040: 908f c2bc b90c 6fbd 342c 53bd 0333 b3bc
00000050: 4e8d a53d 8773 083d b7e7 85bd 74a0 fb3b
00000060: a2af cdbc adff 2e3c abbc 5a3b 89ce a33d
00000070: 11fb 703d 3829 833d 9e68 073d 329d 16bd
00000080: e13c 983d d1a3 b13d c61c 67bc f8f9 93bd
00000090: 7afb 90bd fba7 8f3d 2df5 813c cccb 3a3d
000000a0: 92c9 bdbb d815 bf3c 05b9 b3bd 6dfc d0bc
000000b0: 476e 9a3d 6d65 a5bd 5d02 adbc 6dfa 22bd
000000c0: c74d 90bc f4fb 93bd e871 943d 8f0f acbc
000000d0: 7981 953d 7dd1 973d eb8f 0dbd a21b 823d
000000e0: 79a2 73bd 5e87 74bd ba11 103d e455 44bd
000000f0: c1d2 b1bd 733b 253d 1be9 eb3b 8191 453d
00000100: 1afd ca3c 7f0a ca3c 0d9d de3c 517b b23d
00000110: 8990 7f3d 87b9 313d 0af5 413b e6bf 68bd
00000120: a820 81bd 5d4c 253d 5f63 8bbc aaac a8bd
00000130: d37e 093d 62b1 983d e4e9 1fbd 27c5 c1bc
00000140: 40d5 393d 5d98 34bd 5ec0 7ebd a41a 80bc
00000150: dbe8 6cbc 834f a0bd 4c9c 87bd a1f1 033d
00000160: dedc 80bd b830 9dbd 9228 90bd c2ef 233c
00000170: cff1 81bd bfb5 893d 3be8 a03d e0fd 973b
00000180: 0d1f 833d bc3f 363d 0c69 5bbd b164 493d
00000190: b6e6 533d af96 1f3c 20a5 213b bc0b 333d
000001a0: b53e ba3b 981d 96bc d0b6 843d 4589 873d
000001b0: c431 863c 2653 7b3d 456c 8e3d d8f4 403c
000001c0: f73d 2ebd e837 13bb 70a5 123d 363b 153d
000001d0: 80b8 15bd 97f4 83bc a3cb f63b 7755 983d
000001e0: 8378 4f3c 423a 553d 44b6 4a3d 2577 ac3d
000001f0: 7eea 7dbd 47fb 4c3b 2788 783d 8849 af3d
00000200: 06f2 a53d 9dc1 743c 77c4 8cbd a171 a1bd
00000210: b0ad 9d3d 0755 af3d 1385 253d dd52 4ebd
00000220: 1a16 6239 8e52 a93d ebb0 09bb 8ea5 da3c
00000230: 822f 893d a5bd 9a3d 0832 ad3d 2c36 653d
00000240: 5f12 793d 6e64 073c e1ce 923d 6772 383d
00000250: 2f7d 34bb f15b 403d 3892 2cbd b1fa 4e3b
00000260: 66b9 45bc 5558 183d f9b0 9a3d 07e3 7cbc
00000270: 6183 26bd 0870 20bc c711 243d b6ee bebc
00000280: 2d13 64bd 4bbb 2fbd 06ed b13d bb39 15bd
00000290: d760 afbd 9aaa a4bd 2f15 1d3d bd7e 9e3d
000002a0: 4784 5e3d 1888 8bbc 4fc2 553d 00aa 2f3d
000002b0: 6b47 a0bd 53f7 e93c f8b2 9a3d 75d5 203c
000002c0: 9f05 9abc a6b5 ff3b 5ad3 8a3d cc40 af3c
000002d0: 0ab4 283d c43a 53bd a1fd db3c 39ed 63bd
000002e0: 7c92 8abc 49e0 4abb 1a7a febb 4924 78bd
000002f0: 3c6d 823d a715 183b 1b61 0f3d 388a 923d
00000300: 1bac e53b e0a9 aa3d 99be 243d 2a39 8bbd
00000310: 0ef2 a93d c8fb 8dbd bad5 67bd 1f30 f13b
00000320: 3dbc 8e3d bbb9 363d bce2 aabd 4308 94bd
00000330: 2555 85bd 29f4 c03c 6116 89bd 15d6 253d
00000340: 456e 1dbd 8c63 2f3d 1a2f 22bc 2b48 b23d
00000350: 0b24 43bd 5291 5fbd feec a03c 1151 1fbd
00000360: 2562 703d cd13 563d d9d8 1a3c 41e0 78bd
00000370: 3b8c fc3c 579c b43d 97a6 133d 7c6b 583d
00000380: 1d9b b23c 916a b1bd 3598 5a3c 64b5 60bd
00000390: 6b9c 9abd 11ed 993d de35 103d 360b 27bc
000003a0: 69f0 64bd 0feb 783d 575d a4bd 68fc 3dbd
000003b0: f7e9 28bd 06a8 afbd 9e69 f1bc c915 79bc
000003c0: 2fc8 3cbd 8eee 383d f39a b23d 6860 463d
000003d0: 2255 c7bc 8a6c 3ebd 9b68 8cbd 2de3 8fbd
000003e0: fcf6 1b3d 2118 b03d f713 33bd dc97 01bb
000003f0: 4462 9ebd 0dff 27bd 0409 313d 6db3 42bd
0.03304865 -0.039228663 -0.052680504 -0.05284353 0.016578505 -0.047386795 0.029534541 0.01741514
-0.016620515 -0.08441076 -0.028990056 -0.0673617 0.064540334 0.04186008 -0.046537958 0.030341158
-0.023750097 -0.058361743 -0.051555827 -0.02187491 0.08083592 0.0333133 -0.06538337 0.0076790396
-0.025108162 0.010681075 0.0033376615 0.07998378 0.058833186 0.06404346 0.033058755 -0.036771007
0.07433487 0.086738236 -0.014105981 -0.07225412 -0.07079215 0.070144616 0.01586398 0.045604512
-0.0057918513 0.023325846 -0.08775524 -0.025510991 0.07540565 -0.08075986 -0.021119291 -0.039789606
-0.017615212 -0.072257906 0.072482884 -0.021003513 0.073000856 0.074130036 -0.03456108 0.06352927
-0.059481118 -0.05969941 0.035173155 -0.047933474 -0.08682776 0.0403399 0.007199419 0.048234466
0.024778891 0.024663208 0.027174497 0.08714927 0.0623937 0.043389823 0.0029595518 -0.056823634
-0.06305057 0.04035603 -0.017015157 -0.08236058 0.033568215 0.07455708 -0.039041415 -0.02365358
0.045369387 -0.044090617 -0.062195174 -0.015637703 -0.014459814 -0.07827666 -0.06621608 0.032212857
-0.06292127 -0.07675308 -0.07038988 0.010005893 -0.063449495 0.067241184 0.078567944 0.0046384186
0.06402407 0.044494376 -0.053566977 0.049168292 0.051733695 0.009740516 0.0024665073 0.043712363
0.005683745 -0.018324658 0.06480181 0.06617979 0.016381152 0.061358593 0.069542445 0.011777125
-0.042539563 -0.0022463743 0.035802305 0.03643342 -0.036552906 -0.01610784 0.0075315996 0.07438176
0.01266301 0.052057512 0.04949023 0.084211625 -0.061991207 0.0031277703 0.06067672 0.08558947
0.08102803 0.014938739 -0.0687341 -0.07883001 0.07699144 0.085611396 0.040410113 -0.050371993
0.00021561273 0.08267699 -0.0021009992 0.02669027 0.066985145 0.07555703 0.08456808 0.055959865
0.060808536 0.00826369 0.07168365 0.045030978 -0.0027540436 0.046962682 -0.042131633 0.003158253
-0.012068128 0.037193615 0.07553286 -0.015434987 -0.040652636 -0.009792335 0.040056016 -0.023307186
-0.05568235 -0.042903226 0.08687787 -0.03643201 -0.085633926 -0.08040352 0.03835028 0.07739017
0.05432537 -0.017032668 0.05218726 0.042886734 -0.07826122 0.028560316 0.07553667 0.009816517
-0.018801508 0.0078036366 0.06778593 0.021393202 0.041187324 -0.051569715 0.026854338 -0.055646155
-0.016915552 -0.0030956438 -0.0077660205 -0.06058148 0.06368491 0.0023206265 0.035004716 0.071552694
0.007009042 0.08333182 0.04022083 -0.067980126 0.082981214 -0.06932789 -0.05660031 0.007360473
0.06969497 0.04461072 -0.083440274 -0.07228138 -0.06510381 0.023553925 -0.066937216 0.040487368
-0.03843524 0.042819545 -0.009898925 0.08705171 -0.047641795 -0.054581948 0.019644257 -0.03889567
0.058687348 0.052264977 0.009451115 -0.06076074 0.030828586 0.08818882 0.036047544 0.05283688
0.02180248 -0.08662904 0.013341953 -0.054860488 -0.075493656 0.0751592 0.03520762 -0.010195544
-0.055893335 0.060771044 -0.08025616 -0.04638329 -0.04123875 -0.0857697 -0.029469308 -0.015202948
-0.046089347 0.04514938 0.087209605 0.048431784 -0.024332587 -0.04649023 -0.068558894 -0.07025752
0.03807734 0.08598352 -0.04372021 -0.0019774353 -0.077335864 -0.04101472 0.04322149 -0.047534395

fc3.bias f4 [5]
00000000: 6ed0 a5bd 6651 bf3b 0f51 03bd 9d65 a33d
00000010: 0d8a 57bd
-0.080963954 0.005838561 -0.032059725 0.079783656 -0.05262189
