dqn_models/dqn_model_ver1.pth (torch, 272456 bytes, 4 tensors)

fc1.weight f4 [256, 256]
-0.013987689 0.008083034 0.0024785737 0.01677696 0.04134166 0.004498227 0.027849477 -0.01407806
-0.04606441 0.05363125 0.008164508 -0.004928321 0.025889948 -0.014458488 0.04143246 0.051894404
-0.036186382 -0.030095454 0.03205854 0.045640018 0.0060359254 -0.019755272 0.044334065 -0.004420571
0.018335944 0.036072887 -0.013905114 0.04533609 0.0347665 0.023900595 0.037669245 -0.03805399
-0.0053987014 0.019711839 -0.049052797 0.045629233 0.0151761295 0.03914098 0.045421325 0.033674978
-0.057623748 -0.017275969 -0.051499356 -0.04202881 -0.036303498 -0.03313241 0.03928213 -0.021846123
0.0073817037 -0.013350464 -0.05717215 -0.010028395 0.031144138 0.017283954 -0.0002239461 -0.019112805
-0.048631907 0.057791606 -0.010904235 -0.046564728 -0.05523817 -0.017393552 0.053569596 0.044210237
0.005259589 -0.020626243 0.05921821 0.020454159 -0.0026077689 -0.029442843 -0.0103887 0.03935931
0.020626487 0.018039761 0.052253608 -0.02826439 0.005258322 0.026593318 -0.04448092 -0.006971819
-0.026261888 -0.065741755 -0.014070414 0.04112941 0.019274373 -0.047392033 -0.037727073 -0.006037184
0.028477939 0.033066247 -0.009128073 -0.04227742 0.052333605 -0.03311165 -0.011295237 -0.05856122
-0.037816305 0.033382736 -0.008711415 -0.037049435 -0.037805468 -0.010638168 5.191679e-06 0.06618469
0.027002424 -0.012090732 0.041070763 0.025695788 0.011214561 0.039834015 -0.005249328 -0.034852948
-0.062724575 -0.05040453 -0.04191459 -0.047936868 -0.00045925844 0.02514419 0.03828803 -0.015425742
0.009848871 0.029412743 0.03041131 -0.012369655 0.049461525 -0.013883802 0.074087806 0.05265927
-0.03560694 -0.028843366 0.039769966 0.05608227 -0.03132616 -0.03968571 -0.05310902 -0.01902388
0.048382662 0.024438832 -0.053260356 0.00041231432 0.014513123 -0.036337577 0.06710566 0.057231538
0.018280946 0.0036892358 -0.053585485 0.07296174 -0.029318325 -0.011999234 -0.01572768 -0.05328513
0.0015341002 0.023911998 -0.015187297 -0.02139503 0.026887244 -0.0042273416 -0.013819625 -0.0063961986
0.050158467 0.021294152 0.037846196 -0.051621836 -0.05235799 0.04500052 -0.045388397 0.0021306137
-0.024833228 0.024171542 0.027767237 0.053910214 -0.023357073 -0.002502764 0.01264476 -0.035709944
-0.033011347 0.003927718 0.034293227 0.019795202 -0.057955533 0.050324388 0.013304243 -0.0114768725
-0.051475495 -0.0010753826 -0.040663883 0.037668422 0.038075034 -0.015805313 0.039649703 -0.05046683
-0.073179565 -0.017978659 0.021944787 0.026185803 -0.03656401 -0.064527266 0.045137823 0.06344156
-0.015093512 -0.0035337757 0.033012714 0.040827654 -0.059720546 0.017310211 0.012303878 0.044652857
-0.027376806 0.010147473 0.0019031028 -0.035133157 -0.0071294657 -0.02524173 -0.0429627 -0.0526911
-0.022999018 -0.039120648 -0.013592727 -0.0031829893 0.0065375892 -0.07263632 -0.014549572 -0.0051645767
0.02367118 0.068653464 0.01944696 0.039086804 -0.017529678 -0.0266508 0.06360684 -0.03243954
-0.035932712 0.030038243 0.05507263 -0.0017791907 0.04267381 -0.008782307 -0.016548194 -0.063219704
-0.031938825 -0.0176516 -0.005485541 0.02828497 0.028859468 -0.063432395 0.035149567 -0.04833228
-0.04461716 -0.0141643435 0.010317247 0.001255031 0.007495043 0.013740137 -0.028651739 0.00092098664
00000000: 9f2c 65bc b46e 043c 916f 223b d66f 893c
00000010: df55 293d dd65 933b 9624 e43c aaa7 66bc
00000020: 09ae 3cbd 71ac 5b3d 6ec4 053c c17d a1bb
00000030: 2817 d43c 4be3 6cbc 15b5 293d 3a8f 543d
00000040: 2c38 14bd be8a f6bc d14f 033d 07f1 3a3d
00000050: 03c9 c53b cfd5 a1bc a397 353d 70da 90bb
00000060: 4335 963c 2ac1 133d 46d2 63bc 56b2 393d
00000070: 5167 0e3d 2ecb c33c 114b 1a3d 80de 1bbd
00000080: 97e7 b0bb b97a a13c 96eb 48bd b8e5 3a3d
00000090: 4da5 783c 4b52 203d b60b 3a3d c6ee 093d
000000a0: e106 6cbd 5586 8dbc fdf0 52bd 6726 2cbd
000000b0: fab2 14bd dab5 07bd 4ce6 203d a4f6 b2bc
000000c0: 38e2 f13b e8bb 5abc 582d 6abd 234e 24bc
000000d0: fe21 ff3c 1497 8d3c 13d3 6ab9 7592 9cbc
000000e0: 4032 47bd e4b6 6c3d ada7 32bc a8ba 3ebd
000000f0: 6b41 62bd ec7c 8ebc cb6b 5b3d cb15 353d
00000100: a158 ac3b 5ef8 a8bc cb8e 723d 7b8f a73c
00000110: 1ae7 2abb 1e32 f1bc 5e35 2abc 3a37 213d
00000120: e1f8 a83c 1fc8 933c e107 563d b98a e7bc
00000130: 014e ac3b 3bda d93c a031 36bd db73 e4bb
00000140: 2c23 d7bc 9da3 86bd 9887 66bc 5077 283d
00000150: 4ae5 9d3c 261e 42bd b487 1abd 92d3 c5bb
00000160: 914a e93c 7970 073d ea8d 15bc 172b 2dbd
00000170: c35b 563d 15a0 07bd a80f 39bc e4dd 6fbd
00000180: 45e5 1abd 56bc 083d 53ba 0ebc 26c1 17bd
00000190: e8d9 1abd b64b 2ebc 2f34 ae36 d78b 873d
000001a0: 3034 dd3c 3518 46bc d139 283d f97f d23c
000001b0: 47bd 373c fe28 233d 8e02 acbb f7c1 0ebd
000001c0: be75 80bd fb74 4ebd a2ae 2bbd 7359 44bd
000001d0: a0c8 f0b9 30fb cd3c e9d3 1c3d 40bc 7cbc
000001e0: 295d 213c fef2 f03c 2421 f93c 18aa 4abc
000001f0: 2b98 4a3d e378 63bc 59bb 973d 3fb1 573d
00000200: 95d8 11bd ec48 ecbc d5e5 223d 86b6 653d
00000210: dc4f 00bd 7c8d 22bd d888 59bd f8d7 9bbc
00000220: e62c 463d f233 c83c 8827 5abd e42b d839
00000230: 73c8 6d3c b6d6 14bd b16e 893d 9e6b 6a3d
00000240: ecc1 953c 1bc7 713b 747c 5bbd f76c 953d
00000250: fc2c f0bc 6f98 44bc 56d7 80bc 8241 5abd
00000260: dc13 c93a 18e3 c33c 24d4 78bc a144 afbc
00000270: a342 dc3c 8385 8abb b56b 62bc 3497 d1bb
00000280: f772 4d3d 1371 ae3c 9d04 1b3d 6b71 53bd
00000290: 5575 56bd 7752 383d 2fe9 39bd c4a1 0b3b
000002a0: 0e6f cbbc 6603 c63c 1e78 e33c f5d0 5c3d
000002b0: 5557 bfbc 6a05 24bb f82b 4f3c 9744 12bd
000002c0: e836 07bd 16b4 803b 0e77 0c3d 8c29 a23c
000002d0: c862 6dbd f220 4e3d 0afa 593c 7e09 3cbc
000002e0: f8d7 52bd daf3 8cba 2c8f 26bd 344a 1a3d
000002f0: 91f4 1b3d 257a 81bc ba67 223d 4fb6 4ebd
00000300: 2bdf 95bd fb47 93bc 8ec5 b33c 9c83 d63c
00000310: 25c4 15bd df26 84bd 70e2 383d a6ed 813d
00000320: c74a 77bc eb96 67bb 5738 073d e63a 273d
00000330: 889d 74bd 25ce 8d3c 3496 493c eae5 363d
00000340: 5345 e0bc 9641 263c 8971 f93a c9e7 0fbd
00000350: 4b9e e9bb bfc7 cebc a8f9 2fbd 9fd2 57bd
00000360: 7068 bcbc f93c 20bd 07b4 5ebc b399 50bb
00000370: 4639 d63b 5ac2 94bd 5461 6ebc 9c3b a9bb
00000380: 10ea c13c 309a 8c3d 3b4f 9f3c 7c19 203d
00000390: 669a 8fbc c752 dabc 4e44 823d 53df 04bd
000003a0: 2e2e 13bd c312 f63c d793 613d bc33 e9ba
000003b0: bcca 2e3d aae3 0fbc 1490 87bc 5579 81bd
000003c0: 49d2 02bd 179a 90bc 0ec0 b3bb e2b5 e73c
000003d0: b16a ec3c d8e8 81bd fef8 0f3d 12f8 45bd
000003e0: 7cc0 36bd 9011 68bc ac09 293c da7f a43a
000003f0: fa98 f53b 501e 613c 0db7 eabc 5e6e 713a

fc1.bias f4 [256]
0.018001068 -0.03482822 0.050824776 -0.047444288 -0.058583796 -0.04222416 0.044606384 0.040353134
7.331589 0.0102609955 -0.02309723 0.029129215 7.331533 0.028884493 7.2428904 6.998387
-0.0054610595 6.778338 -0.04305462 0.0051626023 -0.06667512 0.0018449334 6.766661 0.021618487
7.156358 -0.003909862 0.031942427 -0.04453859 0.019477228 -0.013190627 0.0041885027 -0.025448939
-0.0061156275 -0.027279472 6.8250346 0.00910098 0.014005275 -0.053048268 6.68914 -0.052848354
6.4282002 0.053177193 0.041038923 -0.03300329 7.4235373 0.008405898 -0.056640334 6.7166867
0.0029063402 -0.004926905 6.328145 -0.06723823 -0.009344389 0.023004713 0.008355332 -0.009381719
-0.011379666 -0.038872454 0.045619678 -0.046518844 0.016928414 -0.05077727 -0.05582932 -0.03459193
7.5683317 6.8953586 -0.010280639 7.165652 0.049021855 -0.06363347 -0.0034930662 -0.012418253
-0.016234055 -0.0021638502 0.050339088 6.809808 -0.023618054 -0.05633474 -0.027728155 -0.029672362
7.1979475 7.1237106 0.028043315 7.230661 7.403348 -0.013306289 6.9558 -0.05502004
0.017089305 7.1536636 6.9780474 0.05015987 -0.054832585 0.045532115 -0.027040692 0.023503315
-0.06510932 -0.02211017 0.022533761 6.1418886 0.020891072 -0.035498578 6.3528943 -0.01848501
0.0074214125 0.00096829236 -0.060107328 0.03837213 -0.005212262 7.5620527 0.0054430566 -0.008492722
6.849934 6.343348 -0.008782774 0.008368368 0.04285319 -0.01919348 7.1140575 -0.0065968633
-0.008671383 5.8749676 -0.001088269 -0.018688112 7.485433 -0.029566215 -0.057051763 0.011490947
0.030637834 7.2019935 0.049922787 -0.05873818 0.008165759 -0.025633216 6.248076 0.057966437
6.9340067 0.026132267 -0.017994868 0.025952974 -0.06116703 -0.020605518 0.014707309 0.03358568
-0.057368994 -0.009266358 0.0417623 -0.035703093 -0.06074274 -0.051904507 0.044419985 -0.035195485
0.010567526 0.02908546 0.044514444 -0.03203693 0.028844006 -0.05132942 -0.0640482 7.6979585
6.1343284 -0.047930196 6.9232492 -0.0012781247 -0.047059897 0.043446004 0.0072402316 -0.051766098
-0.044711683 -0.059128143 -0.030685341 0.013605326 -0.049799297 -0.019719202 6.653588 -0.025035433
-0.046518117 0.0031765143 0.050244007 -0.061881375 -0.05537635 0.049142305 0.051455785 0.00059385144
7.180363 6.3818183 6.3257165 -0.0288843 7.448511 0.0070626065 -0.03797887 7.8093314
-0.05050517 -0.0038671265 7.4996204 0.051737875 0.045135304 -0.06316631 -0.026090182 -0.05116457
0.007220231 6.8377185 0.018218393 7.549513 7.372636 7.5783114 7.373614 -0.022130392
0.0003476143 0.0005001249 0.019334657 7.722712 0.046067715 -0.054652546 6.9010105 7.3084626
0.0038344485 6.9367676 -0.042252924 7.7067785 -0.04266602 -0.017029867 7.223288 -0.058570273
7.0066166 6.389513 0.014796817 6.4911914 0.0010186849 7.1331143 -0.025653869 -0.0019272229
-0.02548164 0.05713468 -0.012172164 6.2621546 -0.033451952 0.044407547 -0.05906861 0.03247252
-0.0630018 7.109854 7.211987 -0.04542378 0.013381341 0.030898526 7.5319395 -0.022624336
-0.009218238 0.046043713 7.3776603 6.673569 -0.038476825 -0.032081135 7.4856067 -0.050116654
00000000: fa76 933c 09a8 0ebd a42d 503d f154 42bd
00000010: 90f5 6fbd 3ef3 2cbd 2fb5 363d 5449 253d
00000020: 619c ea40 bc1d 283c 6736 bdbc 64a0 ee3c
00000030: eb9b ea40 2c9f ec3c c2c5 e740 c9f2 df40
00000040: b0f2 b2bb 25e8 d840 0b5a 30bd 0c2b a93b
00000050: f78c 88bd b1d1 f13a 7d88 d840 4119 b13c
00000060: e200 e540 4d1e 80bb 10d6 023d 196e 36bd
00000070: b58e 9f3c 801d 58bc b53f 893b 4b7a d0bc
00000080: 9a65 c8bb 3379 dfbc af66 da40 471c 153c
00000090: 6276 653c 2449 59bd 6f0d d640 8477 58bd
000000a0: d1b3 cd40 54d0 593d 6e18 283d 752e 07bd
000000b0: 9e8d ed40 e4b8 093c b2ff 67bd 19ef d640
000000c0: 4c78 3e3b e071 a1bb 2a80 ca40 32b4 89bd
000000d0: 3519 19bc 6174 bc3c cde4 083c c8b5 19bc
000000e0: c771 3abc b938 1fbd b3db 3a3d 8b8a 3ebd
000000f0: 75ad 8a3c d4fb 4fbd 49ad 64bd 45b0 0dbd
00000100: c62f f240 c7a6 dc40 2070 28bc 054d e540
00000110: 24cb 483d 4452 82bd edeb 64bb ee75 4bbc
00000120: 48fd 84bc 62cf 0dbb 5c30 4e3d f2e9 d940
00000130: a67a c1bc 42bf 66bd 2826 e3bc 7413 f3bc
00000140: 9655 e640 70f5 e340 18bb e53c 9361 e740
00000150: 3ae8 ec40 9f02 5abc ea95 de40 b25c 61bd
00000160: dffe 8b3c d0ea e440 2a4c df40 7074 4d3d
00000170: 2298 60bd e27f 3a3d 7184 ddbc 068a c03c
00000180: 0958 85bd 6320 b5bc b998 b83c 5a8a c440
00000190: c123 ab3c f566 11bd e94a cb40 e06d 97bc
000001a0: 522f f33b 00d5 7d3a 1a33 76bd 182c 1d3d
000001b0: 9fcb aabb 56fc f140 ab5b b23b 0f25 0bbc
000001c0: a932 db40 b5fc ca40 a0e5 0fbc 7b1b 093c
000001d0: d486 2f3d a53b 9dbc 5ca6 e340 802a d8bb
000001e0: 6b12 0ebc bcff bb40 40a4 8eba d017 99bc
000001f0: ab88 ef40 d934 f2bc 1caf 69bd 8644 3c3c
00000200: 32fc fa3c bb76 e640 d67b 4c3d 7297 70bd
00000210: adc9 053c c0fc d1bc 3df0 c740 376e 6d3d
00000220: 62e3 dd40 5613 d63c f969 93bc 559b d43c
00000230: 488a 7abd e7cc a8bc edf6 703c 2391 093d
00000240: c0fb 6abd ecd1 17bc f20e 2b3d 683d 12bd
00000250: 61cd 78bd d299 54bd bbf1 353d 2429 10bd
00000260: 6b23 2d3c a144 ee3c c754 363d 2839 03bd
00000270: 444a ec3c cc3e 52bd b42b 83bd ad55 f640
00000280: 6b4c c440 7452 44bd 428b dd40 c086 a7ba
00000290: e1c1 40bd 70f4 313d 773f ed3b b008 54bd
000002a0: 9923 37bd 5a30 72bd d35f fbbc e0e8 5e3c
000002b0: 59fa 4bbd 2a8a a1bc 31ea d440 1c17 cdbc
000002c0: c889 3ebd 112d 503b a9cc 4d3d 5377 7dbd
000002d0: 50d2 62bd 7149 493d 4dc3 523d b2ac 1b3a
000002e0: 89c5 e540 db37 cc40 456c ca40 c49e ecbc
000002f0: 345a ee40 706d e73b bb8f 1bbd 0be6 f940
00000300: 82de 4ebd 9e6f 7dbb e4fc ef40 18eb 533d
00000310: ccdf 383d 575d 81bd 14bb d5bc f191 51bd
00000320: b097 ec3b 97ce da40 bd3e 953c 9c95 f140
00000330: a2ec eb40 8781 f240 a5f4 eb40 cc4a b5bc
00000340: 0040 b639 d01a 033a b763 9e3c 7520 f740
00000350: 80b1 3c3d 59db 5fbd 14d5 dc40 edde e940
00000360: 5f4b 7b3b 00fa dd40 6711 2dbd ee9d f640
00000370: 91c2 2ebd 3882 8bbc 2d25 e740 62e7 6fbd
00000380: 3436 e040 e476 cc40 596e 723c d7b7 cf40
00000390: 6585 853a 7942 e440 1028 d2bc df9a fcba
000003a0: dfbe d0bc 0e06 6a3d c26d 47bc 9263 c840
000003b0: ea04 09bd b0e4 353d edf1 71bd e801 053d
000003c0: 1607 81bd ed83 e340 99c8 e640 490e 3abd
000003d0: 693d 5b3c e81e fd3c a605 f140 ac56 b9bc
000003e0: 1808 17bc 5598 3c3d cb15 ec40 e18d d540
000003f0: e099 1dbd 8267 03bd 178a ef40 1f47 4dbd

fc2.weight f4 [7, 256]
-0.041246433 0.04467746 -0.0002863907 -0.04903323 -0.017439546 0.017921343 -0.051099617 0.022146445
0.09437742 -0.036052868 0.039384935 -0.006972969 0.0565574 0.07055308 0.08455242 0.10161054
-0.051196255 0.078659 0.040190507 -0.026743054 0.042153552 0.0009755277 0.006821124 0.014948715
0.037820976 -0.039619558 -0.0069759497 0.051053174 -0.016927995 0.014873512 -0.039618824 -0.026618518
-0.029458664 -0.051788524 0.122696966 0.029777816 -0.0025894716 -0.054476514 0.0955148 -0.052204467
0.081277125 -0.017737081 -0.011135647 -0.042580456 0.11425986 0.01845868 0.046003513 0.12288504
-0.009098327 0.033980407 0.09359982 -0.030877575 -0.010419998 0.002921848 -0.03639798 0.017652892
-0.045427505 -0.044990737 -0.052035637 0.03838312 -0.038338535 -0.04293805 -0.029794093 0.051124632
0.123460524 0.09096262 -0.006695889 0.056224555 -0.0018635285 0.019031845 -0.030037466 -0.048909374
-0.030706147 0.041841164 -0.022126302 0.07731929 -0.05889576 0.02866061 0.060700174 0.059024878
0.058291376 0.099153884 -0.03179053 0.047402587 0.08142537 -0.022272468 0.09421939 -0.060060672
-0.026922517 0.05526025 0.10558052 -0.035790373 -0.037106402 -0.010275644 -0.01268876 0.05854839
-0.033325188 -0.019302629 -0.034886524 0.04389221 -0.018921958 0.05859839 0.035228543 0.04312177
-0.04009675 -0.041227438 0.00414503 -0.043680176 -0.021334708 0.10977312 0.0015710645 -0.038878214
0.086866476 0.01961908 0.018322393 -0.010437169 -0.039365906 0.036744066 0.016089283 -0.057255924
-0.018007517 0.0020893563 -0.032066613 0.06269729 0.08068422 0.0356849 0.054932293 0.0080499
0.024799714 0.10167167 0.06408562 0.043629766 -0.021731695 -0.05584809 0.09313101 0.009591476
0.12135418 0.003350929 -0.023951447 -0.03582167 -0.01944436 -0.0035617894 0.031033186 0.003996875
-0.018637873 -0.01585885 0.06413585 -0.021643423 0.04214011 -0.03960333 0.016581245 -0.051222444
-0.033370137 0.012705654 0.050734755 -0.051126968 0.032340884 -0.019096807 -0.04535313 0.071231015
0.10116616 -0.025634237 0.12153137 -0.032107137 0.0161095 0.0072378027 -0.00976651 0.019197786
0.007942393 -0.04576788 -0.029058484 -0.007548809 0.018059216 0.0055014472 0.055290718 0.055286754
-0.050121203 0.0025414696 -0.033407126 -0.007108927 -0.014254451 -0.030215777 -0.030597841 -0.028298676
0.09412518 0.08457172 0.09586535 -0.047931675 0.12365284 0.02004236 -0.061446257 0.10810689
0.047170527 -0.044018555 0.12685044 -0.022924032 0.03706951 -0.003279321 -0.049988918 0.053503767
0.007407211 0.046295937 0.016664317 0.036523588 0.064206265 0.09085648 0.05574365 -0.03172101
0.052381627 -0.025695823 0.016598694 0.117362306 -0.038692567 0.009477512 0.048316516 0.10056153
0.036844544 0.020048305 -0.006840612 0.08283164 0.043534864 0.0253172 0.121461496 -0.032437414
0.07076585 0.06776665 -0.025663912 0.094430394 -0.025831793 0.015922286 0.05517582 0.06293874
-0.019245073 0.025813904 0.037495047 0.060397916 -0.011314653 0.03366585 -0.038495842 0.04227084
-0.047502577 0.021949166 0.055419732 0.048501812 -0.037471488 -0.037976462 0.11075996 0.041115366
0.05183671 -0.048874613 0.056201685 0.0937616 -0.040135726 -0.009677695 0.07815934 -0.04964353
00000000: 05f2 28bd b6ff 363d b626 96b9 11d7 48bd
00000010: 61dd 8ebc c8cf 923c d54d 51bd 766c b53c
00000020: f348 c13d 2cac 13bd 1952 213d 817d e4bb
00000030: bba8 673d 227e 903d d229 ad3d 3019 d03d
00000040: 2ab3 51bd f817 a13d cd9e 243d 4014 dbbc
00000050: 34a9 2c3d 8eba 7f3a bc83 df3b 75eb 743c
00000060: 2bea 1a3d 1e48 22bd 8296 e4bb 221d 513d
00000070: 94ac 8abc 08b0 733c 5947 22bd 140f dabc
00000080: 4c53 f1bc 3420 54bd 8c48 fb3d 9bf0 f33c
00000090: 20b4 29bb c422 5fbd 439d c33d 5ad4 55bd
000000a0: 9f74 a63d 5b4d 91bc 4a72 36bc d868 2ebd
000000b0: 1301 ea3d a836 973c 2e6e 3c3d 27ab fb3d
000000c0: 2611 15bc 0a2f 0b3d 43b1 bf3d f8f2 fcbc
000000d0: a4b8 2abc 7a7c 3f3b 0c16 15bd cc9c 903c
000000e0: 3112 3abd 3548 38bd 5223 55bd 9e37 1d3d
000000f0: de08 1dbd cfdf 2fbd be12 f4bc 1068 513d
00000100: dfd8 fc3d 9c4a ba3d 3069 dbbb b84b 663d
00000110: a441 f4ba ace8 9b3c 2211 f6bc 3255 48bd
00000120: 758b fbbc a461 2b3d 3842 b5bc 9359 9e3d
00000130: ae3c 71bd a8c9 ea3c bfa0 783d 12c4 713d
00000140: f0c2 6e3d 3111 cb3d c936 02bd 3729 423d
00000150: 58c2 a63d c074 b6bc 18f6 c03d 2e02 76bd
00000160: 9c8c dcbc 9258 623d 9a3a d83d ed98 12bd
00000170: e2fc 17bd 2d5b 28bc 84e4 4fbc 70d0 6f3d
00000180: fe7f 08bd 8c20 9ebc 2ce5 0ebd 51c8 333d
00000190: 3902 9bbc de04 703d ce4b 103d 74a0 303d
000001a0: 7d3c 24bd 1ade 28bd 08d3 873b fce9 32bd
000001b0: 20c6 aebc bbd0 e03d 2dec cd3a c33e 1fbd
000001c0: 0de7 b13d 31b8 a03c d818 963c a900 2bbc
000001d0: 253e 21bd f280 163d accd 833c 3085 6abd
000001e0: 8084 93bc 95ed 083b 4858 03bd 7067 803d
000001f0: c53d a53d 542a 123d af00 613d bae3 033c
00000200: c528 cb3c 3d39 d03d 523f 833d 20b5 323d
00000210: ab06 b2bc f8c0 64bd 79bb be3d 9125 1d3c
00000220: 8a88 f83d 429b 5b3b d335 c4bc beb9 12bd
00000230: c749 9fbc e96c 69bb 4f39 fe3c 38f8 823b
00000240: 74ae 98bc 6bea 81bc a859 833d 8c4d b1bc
00000250: 1c9b 2c3d 1a37 22bd 64d5 873c a0ce 51bd
00000260: 20af 08bd 602b 503c 3fcf 4f3d 836a 51bd
00000270: e077 043d e870 9cbc 34c4 39bd 91e1 913d
00000280: 3430 cf3d e4fe d1bc 70e5 f83d c682 03bd
00000290: 12f8 833c 172b ed3b b603 20bc ad44 9d3c
000002a0: d020 023c 1a77 3bbd 0f0c eebc 005c f7bb
000002b0: ecf0 933c 7c45 b43b 8578 623d 5d74 623d
000002c0: e44b 4dbd c98e 263b e9d5 08bd 00f2 e8bb
000002d0: 808b 69bc 1487 f7bc 53a8 fabc a0d2 e7bc
000002e0: b4c4 c03d f033 ad3d 0d55 c43d 0154 44bd
000002f0: b33d fd3d e02f a43c 12af 7bbd 2567 dd3d
00000300: e235 413d cd4c 34bd 15e5 013e 2ecb bbbc
00000310: 33d6 173d e0e9 56bb 2ec1 4cbd c426 5b3d
00000320: 30b8 f23b cfa0 3d3d 9b83 883c c299 153d
00000330: 937e 833d f612 ba3d 7453 643d e4ed 01bd
00000340: 1e8e 563d 0c80 d2bc fcf9 873c a65b f03d
00000350: 197c 1ebd 9147 1b3c 8ae7 453d 34f3 cd3d
00000360: 4eea 163d 583c a43c 3627 e0bb a3a3 a93d
00000370: 9d51 323d 0466 cf3c cec0 f83d 18dd 04bd
00000380: b0ed 903d 3ec9 8a3d 203d d2bc b964 c13d
00000390: 329d d3bc 746f 823c 0a00 623d 07e6 803d
000003a0: d8a7 9dbc ae77 d33c 6894 193d ce63 773d
000003b0: 1861 39bc 34e5 093d d1ad 1dbd 3024 2d3d
000003c0: 1092 42bd bdce b33c cdff 623d d6a9 463d
000003d0: b47b 19bd 358d 1bbd 1ed6 e23d 9668 283d
000003e0: bb52 543d bf30 48bd bd33 663d 1506 c03d
000003f0: 5c65 24bd 328f 1ebc 0112 a03d 0457 4bbd

fc2.bias f4 [7]
3.267332 3.3478415 3.3635855 3.3959732 -3.219003 3.3056142 3.2972348
00000000: f81b 5140 0943 5640 fc44 5740 a057 5940
00000010: 2504 4ec0 2f8f 5340 e505 5340
