dqn_models/dqn_model_ver8.pth (torch, 401172 bytes, 6 tensors)

weight f4 [256, 256]
0	0x3d609b5c	0.054835662
1	0xbd533f8e	-0.051574282
2	0x3addc100	0.001691848
3	0xbc5148f0	-0.012773737
4	0x3c52d328	0.012867726
5	0x3cc278a8	0.023739174
6	0xbd0c4cfa	-0.034253098
7	0x3c6b5800	0.014364243
8	0xbd6ffc2e	-0.058590107
9	0xbc1aab50	-0.009440258
10	0x3d51db24	0.05123438
11	0xbce4e4a0	-0.027941048
12	0x3d6227b6	0.055213653
13	0x3c9b515c	0.018959694
14	0xbba0cf20	-0.0049075037
15	0xbd339892	-0.043846674
16	0xbd350562	-0.044194587
17	0x3d13d080	0.036087513
18	0x3c818914	0.015812434
19	0x3d736d48	0.05943039
20	0xbcc3fba8	-0.02392371
21	0xbcc3edc8	-0.023917094
22	0xbd5a0e60	-0.053236365
23	0xbc3700e0	-0.011169642
24	0x38025800	3.107637e-05
25	0x3d768f5c	0.060195312
26	0xbc0084f8	-0.007844202
27	0x3d461c14	0.04836662
28	0xbce50e90	-0.027961046
29	0x3d43c132	0.047791667
30	0xbbca5de0	-0.0061757416
31	0xbd5bc17e	-0.053651325
32	0xbbaa19f0	-0.0051910803
33	0xbcd54660	-0.026034534
34	0x3d2f3ca2	0.042782433
35	0x3d5b99c6	0.053613447
36	0x3d6c3fc4	0.057678
37	0xbd6d32e0	-0.057909846
38	0x3bbf1590	0.005831428
39	0xbd4b1dfc	-0.049589142
40	0x388bb000	6.660819e-05
41	0xbc9058c4	-0.017620452
42	0xbd16ad50	-0.036786377
43	0x3c2655e0	0.01015231
44	0x3d7a914a	0.061173715
45	0x3d005d72	0.031339116
46	0x3c0b9760	0.008519977
47	0xbc4c3258	-0.012463175
48	0xbd476a0c	-0.04868512
49	0x3cd0c408	0.0254841
50	0xbd5269f0	-0.05137056
51	0x3c43ee50	0.011958674
52	0xbd5ac316	-0.053408705
53	0x3d36726c	0.044542715
54	0x3ccf6cbc	0.025320403
55	0xbd392c30	-0.045208156
56	0x3d719d44	0.05898787
57	0x3d700898	0.058601946
58	0xbc6b58a0	-0.014364392
59	0xbcc00fc8	-0.023445025
60	0xbd685b4c	-0.056727692
61	0xbcdf63a4	-0.027269192
62	0xbc1d8138	-0.009613328
63	0xbd61ccba	-0.055126883
64	0xbc3de398	-0.011589907
65	0xbd224c0e	-0.039623313
66	0x3d66849c	0.05627881
67	0xbd6eb5e2	-0.058278926
68	0x3c852a1c	0.01625543
69	0x3d14d7b6	0.03633853
70	0x3d7dfcb8	0.06200859
71	0x3ca12d94	0.019675054
72	0xbd2e185a	-0.042503692
73	0x3d0dc5be	0.03461241
74	0xbd694658	-0.05695185
75	0x3c408318	0.011750005
76	0x3c293bc8	0.010329194
77	0xbc2c8c38	-0.010531478
78	0x3d308bf6	0.043102227
79	0xbd7d0328	-0.06177059
80	0xbd6d9a92	-0.058008738
81	0x3cbc2d78	0.0229709
82	0x399ab800	0.0002951026
83	0xbd3247ea	-0.043525614
84	0x3c2a1a38	0.010382228
85	0xbd7956c2	-0.060873754
86	0x3d5da730	0.05411452
87	0x3b7be880	0.0038438141
88	0xba609f80	-0.0008568689
89	0xbbfb07b0	-0.0076608285
90	0x3d45c3a6	0.048282288
91	0x3d64af80	0.055831432
92	0xbd55c9ba	-0.052194335
93	0x3b8a29a0	0.004216388
94	0xbcf4f81c	-0.029903464
95	0xbcceaf20	-0.02522999
96	0xbca313a4	-0.019906826
97	0xbd558d08	-0.05213645
98	0x3cb69800	0.022289276
99	0xbd0a44ca	-0.03375701
100	0xbc81fd6c	-0.015867911
101	0xbce038c8	-0.027370825
102	0x3d36fb8c	0.044673488
103	0xbd719056	-0.05897554
104	0x3bf8f140	0.0075971186
105	0x3d35b96c	0.044366285
106	0x3c7a57c8	0.015279718
107	0xbcd42174	-0.025894858
108	0x3d581336	0.052752696
109	0x3ca777c8	0.020442858
110	0x3d073ee0	0.033018947
111	0xbc974484	-0.018465288
112	0x3d47d21c	0.04878436
113	0x3d5aae60	0.053388953
114	0x3ca76018	0.020431563
115	0x3cedcb80	0.0290277
116	0x3d3f1606	0.046651863
117	0xbd253172	-0.040330358
118	0x3ce2992c	0.027660929
119	0xbd5fb1e6	-0.054613017
120	0xbd793080	-0.06083727
121	0xbd420b38	-0.04737398
122	0x3d316e72	0.04331822
123	0x3c6e3e80	0.014541268
124	0xbd2ed92a	-0.042687573
125	0xbd19b4c4	-0.037525907
126	0xbc2147e0	-0.0098437965
127	0xbd374248	-0.044740945
128	0x3c941f50	0.018081337
129	0xbd4792f6	-0.048724137
130	0x3c86d554	0.016459145
131	0xbd690382	-0.05688811
132	0x3cf4f9fc	0.029904358
133	0xbc3baaf8	-0.011454336
134	0xbd703e70	-0.058653295
135	0xbd007f38	-0.031371325
136	0xbd3debd0	-0.046367466
137	0xbd77a068	-0.06045571
138	0x3c37ba50	0.011213854
139	0xbcffc4e8	-0.031221822
140	0x3c8cfbbc	0.01720988
141	0xbd013b0c	-0.031550452
142	0x3d68bdcc	0.05682163
143	0xbd0622f6	-0.032748185
144	0xbc237408	-0.0099763945
145	0x3d771d4a	0.060330667
146	0xbb930b30	-0.0044874176
147	0x3c5561c0	0.013023794
148	0x3d786c2a	0.06065003
149	0xbc96331c	-0.018334918
150	0x3d52d99a	0.051477052
151	0x3d0e0238	0.034670085
152	0x3d66e776	0.056373082
153	0xbd6496d0	-0.05580789
154	0xbbc8c570	-0.006127052
155	0xbd6a7e7c	-0.05724953
156	0xbd5c0d64	-0.053723708
157	0x3d77dcee	0.06051343
158	0xbd0bc1ac	-0.034120247
159	0x3d7cc756	0.06171354
160	0x3c266508	0.010155924
161	0xbc6ce0f0	-0.014457926
162	0xbd04cb4a	-0.032420434
163	0x3d068d7a	0.032849766
164	0xbc4988d8	-0.0123006925
165	0xbbb600c0	-0.0055542886
166	0xbb902fb0	-0.004400216
167	0xbd4090ec	-0.04701321
168	0xbd377e5a	-0.044798233
169	0xbd04ebe2	-0.032451518
170	0x3c9eb878	0.01937507
171	0x3d33756e	0.04381316
172	0x3cf23574	0.029566504
173	0x3d15005e	0.036377303
174	0x3c8f4fe0	0.017494142
175	0x3d468ec8	0.04847601
176	0x3c953240	0.018212438
177	0x3b378d00	0.0028007627
178	0x3d27b832	0.040947147
179	0x3d72cbe4	0.059276477
180	0x3d47696c	0.048684523
181	0x3d133fd8	0.035949558
182	0x3d731284	0.05934383
183	0xbd278e62	-0.04090727
184	0xbae18a40	-0.0017207339
185	0xbd2335d4	-0.039846256
186	0x3d0a101e	0.033706777
187	0xbbad86a0	-0.0052955896
188	0x3ccc1688	0.024913087
189	0xbd74cb92	-0.059764452
190	0x3d6f7432	0.05846042
191	0x3d556672	0.052099653
192	0x3cf6f428	0.03014572
193	0xbc5db378	-0.013531558
194	0x3c9f3a00	0.019436836
195	0x3a10b980	0.0005520806
196	0xbcf42298	-0.029801652
197	0x3cb47d28	0.022032335
198	0x3bcf9e10	0.006335981
199	0x3aba0040	0.0014190748
200	0x3d6829ae	0.056680374
201	0x3c5032c8	0.01270742
202	0xbd0aa5a2	-0.033849366
203	0xbc94448c	-0.018099092
204	0x3d0b3142	0.033982523
205	0x3d208780	0.039191723
206	0x3d4f3e7e	0.050596707
207	0xbd547e74	-0.051878408
208	0xbc319770	-0.010839328
209	0xbd0e5a62	-0.034754165
210	0x3c71c2f0	0.014755949
211	0xbd66f516	-0.056386076
212	0x3d76e15c	0.060273513
213	0x3d335862	0.04378546
214	0xbd25644a	-0.040378846
215	0xbc826144	-0.01591552
216	0xbd5030fc	-0.050827965
217	0x3d6081a0	0.05481112
218	0x3d4e0b56	0.05030378
219	0xbd1c8fc6	-0.03822305
220	0xbc3609f8	-0.011110775
221	0xbcc4ae18	-0.024008796
222	0xbd3e6756	-0.046485268
223	0x3d5d2c34	0.053997234
224	0xbb69f440	-0.0035698563
225	0x3d5b8388	0.053592235
226	0xba0b5780	-0.0005315468
227	0xbc043fa8	-0.008071817
228	0xbbf82770	-0.0075730607
229	0x3d2f036e	0.04272788
230	0xbca0b048	-0.019615307
231	0xbd794e6c	-0.060865805
232	0x3d174a16	0.03693589
233	0xbd2912f8	-0.041277856
234	0xbd2a825a	-0.04162822
235	0xbcb9e06c	-0.02269002
236	0x3d3f790e	0.046746306
237	0xbc0d11d8	-0.008610211
238	0x3cf69d54	0.030104317
239	0x3ccc0a04	0.02490712
240	0x3c86060c	0.016360305
241	0x3d292d72	0.041303106
242	0xbd076424	-0.033054486
243	0x3bc22e90	0.005925961
244	0xbc021e38	-0.007941775
245	0x39280000	0.00016021729
246	0x3cf77ab8	0.030209884
247	0x3c820b24	0.015874453
248	0x3cdfe86c	0.027332507
249	0xbbdb1d40	-0.0066868365
250	0xbd36028a	-0.044436015
251	0x3c57fb70	0.013182506
252	0x3c107f58	0.008819424
253	0x3d45b1a0	0.0482651
254	0xbd6bcc46	-0.057567857
255	0xbb8f5190	-0.0043737367

bias f4 [256]
0	0x3aa48280	0.0012551099
1	0xbd579606	-0.052633308
2	0xbc29c035	-0.010360767
3	0x3ce75a69	0.028241353
4	0x3d01e0ba	0.031708457
5	0x3d286e26	0.04112067
6	0xbd16b2be	-0.036791556
7	0xbd5733cc	-0.05253963
8	0x3c9e3c10	0.01931575
9	0xbd71a314	-0.058993414
10	0x3daa61a9	0.083194084
11	0x3d02755e	0.03185021
12	0xbc3eae18	-0.011638187
13	0x3d5bac8a	0.053631343
14	0x3dcebd1e	0.10094665
15	0x3dbe9029	0.0930484
16	0x3dbdb8c9	0.092637606
17	0xbd60c390	-0.054874003
18	0x3d902233	0.07037773
19	0xbc9fcd0f	-0.01950696
20	0xbd4f4f9e	-0.05061304
21	0xbd07da1c	-0.03316699
22	0xbd798ee8	-0.0609273
23	0xbb442ee6	-0.002993518
24	0xbd40e81c	-0.047096357
25	0x3d45f7c2	0.048331983
26	0x3cacee1b	0.021109631
27	0xbb9e4a40	-0.0048306286
28	0x3d0ce67e	0.034399502
29	0xbd3ca112	-0.046052046
30	0xbd5cac94	-0.05387552
31	0xbc821e2c	-0.015883528
32	0xbc8b7a18	-0.017025992
33	0xbd413d68	-0.047177702
34	0xbd1aa38e	-0.037753634
35	0x3d7c1001	0.0615387
36	0x3c0a5dc0	0.008445203
37	0x3a8df880	0.0010831505
38	0x3dec41f7	0.11536019
39	0xbd514504	-0.05109121
40	0x39048000	0.00012636185
41	0xbc39e400	-0.011345863
42	0x3db1fdeb	0.08691009
43	0xbd5ffe48	-0.05468586
44	0xbd4ad9a0	-0.04952395
45	0xbd028114	-0.03186138
46	0x3cb3bd4f	0.021940855
47	0xbd3c5941	-0.045983557
48	0xbbf7add0	-0.007558562
49	0x3d636f31	0.055525962
50	0x3d0ed6c9	0.034872804
51	0xbd3f7ba4	-0.046748772
52	0xbcda1d5c	-0.026625328
53	0x3bb050b0	0.0053807124
54	0xbc256218	-0.010094188
55	0xbc7fc600	-0.015611172
56	0x3debf3b5	0.11521093
57	0x3bd6d17e	0.006555735
58	0xbcc0241c	-0.023454718
59	0xbce8b638	-0.028407201
60	0x3d54a30c	0.051913306
61	0xbd7ab9f2	-0.061212488
62	0x3d9aca06	0.07558064
63	0xbd727576	-0.05919405
64	0x3da82ec5	0.082120456
65	0xbc99da08	-0.018780723
66	0x3c97daf4	0.018537022
67	0x3d09cab6	0.033640586
68	0x3d877c89	0.0661555
69	0xbd5d33ea	-0.054004587
70	0xbc3562a0	-0.011070877
71	0x3dbc27aa	0.09187253
72	0x3bee34f0	0.0072694942
73	0x3d7b26cf	0.061316308
74	0x3d6e4efb	0.05818079
75	0xbcc1e40c	-0.023668312
76	0x3db607f3	0.08888235
77	0x3dbed019	0.09317035
78	0xbd0d5fd2	-0.03451521
79	0x3ca3f611	0.020014795
80	0x3d3a5ab4	0.045496657
81	0x3dc49677	0.095990114
82	0xbd486720	-0.048926473
83	0xbc806260	-0.015671909
84	0xbd15a012	-0.036529608
85	0x3c754df8	0.0149722025
86	0x3cbb2a80	0.022847414
87	0xbd607e1c	-0.054807767
88	0x3d476e14	0.048688963
89	0x3d3f91bc	0.046769843
90	0x3d6cb178	0.057786435
91	0x3dd23e89	0.10265834
92	0xbc70f548	-0.014706917
93	0x3d33075e	0.043708198
94	0xbcc84f9c	-0.024452023
95	0x3c390598	0.011292838
96	0x3da65443	0.081215404
97	0x3bcac110	0.0061875656
98	0xbb9c2390	-0.0047649816
99	0xbd529b5c	-0.051417693
100	0x3dd7e58e	0.10541831
101	0x3d291c62	0.041286834
102	0x3d63911e	0.055558316
103	0xbc9644c4	-0.018343337
104	0x3bd83552	0.006598153
105	0x3cf6c4a4	0.030123062
106	0xbd0fd13a	-0.035111643
107	0xbd5f57aa	-0.054526962
108	0xbcff2b68	-0.031148627
109	0x3cbf5bf9	0.023359286
110	0x3d1acb06	0.037791274
111	0xbd4820fc	-0.04885958
112	0xbd287ef4	-0.041136697
113	0xbd7f2f18	-0.06230077
114	0x3d9d63dc	0.07685062
115	0x3cb0419b	0.021515658
116	0xbc4a6400	-0.012352943
117	0x3d1c8f83	0.0382228
118	0x3ca636dc	0.02028983
119	0xbd799ff4	-0.06094356
120	0x3cdaa1ec	0.026688538
121	0x3d9b7d5d	0.075922705
122	0xbd4a4efb	-0.049391728
123	0x3d20da58	0.03927073
124	0x3d0f74ec	0.035023615
125	0x3caa13d2	0.020761404
126	0x3d9b180d	0.07572947
127	0xbd210ab0	-0.039316833
128	0xbd1d57d6	-0.038413845
129	0xbcd8cc34	-0.02646456
130	0x3d14ee4a	0.036360063
131	0x3dca0468	0.09864122
132	0xbcdaadc0	-0.026694179
133	0xbd76595a	-0.060143806
134	0x3d533c15	0.05157097
135	0xbbf1db80	-0.007380903
136	0x3dc2dcf6	0.09514801
137	0xbca6f414	-0.020380057
138	0xbd622cb0	-0.0552184
139	0xbcdb1db8	-0.02674757
140	0x3b25a4c0	0.00252752
141	0xbaf625f3	-0.001877962
142	0x3d51acc8	0.051190168
143	0x3dce5d2c	0.10076365
144	0xbd5e03c2	-0.054202802
145	0xbd7ec06a	-0.06219522
146	0x3d632033	0.05545063
147	0x3db17b89	0.086661406
148	0x3daaec08	0.08345801
149	0xbd1bc31c	-0.038027868
150	0xbc8ec7d0	-0.017429262
151	0xbd3d76bc	-0.046255812
152	0xbd4e59aa	-0.05037848
153	0x3d519699	0.05116901
154	0xbd1df810	-0.03856665
155	0xbd05c5aa	-0.03265921
156	0xbcbf1dc0	-0.023329616
157	0xbc67b518	-0.014142297
158	0x3bce1552	0.0062891627
159	0xbc650663	-0.0139785735
160	0xbd3de950	-0.046365082
161	0xbd435da8	-0.04769674
162	0xbd42a161	-0.047517184
163	0x3d2a24b9	0.041538928
164	0x3d41db6c	0.047328398
165	0xbce87f74	-0.028381087
166	0xbd05d35c	-0.03267227
167	0xbc2dd183	-0.0106090335
168	0xbd76e264	-0.060274497
169	0x3dd0f687	0.10203271
170	0x3d4e81c8	0.050416738
171	0x3d3c3028	0.045944363
172	0x3c69b731	0.014264868
173	0xbd0482b2	-0.032351203
174	0xbce14bfc	-0.027502052
175	0x3b7df160	0.0038748607
176	0x3d6a3a52	0.057184525
177	0x3d9dbff9	0.077026315
178	0xbce6f5e7	-0.028193427
179	0xbd1cf302	-0.038317688
180	0x3dc92886	0.09822182
181	0x3c6aeb94	0.014338393
182	0xbd5651a6	-0.05232396
183	0xbd267a96	-0.04064425
184	0x3da8f62b	0.08250078
185	0x3d5cefdf	0.053939696
186	0xbd789604	-0.06068994
187	0x3cecf6eb	0.028926333
188	0xbd6b26f4	-0.057410195
189	0xbc8dd30c	-0.017312549
190	0xbb6c21ab	-0.003603081
191	0x3ba04c70	0.0048919246
192	0xbcadcf44	-0.021216996
193	0xbcef8d0c	-0.029242061
194	0x3d634a17	0.05549058
195	0x3db8ca82	0.09023
196	0xbca4cdf8	-0.020117745
197	0xbd5360cc	-0.051605985
198	0x3d283c47	0.04107311
199	0x3dcee66d	0.10102544
200	0x3d8ead0a	0.06966598
201	0xbd41afee	-0.04728692
202	0x3db50909	0.08839614
203	0x3d5bd8f6	0.053673707
204	0x3dcf93f4	0.10135642
205	0x3d1cb70d	0.03826051
206	0xbcde0d78	-0.027106032
207	0x3cc2b7d3	0.023769295
208	0x3d2010de	0.039078586
209	0xbd7cc860	-0.06171453
210	0x3da965cc	0.08271369
211	0x3d69abce	0.05704861
212	0xbcce5b18	-0.025189921
213	0x3dba7995	0.09105221
214	0x3da92014	0.082580715
215	0xbcf7fec8	-0.030272856
216	0x3befedfd	0.0073220716
217	0xbd546e2a	-0.051862873
218	0x3dce18e9	0.10063345
219	0xbd35d3d8	-0.044391483
220	0x3d0eafd0	0.034835637
221	0x3cafd7d8	0.021465227
222	0x3d09e816	0.0336686
223	0x3dbe52be	0.092931256
224	0x3ca61a8c	0.02027633
225	0xbcfb1b8c	-0.030652784
226	0xbcbe1988	-0.023205534
227	0xbd7c8030	-0.061645687
228	0xbc851dc8	-0.016249552
229	0xbc85d2b4	-0.016335823
230	0x3c9ef8aa	0.019405682
231	0x3dcdc005	0.100463904
232	0xbcd07d3c	-0.025450341
233	0x3c16fcd3	0.009215551
234	0x3bb7b597	0.005606364
235	0x3d886944	0.06660703
236	0x3d4b6a04	0.04966165
237	0xbc45eff8	-0.012081139
238	0x3d6bc1d1	0.057557885
239	0x3d72c9f5	0.059274632
240	0x3d9bd573	0.076090716
241	0x3a2a1c80	0.0006489232
242	0xbd7da696	-0.061926447
243	0x3dd239c6	0.10264926
244	0x3b3dffc0	0.002899155
245	0x3cb0e894	0.021595277
246	0x3db9bd93	0.090693615
247	0xbcb901a0	-0.022583783
248	0x3db71a3b	0.0894055
249	0x3d1fd023	0.039016854
250	0xbd7c4be4	-0.061595812
251	0x3dcc706b	0.099823795
252	0xbc19e060	-0.009391874
253	0x3d0d03b7	0.03442737
254	0xbd1d22e0	-0.038363338
255	0xbd581c74	-0.05276151

weight f4 [128, 256]
0	0x3a95c840	0.0011427477
1	0xbd2806fc	-0.041022286
2	0x3cada008	0.021194473
3	0x3cedac5b	0.02901285
4	0xbd4458e5	-0.04793634
5	0xbd014fac	-0.03157012
6	0xbb531ac0	-0.003221199
7	0x3d0f5046	0.034988664
8	0xbd3a79e0	-0.045526385
9	0xbd3251c8	-0.043535024
10	0xbd0c2d03	-0.034222614
11	0x3d62ee3e	0.055402987
12	0x3b09e980	0.0021043718
13	0xbd7173ec	-0.058948442
14	0x3caa4f38	0.020789728
15	0xbd26a989	-0.040689025
16	0xbd7128ff	-0.058876988
17	0x3d493e9f	0.049131986
18	0x3cad6919	0.021168279
19	0x3d0c7a43	0.034296285
20	0x3d6d97ca	0.058006085
21	0xbcf7f550	-0.030268341
22	0xbccbb86c	-0.024868213
23	0xbd2f6747	-0.042823102
24	0xbd2a6ce6	-0.04160776
25	0xbc8e7904	-0.01739169
26	0x3cfce1ec	0.030869447
27	0x3cba6614	0.022753753
28	0xbb8b2c04	-0.0042471904
29	0x3d107a36	0.0352728
30	0x3d3c573e	0.045981638
31	0x3d7b9b70	0.061427534
32	0xbd2449d9	-0.04010949
33	0xbcf5f058	-0.030021831
34	0xbd6309dc	-0.055429325
35	0xbbf5a621	-0.0074966107
36	0xbd3d2104	-0.046174064
37	0xbd664d2c	-0.05622594
38	0xbc4ae395	-0.012383361
39	0x3c5f7238	0.013638072
40	0xbcc1a6ec	-0.023639165
41	0xbd70f310	-0.058825552
42	0x3bf86549	0.0075804335
43	0xbb823ca0	-0.003974512
44	0x3b9b63f0	0.004742138
45	0x3d6b9e3a	0.057523943
46	0x3cb8c9f9	0.022557246
47	0x3d08afd2	0.0333708
48	0x3d2f3e7e	0.042784207
49	0xbd458a10	-0.04822737
50	0xbd22eac8	-0.039774686
51	0xbd20a4a0	-0.0392195
52	0x3cb74a14	0.02237419
53	0xbd4dd992	-0.05025632
54	0x3d672944	0.05643584
55	0xbd2293a0	-0.039691567
56	0xbd7f03d1	-0.0622595
57	0x3d28e224	0.04123129
58	0xbcd0ac90	-0.02547291
59	0x3d5ef3e4	0.05443181
60	0xbce55980	-0.027996778
61	0x3b585aa0	0.0033013
62	0x3c7b6349	0.015343496
63	0xbc480bf0	-0.012209877
64	0x3cccfe33	0.025023555
65	0x3d4db81c	0.05022441
66	0xbd34c8be	-0.044136755
67	0x3d78b77e	0.060721867
68	0x3b9d988e	0.0048094457
69	0x3d51eae6	0.051249407
70	0x3d2f300c	0.04277043
71	0xbb0a027a	-0.0021058605
72	0xbd7f752c	-0.062367603
73	0xbd612dae	-0.054975204
74	0x3b71a4eb	0.003687198
75	0x3ca90c44	0.020635732
76	0xbc103d62	-0.008803697
77	0x3d653f48	0.055968553
78	0xbd78b6f4	-0.060721353
79	0xbcdaf4d7	-0.026728077
80	0x3c900d0c	0.017584346
81	0x3c855c02	0.016279224
82	0xbc6adbe0	-0.014334649
83	0x3d10a16c	0.035310194
84	0x3d24a6d6	0.04019817
85	0xbd459462	-0.048237212
86	0x3d3eea96	0.046610437
87	0xbcc62d80	-0.024191618
88	0x3d25e197	0.040498342
89	0x3cb79fec	0.022415124
90	0x3c451b29	0.012030401
91	0x3d1f3c69	0.03887597
92	0xbd739e6a	-0.059477247
93	0x3d4173aa	0.047229446
94	0xbb050500	-0.002029717
95	0x3d73b652	0.059500046
96	0x3c8ba188	0.017044798
97	0x3c26bf80	0.010177493
98	0xbd56c168	-0.05243054
99	0xbc86a800	-0.01643753
100	0xbc86947e	-0.016428228
101	0x3d44e0ac	0.048065826
102	0x38621000	5.38975e-05
103	0xbd588fd0	-0.052871525
104	0x3d246d15	0.04014309
105	0x3d71b7b2	0.059013076
106	0x3d190172	0.037354894
107	0xbb751160	-0.003739439
108	0x3d38cce2	0.045117266
109	0x3c98a645	0.018633971
110	0x3d5d94e6	0.05409708
111	0xbd7edf24	-0.062224522
112	0x3bcf5890	0.006327696
113	0xbcaebca8	-0.021330193
114	0x3cfb62af	0.030686704
115	0xbd2c1dee	-0.04202073
116	0xbd157a90	-0.036493838
117	0xbd379688	-0.044821292
118	0xbc323bd8	-0.010878526
119	0x3c9d9bdc	0.019239359
120	0xbd106659	-0.035253856
121	0x3d08dfbb	0.03341649
122	0x3d22d787	0.039756324
123	0x3d6178c8	0.055046827
124	0x3d2bdc1c	0.04195796
125	0xbd112a99	-0.035441015
126	0xbd7afe6d	-0.061277796
127	0x3d1b0150	0.03784305
128	0xbd3e6986	-0.046487354
129	0xbd235d03	-0.039883625
130	0xbc6ebf10	-0.01457192
131	0x3ccf33c3	0.025293237
132	0xbc822d10	-0.015890628
133	0x3bea23e0	0.00714539
134	0x3cae5906	0.021282684
135	0x3d6bb5c4	0.057546392
136	0x3c0255a9	0.007954993
137	0xbd1cad4e	-0.038251214
138	0x3d34dece	0.044157796
139	0x3d51601a	0.05111704
140	0xbd7ef188	-0.06224206
141	0x3ca3e3a9	0.020006018
142	0x3d44b847	0.048027303
143	0xbcadc651	-0.021212729
144	0xbce7eb8c	-0.02831056
145	0x3d5d2f52	0.054000206
146	0x3d54d6d2	0.05196268
147	0xbd158fce	-0.036514096
148	0x3d2ff96d	0.04296248
149	0xbd739938	-0.059472293
150	0x3c0e7a58	0.008696161
151	0x3c897cac	0.016783081
152	0xbca1b038	-0.019737348
153	0x3c328c01	0.010897637
154	0x3d0c12d6	0.03419765
155	0x3bb9ae80	0.005666554
156	0xbc1d8690	-0.009614602
157	0x3ce23d70	0.027617186
158	0x3d48406c	0.048889562
159	0xbcdeb16b	-0.027184209
160	0x3d29df9a	0.04147301
161	0xbd7072f0	-0.058703363
162	0x3c5d75ac	0.013516825
163	0xbc5dc770	-0.013536319
164	0x3ce76eca	0.02825107
165	0xbceccdc4	-0.02890671
166	0xbce8bef0	-0.028411359
167	0xbd2aae95	-0.0416704
168	0xbc46dff8	-0.012138359
169	0xbd2db7a3	-0.042411458
170	0x3ccafe66	0.02477951
171	0x3c0d3030	0.008617446
172	0x3cbd71b4	0.023125507
173	0x3be2ad10	0.0069176033
174	0x3c45dc90	0.012076512
175	0xbc4a7d80	-0.012359023
176	0x3cd11a61	0.025525274
177	0x3c93584e	0.017986443
178	0xbca2e4d8	-0.019884512
179	0xbd224210	-0.039613783
180	0xbd22b172	-0.039720006
181	0x3d04525d	0.03230511
182	0x3c24ee60	0.010066599
183	0x3d1c9e04	0.038236633
184	0xbd595de3	-0.053068053
185	0xbd433208	-0.047655135
186	0xbd665202	-0.056230552
187	0xbca83237	-0.020531757
188	0x3d52c2c4	0.051455274
189	0xbd5e4acc	-0.05427055
190	0xbc4c26f6	-0.012460461
191	0x3d28ad94	0.041181162
192	0xbc9194a0	-0.017771065
193	0xbd358bd0	-0.04432279
194	0x3d5ab18d	0.053391982
195	0xbd84b4d1	-0.064798005
196	0x3d4aa218	0.04947099
197	0xbc189518	-0.0093128905
198	0x3bfd8983	0.00773734
199	0xbcee3d69	-0.029082017
200	0xbcf6f204	-0.030144699
201	0xbd09902c	-0.03358476
202	0x3c4782e3	0.012177202
203	0x3d191c71	0.03738064
204	0xbce633ca	-0.028100867
205	0xbc93abcc	-0.018026255
206	0xbcd692c8	-0.026193038
207	0xbd05bb0d	-0.03264909
208	0xba5ab2e2	-0.00083426957
209	0x3d3b7228	0.045763165
210	0xbd6d6949	-0.057961736
211	0xbc8b34b1	-0.016992899
212	0x3ceeb058	0.029136822
213	0x3d005d81	0.031339172
214	0xbd820120	-0.06347871
215	0x3d516516	0.051121794
216	0x3c9a5c26	0.018842768
217	0x3bab9a20	0.005236879
218	0x3ce80147	0.028320922
219	0x3ccd2bf4	0.025045373
220	0xbd6734cc	-0.056446835
221	0x3cc812c4	0.02442301
222	0xbd45b88c	-0.0482717
223	0xbd8916b2	-0.06693782
224	0xba89a000	-0.0010499954
225	0xbc5be318	-0.013420843
226	0x3d7706a2	0.06030906
227	0xbd3a6dde	-0.045514934
228	0x3d142e7e	0.03617715
229	0xbd56cea6	-0.05244317
230	0xba7f3d2b	-0.0009736593
231	0x3d2065b4	0.03915949
232	0xbbe595b0	-0.0070063695
233	0xbd87bfa0	-0.066283464
234	0x3c50162b	0.012700598
235	0xbd825c84	-0.06365302
236	0xbd577fb5	-0.052612025
237	0x3d0e9f94	0.034820154
238	0xbd3249f3	-0.043527555
239	0xbcebf829	-0.028804855
240	0xbcf7361b	-0.030177167
241	0x3d022022	0.031768925
242	0x3bbcb920	0.0057593733
243	0x3d2f32a8	0.04277292
244	0x3c91fa54	0.017819561
245	0x3d1690fe	0.03675937
246	0xbc3476dc	-0.011014666
247	0xbd304ca0	-0.043041825
248	0xbd0e600c	-0.034759566
249	0x3d2bd3dd	0.041950095
250	0x3d11bf8c	0.035583064
251	0xbb436fb4	-0.002982122
252	0xbd05a866	-0.0326313
253	0x3ca394dc	0.019968443
254	0xbcf2b070	-0.029625148
255	0x3b7190e0	0.0036860034

bias f4 [128]
0	0x3d4ee5cc	0.05051212
1	0x3bb38102	0.0054780254
2	0xbd5f8c3a	-0.05457709
3	0x3d583e7c	0.052793965
4	0x3b2fd8ab	0.0026832025
5	0xbca33e2e	-0.01992711
6	0x3d04efba	0.032455184
7	0x3cee1333	0.02906189
8	0x3dcd8315	0.100347675
9	0x3d3ed0e5	0.046585936
10	0x3cedef26	0.029044699
11	0x3ae5eb00	0.0017541349
12	0xbd5874bc	-0.0528457
13	0xbd4cf4ca	-0.050038137
14	0x3bc0a5a1	0.0058791195
15	0x3dba894c	0.091082186
16	0xbc8bd5d7	-0.01706974
17	0x3ad42dbd	0.0016187947
18	0x3d339347	0.043841626
19	0xbd60b9dc	-0.05486475
20	0xbcbb5ebc	-0.022872321
21	0x3db274af	0.08713662
22	0xbd6e2626	-0.05814185
23	0x3d51b10b	0.051194232
24	0x3ddd49fd	0.10805128
25	0x3d91f502	0.0712681
26	0xbd6e44c2	-0.05817104
27	0x3cbb8ab4	0.022893287
28	0x3cbe9e25	0.023268769
29	0xbd2272a4	-0.03966011
30	0x3d9ea146	0.07745604
31	0x3c2ee9d8	0.01067587
32	0x3c1497a0	0.009069353
33	0x3d7388ca	0.059456624
34	0x3d4642a1	0.048403386
35	0x3d0ae4f2	0.033909746
36	0xbd583324	-0.052783147
37	0xbd7da396	-0.061923586
38	0xbd335ea6	-0.043791436
39	0xbd3024f2	-0.043003984
40	0x3d4b8725	0.04968943
41	0x3c932b60	0.017965019
42	0x3c1d3120	0.009594232
43	0xbc9efa6c	-0.01940652
44	0x3d0978fc	0.033562645
45	0xbceb9438	-0.0287572
46	0xbca826fc	-0.020526402
47	0x3cede4d8	0.029039785
48	0xbc92f330	-0.017938226
49	0x394bee00	0.0001944825
50	0xbcb9e868	-0.022693828
51	0x3db8e80c	0.090286344
52	0x3dc68a14	0.09694305
53	0x3d639248	0.055559427
54	0xbd739ff0	-0.0594787
55	0x3dc555e0	0.0963552
56	0x3d764a18	0.060129255
57	0x3c2bfe30	0.010497615
58	0x3ddc060d	0.107433416
59	0x3cb19cb8	0.021681175
60	0xbc5d5360	-0.013508648
61	0x3d92693a	0.071489766
62	0x3d8b5298	0.06802863
63	0xbc8fe464	-0.01756496
64	0x3a4948b7	0.0007678377
65	0x3dc322d9	0.09528131
66	0xbcea452c	-0.028597437
67	0x3ac48800	0.0014994144
68	0x3dc5e3d3	0.09662595
69	0x3b5dd63f	0.0033849624
70	0x3dd69411	0.1047746
71	0xbd3cfe50	-0.04614097
72	0x3d00b3a4	0.03142132
73	0x3d5eba7e	0.05437707
74	0x3c71c97e	0.014757512
75	0x3cae1598	0.021250531
76	0x3c596c50	0.013270453
77	0x3d05963a	0.03261397
78	0x3d67dfeb	0.05661003
79	0x3cb52ec1	0.02211702
80	0x3d102236	0.035188876
81	0xbcc605dc	-0.024172716
82	0xbd20cc62	-0.039257415
83	0xbd4d7f5b	-0.050170284
84	0xbd0bf76a	-0.0341715
85	0x3bcd4ab6	0.0062650098
86	0x3cc5e539	0.024157153
87	0xbc98f3c3	-0.018670922
88	0xbd0ffdf2	-0.03515429
89	0x3bb15760	0.0054120272
90	0xbb2fb71b	-0.002681202
91	0xbd65dac2	-0.056116827
92	0xbd866c49	-0.065636225
93	0x3bc0b770	0.0058812425
94	0x3dae21b9	0.08502526
95	0xbd83d320	-0.06436753
96	0xbd13cdee	-0.03608506
97	0x3d50089f	0.05078947
98	0x3d9b6cbc	0.07589099
99	0xbd1e8460	-0.03870046
100	0x3de929fa	0.113849595
101	0x3d6cdb74	0.057826474
102	0xbd30f174	-0.043199018
103	0x3d4bcdc9	0.0497568
104	0x3d3e2199	0.04641876
105	0x3d60b2bb	0.05485795
106	0x3db997e3	0.09062173
107	0x3d2d564f	0.04231864
108	0x3d503851	0.050834958
109	0x3df216bc	0.118207425
110	0x3df5d804	0.12004092
111	0x3d733fcf	0.059387024
112	0x3d0be755	0.034156162
113	0xbd42c570	-0.047551572
114	0xbd60fb70	-0.05492729
115	0x3d267007	0.04063418
116	0x3b1a21f7	0.002351878
117	0x3cfcfafc	0.030881397
118	0x3dbd6669	0.09248049
119	0xbcf06921	-0.029347004
120	0xbce96724	-0.028491564
121	0xbd0e6a4d	-0.034769345
122	0x3d925a85	0.071461715
123	0x3dce577f	0.10075282
124	0xbcd5e838	-0.026111707
125	0x3d05c251	0.032656018
126	0x3c84b5df	0.016200004
127	0x3d43846a	0.0477337

weight f4 [5, 128]
0	0x3c80b6d6	0.015712183
1	0x3d05cc54	0.032665566
2	0xbda76c37	-0.08174937
3	0xbd57c43d	-0.05267738
4	0xbc8627f4	-0.016376473
5	0x3e05a161	0.13049842
6	0xbd6d0197	-0.057862844
7	0x3c4c1344	0.012455765
8	0x3e4e42f6	0.20142731
9	0x3e288831	0.16458203
10	0xbd4adadc	-0.049525127
11	0xbd8d0e27	-0.06887465
12	0x3c1debf2	0.009638773
13	0x3d4907a4	0.049079552
14	0x3e3e9506	0.18611535
15	0x3e6175f1	0.22017647
16	0xbd1f1fba	-0.038848616
17	0x3e480869	0.19534458
18	0xbd3ee691	-0.046606604
19	0xbbc903da	-0.0061344923
20	0xbc08e595	-0.008355518
21	0x3e04d7af	0.12972902
22	0x3d2bfd0b	0.041989367
23	0x3c2f777e	0.0107096415
24	0x3e2152da	0.15754262
25	0x3e1a2a25	0.1505514
26	0xbd8f61e7	-0.07001095
27	0x3d0ca88a	0.03434042
28	0xbb10e953	-0.0022111728
29	0xba81d752	-0.0009906089
30	0x3dc97742	0.098372
31	0x3bf4ae86	0.007467094
32	0xbd3125a1	-0.043248776
33	0x3e08d68d	0.13363095
34	0x3dc06e4a	0.09396036
35	0x3df08903	0.11744883
36	0xbd98c5bc	-0.0745959
37	0xbd66a4d2	-0.05630953
38	0x3cf0af40	0.02938044
39	0x3d35d1d3	0.044389557
40	0x3e17509b	0.14776842
41	0x3e56ce09	0.20977034
42	0x3d3e2cd8	0.046429485
43	0x3d19f9d5	0.037591774
44	0xbd895193	-0.06705012
45	0xbd7ee21a	-0.062227346
46	0xbd9d1b4d	-0.07671223
47	0x3e59c8ab	0.21267955
48	0x3d9c988a	0.07646282
49	0x3cf00471	0.029298993
50	0xbda25b2c	-0.07927546
51	0x3e50c1bf	0.20386408
52	0x3df13a77	0.117787294
53	0x3e4db2f1	0.20087792
54	0xbb3f0f48	-0.0029153395
55	0x3e235917	0.15951954
56	0x3e49d177	0.19708811
57	0x3d0eb80b	0.034843486
58	0x3e6a9410	0.22908044
59	0x3c4a393a	0.012342745
60	0x3d299050	0.041397393
61	0x3e5b4277	0.21412073
62	0x3dc5f6f0	0.0966624
63	0xbcc91116	-0.02454428
64	0xbd8dbd8d	-0.069209196
65	0x3e710464	0.23536831
66	0xbc365cc8	-0.011130519
67	0x3cae6fa0	0.021293461
68	0x3e4056f1	0.18783166
69	0xbd5cc643	-0.053900015
70	0x3e375169	0.1790215
71	0xbd325914	-0.043541983
72	0xbd14fe54	-0.03637536
73	0xbd0e988a	-0.03481344
74	0xbca5557d	-0.020182366
75	0x3d346f74	0.044051602
76	0x3cd8ea60	0.026478946
77	0x3e4a1e4f	0.19738124
78	0x3d070053	0.032959294
79	0x3d0e033b	0.03467105
80	0x3cf74870	0.030185908
81	0x3d8bdac4	0.068288356
82	0xbd544ddf	-0.051832076
83	0xbd990037	-0.07470744
84	0x3d94a33e	0.072576985
85	0x3dfd4e99	0.12368507
86	0x3dc85c1d	0.09783194
87	0xbda5d8f9	-0.08098025
88	0xbc5d5aec	-0.013510447
89	0xbd8cddb4	-0.06878224
90	0x3e49e298	0.19715345
91	0xbd71fab5	-0.059076983
92	0xbc44a1df	-0.012001484
93	0x3d4610ea	0.048355974
94	0x3e08e711	0.13369395
95	0xbd86cc0e	-0.06581889
96	0x3d55840f	0.052127894
97	0xbd86cbb9	-0.06581826
98	0x3e20b240	0.15692997
99	0x3d0e3658	0.034719795
100	0x3e6949bd	0.22782035
101	0xbc7b4e83	-0.015338543
102	0xbd5b2a72	-0.053507276
103	0xbd43b516	-0.04778012
104	0x3e546620	0.20742083
105	0xbd7fb4db	-0.062428337
106	0x3e5ee731	0.2176788
107	0xbd2712f7	-0.04078957
108	0x3e5e16ef	0.21688436
109	0x3e2c93da	0.16853276
110	0x3e2a113b	0.16608135
111	0x3e3cf2e3	0.18452029
112	0xbd845c79	-0.0646295
113	0x3d8471b0	0.06466997
114	0x3d202358	0.039096206
115	0x3b77b512	0.0037797135
116	0x3cd103d4	0.02551452
117	0x3d6ecbe9	0.058299933
118	0x3e25c22d	0.16187353
119	0x3da97a8e	0.082753286
120	0x3d1de973	0.038552713
121	0xbd152bc0	-0.036418676
122	0x3e2ec485	0.17067154
123	0x3e43e4f0	0.19130301
124	0xbd5e89d9	-0.05433068
125	0x3c12f313	0.008969086
126	0xbce485ca	-0.027895827
127	0xbda01d72	-0.07818116
128	0xbcbef041	-0.023307921
129	0xbd9803e4	-0.07422617
130	0xbd535f26	-0.051604412
131	0xbd9ab5f9	-0.0755424
132	0xbcc08e18	-0.023505256
133	0x3dee2539	0.116281934
134	0xbd0b911f	-0.034073945
135	0x3d53bc1e	0.051693074
136	0x3e514f64	0.20440441
137	0x3dab8f5c	0.08376953
138	0x3cb7bc2c	0.022428595
139	0xbda3c48b	-0.07996472
140	0x3d8b8aff	0.06813621
141	0x3da74f9f	0.081694834
142	0x3e72ffac	0.23730344
143	0x3e13d43b	0.14436428
144	0x3d19f4db	0.037587028
145	0x3e482e2d	0.19548865
146	0x3d8b5cb3	0.0680479
147	0x3d1d8818	0.038459867
148	0x3cb07af4	0.021543004
149	0x3e3f31c4	0.18671328
150	0x3d73d2f5	0.059527356
151	0x3d961445	0.07328085
152	0x3e317227	0.17328702
153	0x3e6c857b	0.23097794
154	0xbd762fc7	-0.060104158
155	0x3d807d01	0.062738426
156	0x3d0edfa6	0.034881257
157	0xbd727410	-0.059192717
158	0x3e53ffc2	0.20703033
159	0x3bef4070	0.0073013827
160	0x3c7dfdf5	0.015502443
161	0x3e1e37ff	0.15451048
162	0xbd72d784	-0.059287563
163	0x3e5362ab	0.20643108
164	0x3d6bdfb4	0.057586387
165	0x3cb2dd24	0.021833964
166	0x3d4fa7a5	0.050696988
167	0xbd6a855a	-0.05725608
168	0x3e5f2617	0.21791874
169	0x3e6db264	0.23212582
170	0x39611d34	0.00021468551
171	0xba48e057	-0.0007662824
172	0x3d21c887	0.03949788
173	0x3d828830	0.06373632
174	0xbd2c55c3	-0.042073976
175	0x3e2c6d9c	0.16838688
176	0xbda0a34f	-0.07843649
177	0xbd986a1a	-0.07442112
178	0xbc08cb52	-0.008349257
179	0x3e309d8a	0.17247596
180	0x3e01f0c1	0.12689497
181	0x3e6d2f21	0.2316251
182	0xbc9a873e	-0.018863317
183	0x3e258a63	0.16166072
184	0x3e18b194	0.1491149
185	0x3da808a7	0.08204775
186	0x3db06112	0.08612265
187	0xbd3108ef	-0.04322141
188	0x3d7bb1a0	0.061448693
189	0x3e16a918	0.14712942
190	0x3e2f1928	0.1709944
191	0x3d8ea4ce	0.06965028
192	0x3d875b4d	0.06609211
193	0x3e6a79cb	0.22898023
194	0xbcda66d8	-0.026660368
195	0xbd2158c2	-0.039391287
196	0x3e745629	0.23860992
197	0x3cda4bb9	0.026647436
198	0x3e3b992c	0.18320149
199	0xbd642e2d	-0.0557081
200	0xbc6f278c	-0.014596831
201	0xbd8617d3	-0.06547513
202	0x3cf02ab2	0.029317234
203	0xbd3bc78f	-0.04584461
204	0xbd0c7765	-0.03429355
205	0x3dc293b1	0.09500826
206	0xbc2e6d16	-0.010646125
207	0x3d6fd5fc	0.05855368
208	0x3ce618b6	0.028087955
209	0x3d97c9fe	0.07411574
210	0x3d4e78e8	0.050408274
211	0x3bf43db2	0.0074536437
212	0x3caa7b45	0.020810733
213	0x3e035f2b	0.12829272
214	0x3e0e6765	0.1390663
215	0xbca1fbb1	-0.019773336
216	0x3d99856d	0.07496152
217	0x3c9fe3e4	0.019517846
218	0x3e5fc693	0.21853094
219	0x3d0a436f	0.033755716
220	0x3c32c979	0.010912293
221	0xbd884993	-0.06654658
222	0x3e482ff0	0.19549537
223	0x3d98e8f8	0.0746631
224	0xbda810aa	-0.082063034
225	0x3d1e1d56	0.038602196
226	0x3e2da28d	0.1695654
227	0xbd8f18a8	-0.06987125
228	0x3e0d24dd	0.13783593
229	0xbd0ece06	-0.034864448
230	0xbd88c504	-0.06678203
231	0xbdabd1a2	-0.08389594
232	0x3e19d7af	0.15023683
233	0xbbfe6266	-0.007763195
234	0x3e03fa2c	0.12888402
235	0x3d9f35d4	0.07773939
236	0x3e2ce33e	0.16883561
237	0x3e2ab808	0.16671765
238	0x3e10a66d	0.14125986
239	0x3e64745a	0.2231001
240	0xbbc04b13	-0.0058683245
241	0x3d2be097	0.041962232
242	0xbd9d405b	-0.076782905
243	0xbc964481	-0.018343212
244	0xbda4d1f8	-0.08047861
245	0xbd9a5852	-0.07536377
246	0x3e312977	0.17300974
247	0x3e41f04e	0.18939325
248	0xbc1d5659	-0.009603106
249	0x3d24f227	0.040269997
250	0x3e2c5f8f	0.16833328
251	0x3e45d9e9	0.19321407
252	0xbc4daa16	-0.012552759
253	0x3d958b22	0.07301928
254	0xbd10a158	-0.03531012
255	0x3d3b2040	0.045685053

bias f4 [5]
0	0x3d15aea6	0.03654351
1	0x3c02d455	0.007985194
2	0x3ddaeabf	0.106893055
3	0x3dae5f3c	0.08514258
4	0x3da6df17	0.0814802
