dqn_models/dqn_model_ver9.pth (torch, 401172 bytes, 6 tensors)

weight f4 [256, 256]
000000 6e e6 91 3d ab bf 1d be 57 c8 7e 3d 2b 29 77 3d
       0.07124029 -0.15405147 0.062202778 0.060341995
000010 08 79 ba 3d 12 1e 11 bf e4 cf 5a be 5a a5 de bd
       0.09105116 -0.5668651 -0.21368366 -0.10871382
000020 61 47 0d be b5 5d 38 3e ef 1f a7 3d 4d 47 d5 bd
       -0.1379676 0.18004496 0.08160388 -0.1041399
000030 10 af 0b 3f 26 4d 94 bd 9c 2f 92 3e ef ba 5a be
       0.54564 -0.072412774 0.28551948 -0.21360372
000040 98 e0 3b be e2 54 2f be 7d ed 8c bf 9b c1 91 bd
       -0.18347394 -0.17122224 -1.1009976 -0.071170054
000050 d7 c7 08 be b3 15 da be 92 3d c5 be 6d 2b 6c 3e
       -0.13357483 -0.4259468 -0.38523537 0.2306344
000060 ef 8b f0 3e 62 1b 5e be d1 fe 13 3f 0e f8 84 3b
       0.4698176 -0.21690133 0.57810694 0.0040578907
000070 5e f6 06 bf 1a 35 04 bf a4 1b 04 be 5f 68 13 bd
       -0.52719676 -0.51643527 -0.12901169 -0.035988208
000080 6b 87 b9 3c 71 b1 e4 bc 37 c4 bb be 1e 3b 4d bf
       0.02264758 -0.027916642 -0.36673138 -0.8016833
000090 04 84 8c 3e 2c 74 50 bf 0e 65 5a bd 31 4a 01 3d
       0.2744447 -0.81427264 -0.05331903 0.031564895
0000a0 1e 9e 38 3e fb 05 ba 3d a6 38 a0 be df 89 9f bd
       0.18029067 0.09083172 -0.3129322 -0.07789969
0000b0 d9 0a e5 3e 20 fb a8 bd df 88 d6 3e b6 a7 7c be
       0.4473484 -0.08251023 0.419013 -0.24673352
0000c0 4d b1 31 3e 37 44 99 3d 4a 98 68 be ab f9 24 3e
       0.17352791 0.07483714 -0.22714344 0.16110866
0000d0 b4 67 59 3e 29 b5 6b 3e 32 ab 00 be 73 17 58 be
       0.21230966 0.23018326 -0.12565306 -0.21102695
0000e0 4f 84 e1 3d ff 80 5d 3e f6 f8 03 3e 34 3b 90 bd
       0.11011564 0.2163124 0.1288794 -0.07042542
0000f0 ad 37 c5 bd d1 ce 93 be f5 9f 8b 3f 0d eb 1d bd
       -0.0962976 -0.28868726 1.090819 -0.03855424
000100 a2 43 08 3e 8e cc b5 3e 3b 6c f1 be d0 1a 75 bb
       0.1330705 0.35507625 -0.47152886 -0.0037400015
000110 8f a6 e4 bd 24 a2 b5 be 1c 0e d0 3e ef ac 2f be
       -0.11164581 -0.35475266 0.40635765 -0.17155813
000120 0d ef f9 bd d3 21 43 3e bf fb 0d 3f 61 ff e3 3d
       -0.122037984 0.19055872 0.5546226 0.11132694
000130 f9 20 1a bd 37 c5 87 3e 9a a9 16 3e 47 cb 2d be
       -0.0376291 0.2651765 0.14713135 -0.16972075
000140 08 ab 00 be 1b 35 18 bc c4 79 0a 3d 73 4d 61 bf
       -0.12565243 -0.009290005 0.03380753 -0.88008803
000150 0c e8 67 3f f0 89 e3 3e 24 c5 09 3f 54 2b 2c be
       0.9058845 0.44441175 0.5381644 -0.16813403
000160 48 c0 cb 3e e4 2f 81 bf 90 c4 32 bb db 3e db 3c
       0.39795136 -1.009274 -0.0027277805 0.02676337
000170 34 ed cd 3d 05 a7 3c be 5b dd 83 3e b5 93 6b be
       0.100550085 -0.18423088 0.25754818 -0.23005565
000180 13 03 74 bd b2 1b b6 3e f8 2c 89 3e 34 33 1b 3e
       -0.059573244 0.35568005 0.2679212 0.15156251
000190 8a b1 28 be 7c 41 5b 3d 63 fd 8d 3e 8e c2 2f 3e
       -0.16473976 0.053529248 0.2773238 0.1716406
0001a0 89 ff 62 3e f3 dc b1 be 57 27 21 3e e0 cf 4e 3d
       0.22167791 -0.34738883 0.15737663 0.050491214
0001b0 05 99 85 bc aa d7 b6 3e 42 1f 75 be 1f 46 53 3e
       -0.016308317 0.35711414 -0.23937705 0.20632218
0001c0 37 7c 87 be 6e 98 03 bf ad 35 c6 ba 48 02 49 be
       -0.26461956 -0.51404464 -0.0015122198 -0.19629776
0001d0 47 de 9d 3e 10 70 6e 3d 94 7c a6 3d f1 4c e0 be
       0.30833647 0.05821234 0.0812923 -0.43808702
0001e0 39 64 67 be 9f b2 22 3e af 51 41 bd bd 86 cd bc
       -0.22596826 0.15888451 -0.04719704 -0.025088662
0001f0 2e 60 28 3d 51 f6 19 bd 26 aa 0b 3f 9f e5 20 3e
       0.04110735 -0.03758842 0.545565 0.15712593
000200 10 d8 47 3e f7 9e a4 bd b6 4c 56 bb 75 8f 65 bd
       0.19516015 -0.08038133 -0.0032699532 -0.056045014
000210 90 97 83 bd 0f aa 2b 3f f6 40 f8 3d 6b 32 a0 be
       -0.06425393 0.67056364 0.12121765 -0.31288466
000220 ff 3c 0b 3d cc d4 ee 3d 3f 11 08 3b 00 c8 01 bf
       0.033993717 0.116616815 0.0020762233 -0.506958
000230 8a 6f f1 3e 10 8c 8c bd 49 6e ba be bb 16 d2 3c
       0.4715541 -0.06862652 -0.36412266 0.025645604
000240 87 db c0 bd 10 d8 4a be 56 85 e1 bd 51 55 2b bd
       -0.094168715 -0.19808984 -0.1101176 -0.04182941
000250 4b ae 32 be 4e fe e5 3d 80 f9 91 3c 98 24 1e be
       -0.174493 0.112301454 0.017819166 -0.15443647
000260 24 25 a2 3d cd ef 8a 3e f3 db 8d 3c 3d 55 ec 3e
       0.0791724 0.27136078 0.017316794 0.46158782
000270 02 03 ea bd ec ed 5d 3b 82 e7 e5 3d 14 3e 42 be
       -0.11426355 0.0033863736 0.11225797 -0.18968993
000280 7d d8 35 bd b0 87 75 3e 3b 24 d7 be ec 68 b7 3d
       -0.044395912 0.23977542 -0.4201983 0.08955559
000290 f7 35 23 bd 2c 04 d4 be e2 4f 64 bb 12 3b 24 bf
       -0.039846387 -0.41409433 -0.0034837653 -0.64152634
0002a0 48 26 d2 bc e1 ee 95 bd 8c 97 1b 3e 6f ba 1a be
       -0.02565302 -0.07320953 0.1519453 -0.15110181
0002b0 eb 47 55 3e 20 9e 4d be d4 a6 9d 3d 50 c3 91 be
       0.20828216 -0.20079851 0.076978356 -0.28469324
0002c0 f7 c9 bb be 2f 4d e5 bc 96 04 ca bc 2b 9e fd 3d
       -0.36677524 -0.027990906 -0.02466039 0.12383684
0002d0 27 7e 38 bd 6b 4d 63 3d 42 6b f7 be 93 9e 2a bd
       -0.045042183 0.055493753 -0.4832402 -0.041655134
0002e0 9d 44 0d 3f 23 9f d8 3e bf c6 5a bc 66 3e 34 3e
       0.5518282 0.42308912 -0.013353049 0.17601928
0002f0 b8 e2 09 3f b2 cf 39 be bb 23 b1 3c c8 d7 49 3d
       0.5386157 -0.18145636 0.021623483 0.04927805
000300 92 9c cb 3e 5e c1 4e bd b6 cd e6 bc a4 0e 89 be
       0.3976789 -0.050477378 -0.028174262 -0.26768982
000310 23 70 82 be 76 4e 89 3d 9d 69 55 3e 3b bd af 3e
       -0.2547618 0.06704418 0.2084107 0.3432406
000320 40 29 18 bf bc bf 8b 3e 6d 10 4b 3e 44 d3 4e 3e
       -0.5943794 0.2729472 0.19830485 0.20197779
000330 d6 f2 27 bf 8a 2c 16 be 33 49 8a bd 3e 18 9a be
       -0.65604913 -0.14665428 -0.06752243 -0.3009662
000340 99 93 9a bb 9e dd d0 be be df 62 3d e0 00 83 bc
       -0.004717302 -0.4079408 0.05538916 -0.015991628
000350 d4 40 15 be 7e 7d ff 3c c3 2d 5d be 1f 3c 39 3e
       -0.14575511 0.031187769 -0.21599488 0.1808934
000360 02 6a 54 3e 2d 32 05 bf 72 1d bc 38 d0 08 ed 3e
       0.20743564 -0.5202969 8.970023e-05 0.46295786
000370 2d 23 73 3e 22 78 0c bf 14 0c 70 3e b3 2a 3e bd
       0.23743887 -0.5487081 0.23442107 -0.04642744
000380 e1 60 1a bb 15 e4 3d be 7a dd 1e be 26 67 c0 3c
       -0.002355628 -0.18544038 -0.15514174 0.023486685
000390 a6 a3 b6 bd 84 ec e3 3d 1d 87 12 3d f0 f5 6b 3e
       -0.08917932 0.11129096 0.035773385 0.23043036
0003a0 4b 3d 08 bf ae 78 7b bd d9 dd 35 3e 09 ad d4 bc
       -0.53218526 -0.061394386 0.1776041 -0.025961416
0003b0 0e 67 4d bd 6d ca 53 3d e2 a1 f0 be 11 af a0 be
       -0.05014711 0.05170672 -0.46998507 -0.31383565
0003c0 ac 8b bc 3d 3b 4a 47 3d 9f a9 3f 3e 20 56 2a be
       0.09206328 0.048654776 0.18717049 -0.16634417
0003d0 7e 8f 8a bd d7 7d 1e 3d 03 7b 83 3d 66 5c 15 3d
       -0.0676565 0.03869423 0.06419947 0.03646507
0003e0 89 a8 26 be 6c 13 1c 3e 95 3a 59 be e1 9c 10 3e
       -0.16275229 0.15241784 -0.21213754 0.14122345
0003f0 f3 4b d7 bd c7 77 81 bd 1b 88 59 be 0a 94 e6 bd
       -0.10512533 -0.06321674 -0.21243326 -0.11258705

bias f4 [256]
000000 8e 46 cd 3c fc 10 2a bd e0 a3 40 bd d0 40 3c bc
       0.025058057 -0.041520104 -0.047031283 -0.011490062
000010 0a 4a 8f 3e 5f d3 20 bc 73 19 ea 3c a3 8a 2e 3d
       0.27986175 -0.00981602 0.028576588 0.042612683
000020 30 c2 cf bc 60 43 3b bc fe d1 2e 3d 40 71 82 3c
       -0.02536115 -0.011429638 0.042680733 0.015923142
000030 d3 a1 4a 3c 60 b6 73 bd d2 45 5f bd a0 f9 1c bb
       0.012367683 -0.0595001 -0.054509945 -0.00239525
000040 4b e0 d7 3c 04 03 ee 3c fe 04 3d bd 6a 56 00 bd
       0.026352068 0.029054172 -0.04614734 -0.03133241
000050 d4 74 ab bc d8 25 5a bc 16 7d a7 3e e0 3d da bc
       -0.020929731 -0.013314687 0.3271262 -0.026640832
000060 44 12 81 3d 5d b6 8d 3d 55 ce 0a 3e cc bc ea bc
       0.06302312 0.06919549 0.13555272 -0.028654478
000070 a0 bf 70 bb ec 57 e8 3d 4f 21 4b 3d a0 ed 57 bd
       -0.003673531 0.11344895 0.049592312 -0.05271685
000080 06 4b 6e bd 98 62 5c bd 0f 56 0e bb 64 85 6c bb
       -0.058177017 -0.053804964 -0.0021718775 -0.003609025
000090 78 80 a7 bc 8e 76 82 3d c9 4c 87 3c a7 2d 90 3d
       -0.020447 0.06370269 0.016516106 0.070399575
0000a0 de fc 03 bd 02 5b 57 bd 68 75 ab bc 12 71 2e bd
       -0.032223575 -0.052577026 -0.020930007 -0.0425883
0000b0 03 77 24 3e 60 63 b2 bb c0 fb 53 bc a8 92 0c bd
       0.16061024 -0.0054439753 -0.01293844 -0.03431955
0000c0 6b c9 70 3d 08 8c 53 3d 5c 95 a9 bc b7 27 15 3d
       0.058785837 0.051647216 -0.020701103 0.03641483
0000d0 9f 73 01 3d 52 e8 af 3c 20 e4 f2 bc b8 eb d5 bc
       0.031604405 0.021473084 -0.029649794 -0.026113376
0000e0 aa 4f 82 3d 18 34 54 3d 76 f9 35 bd 30 53 7d 3e
       0.06362851 0.051807493 -0.044427358 0.24738765
0000f0 81 2c 6e 3d 40 61 f5 bc 96 cd 68 bd cc 81 96 bc
       0.05814791 -0.029953599 -0.056836687 -0.018372439
000100 99 b0 cb 3b 80 74 e2 bc 99 33 b6 3e 47 6f b1 3e
       0.0062161204 -0.027643442 0.3558624 0.3465521
000110 16 70 01 3c 96 87 4f bd 77 86 df 3d f6 5e c8 3d
       0.0079002585 -0.050666414 0.10914319 0.09783737
000120 8c 54 13 bd 2b b3 4b 3d f5 28 73 3c 80 34 a6 bc
       -0.035969302 0.049731415 0.014841308 -0.020288706
000130 92 f4 15 bd 5a 93 22 bc ce 8d 3a 3d d0 bc 5f bc
       -0.036610194 -0.009922827 0.04554539 -0.013655856
000140 5c 53 11 bd 0f aa 82 3c 78 e9 26 3e e0 35 36 bb
       -0.03547989 0.01595023 0.16299999 -0.0027803108
000150 60 fb 23 bd ee 82 a2 3c be 60 46 bd 05 63 0b bb
       -0.04003465 0.019837823 -0.048432104 -0.0021268737
000160 e4 11 a1 bc 91 66 63 3d 84 9e c3 bc f4 6e 5a bd
       -0.019661851 0.055517737 -0.023879297 -0.05332847
000170 b0 39 43 3d 83 06 ed 3d 6a fa 8b 3c 73 8c 12 3d
       0.047662437 0.11573508 0.01708718 0.035778474
000180 1e b9 fc 3c 6f d1 84 3e 6c a4 3b bd 80 cf a6 bb
       0.03084999 0.25941035 -0.0458111 -0.005090654
000190 c4 28 29 bc fd 3c a2 bb 84 70 9d 3e e8 6e a3 3e
       -0.010324661 -0.004951118 0.30749905 0.31920552
0001a0 d4 4a 3e bd 04 f0 b3 bc 30 a5 93 bb d8 16 51 bd
       -0.04645808 -0.021965034 -0.004505776 -0.051047176
0001b0 9c 8a 7f bd d0 a2 90 bb fd 61 85 3d d4 32 50 3d
       -0.062388048 -0.00441394 0.065128304 0.050829723
0001c0 a4 3c 62 bd 38 7a 3e bd 1c e1 a2 3e 38 5b 1b bd
       -0.055233613 -0.046503276 0.3181237 -0.03792879
0001d0 38 89 29 bd 67 c3 5b 3d ad dc 5b bb 02 ad ae 3e
       -0.041390628 0.053653147 -0.003354828 0.3411637
0001e0 36 65 5f bd 68 32 2a 3d 2e 19 00 bc be 5a 4f 3d
       -0.05453988 0.041551977 -0.007818503 0.050623648
0001f0 14 36 11 3e 7c 72 81 3d a2 4c 6e bc dc 83 34 bd
       0.14180785 0.06320664 -0.014544638 -0.044071063
000200 24 36 82 bc dc 23 30 bd 62 ee 3a 3d 29 34 87 3c
       -0.015894957 -0.04300295 0.045637496 0.016504364
000210 d9 83 73 3e f1 b7 90 3d 1e c5 51 3d 8b 05 bf 3c
       0.23780765 0.07066334 0.051213376 0.023318073
000220 02 ac 23 bd 66 81 25 bd 79 d5 6c 3d cc eb bc bc
       -0.03995896 -0.040406607 0.05782077 -0.023061655
000230 42 f1 4a 3d 5f 1e 1d 3d bc f5 b7 3e 21 61 04 3c
       0.049546488 0.038359042 0.35929668 0.008079798
000240 e0 5a ed bc 08 06 59 3d 6a 75 79 bd d8 92 91 bc
       -0.028973997 0.052984267 -0.06090299 -0.017770216
000250 70 98 84 bc ac 09 c0 bc 3c 71 4c 3c 78 6b 41 3e
       -0.01618597 -0.023442112 0.012478169 0.18888652
000260 5c 88 7f bd 13 17 4e 3c ee 4a 19 3b 60 d5 26 3d
       -0.0623859 0.0125787435 0.002339061 0.040730834
000270 28 ad 30 bd aa e1 b1 bc 94 be 93 bc ec 9e 04 bd
       -0.043133885 -0.02171405 -0.01803521 -0.032378122
000280 88 49 e9 3c 24 25 9a 3d b9 90 05 3e e3 65 c0 3e
       0.028477445 0.07526615 0.13043489 0.37577733
000290 81 cb 64 3c 4c 64 c3 bc 16 84 77 bd 47 fb 1e 3d
       0.013964535 -0.023851536 -0.0604287 0.038813855
0002a0 e4 bf 5f 3b 4e 54 2d bd d1 66 84 3d 1e 04 07 3d
       0.0034141475 -0.042316727 0.06464923 0.03296291
0002b0 1b ad 8e 3d 80 30 5e bd 22 c4 d9 3d a8 ee d7 bc
       0.06966611 -0.054245472 0.106331125 -0.026358917
0002c0 d2 fc ad 3e c2 b3 aa 3d 7c 9b df bc 3a 80 3c bd
       0.3398195 0.08335067 -0.02729582 -0.046020724
0002d0 8c 07 83 bb c7 b4 d2 3c ad 58 b9 3e 90 91 6e bd
       -0.0039987024 0.025720967 0.36200467 -0.058244288
0002e0 94 65 c5 3c 5b d3 c1 3e 30 0f 95 bc f8 ad 51 bd
       0.024096288 0.37856564 -0.018195719 -0.0511913
0002f0 5e 10 0a bd f8 d5 96 bc 8f 19 b6 bb 28 e1 58 bd
       -0.033707015 -0.018412575 -0.005557246 -0.0529491
000300 48 e6 03 bc 88 5a 68 bd d9 cd 0b 3d 7a ab 0d bc
       -0.008050509 -0.056726962 0.03413186 -0.00864684
000310 8a 68 24 bd 22 43 e8 3c 45 1f bd 3d 44 f4 27 bd
       -0.04013876 0.028352324 0.0923448 -0.041004434
000320 5a 1e 37 bd 6e b1 8d 3c 74 8d 3d 3e 20 bd 3b bd
       -0.04470668 0.01729652 0.18510991 -0.04583466
000330 fc f0 5b bd 6e e4 3f bd 1e 17 87 3c 18 e2 ab 3d
       -0.053696617 -0.046848707 0.016490515 0.08392733
000340 0f f7 3d 3d 04 1f 20 3d ad 7e df 3c 76 41 01 3c
       0.04637819 0.03909208 0.027282083 0.007889142
000350 86 b2 33 bd 74 ac 2b bd e1 5f 90 3d 02 ee d7 3c
       -0.043871425 -0.04191251 0.070495375 0.026358608
000360 00 33 02 ba 49 dc 0b 3e 59 d5 ae 3e ef 1d 3e 3c
       -0.0004966706 0.13658251 0.34147146 0.011603816
000370 29 e0 ba 3a b6 c6 2d bd 53 ac cb 3e 49 04 49 3d
       0.0014257479 -0.042425834 0.3977991 0.049076352
000380 16 05 84 3e c2 79 29 3b be 01 23 3e e0 21 7c 3d
       0.2578513 0.0025859927 0.15918633 0.061555743
000390 6a 4c f9 bb 3e 2c e2 ba e2 bd 97 3d 9e f6 28 bd
       -0.007607986 -0.0017255617 0.07409264 -0.041250817
0003a0 a8 c9 36 bd f2 0f 12 bd 9c a8 17 bd 57 d6 2f 3d
       -0.044625908 -0.035659738 -0.037026033 0.04292902
0003b0 f9 73 5c 3c 89 cb 2e 3d 08 7f d1 bc 1a ea 02 bd
       0.013455384 0.042674575 -0.025573269 -0.031961538
0003c0 9e bb 43 3e ca b8 3c bc 9a b8 42 3d d6 e9 59 3e
       0.19114539 -0.0115186665 0.04753933 0.21280608
0003d0 62 7c 66 bd 7e 85 65 3d 8f 4f 22 3d c0 cd f9 bc
       -0.056270964 0.05603551 0.039626654 -0.030493617
0003e0 7a 2a 2e 3e ce b5 91 3d 50 3f e6 3b 98 46 43 bc
       0.17008391 0.071147546 0.0070265904 -0.011918686
0003f0 80 33 c2 bc d8 09 4b bd 2d 88 d9 3e b5 eb 93 3e
       -0.023706198 -0.049569935 0.42486706 0.28890768

weight f4 [128, 256]
000000 56 c1 37 3b 52 64 39 3d c2 92 69 bd 9a 94 43 3d
       0.0028038821 0.04526169 -0.057024725 0.04774914
000010 1e 4b e7 bc 49 eb 3c 3c a9 8e b6 3c 21 96 94 3c
       -0.02823406 0.011530706 0.022284823 0.018137993
000020 00 83 db 3a 3c 2d 7a bd 74 3c 9d bb 25 08 3f 3d
       0.0016747415 -0.061078295 -0.0047984663 0.046638627
000030 82 0b fd 3a 00 6b 7d ba 98 c5 95 bc 02 09 6f 3d
       0.0019305798 -0.00096671283 -0.018282697 0.0583582
000040 a7 d3 f7 bc cc 01 23 3d cc 83 be bc 8a 52 4a 3d
       -0.03025229 0.039796636 -0.023256205 0.04939512
000050 40 b4 8d 3a 5a 0c 10 bd 9d 4d 4e 3d 84 03 09 bd
       0.0010811165 -0.03516803 0.050366987 -0.03345062
000060 1a 64 be 3c 32 ff 47 3d 14 3a 48 bd b0 e9 51 bd
       0.023241092 0.048827358 -0.048883513 -0.051248252
000070 54 d3 42 3d 7e ef 84 bd 3c 93 6b bd 16 a2 0b 3d
       0.04756482 -0.06490992 -0.05751346 0.034090124
000080 40 22 65 bb f0 54 07 3c 18 0d 41 3b c6 ef 40 3d
       -0.0034963042 0.008259997 0.0029457267 0.047103666
000090 68 18 35 3c e0 c1 dc bc d0 75 1e bd 9a a9 69 3d
       0.011053182 -0.026947916 -0.038686574 0.05704651
0000a0 d6 85 10 bd a0 05 db bc 50 3b 82 bb e2 11 17 3d
       -0.035283886 -0.02673608 -0.0039743558 0.03688229
0000b0 44 bb d4 3c bc 30 20 bd a4 02 44 bd 04 69 3a bd
       0.025968201 -0.039108977 -0.04785408 -0.045510307
0000c0 27 35 d3 bb 80 b0 44 bd f0 e8 44 3d a0 a9 2e 3d
       -0.0064455452 -0.048019886 0.04807371 0.042642236
0000d0 3d 33 e6 3c b1 bb 4d 3d 8c fc 03 3d 80 76 69 ba
       0.028100604 0.050227825 0.03222327 -0.00089059025
0000e0 8c 2e ad 3c df 22 19 3c 82 56 24 3d 0d 1c 26 3d
       0.02114036 0.009346693 0.040121563 0.040554095
0000f0 a6 c1 3c 3d 1e 5f 23 bd 34 15 82 bc 28 85 83 3c
       0.046083115 -0.039885633 -0.015879251 0.016054705
000100 bc d7 ef bc 56 60 6b 3d 93 ae 92 3c eb 17 47 3d
       -0.029277675 0.05746492 0.01790551 0.048606794
000110 86 d4 28 3d d2 c9 13 bd f4 63 22 3d f2 19 c3 bc
       0.041218303 -0.036081143 0.039646104 -0.023816083
000120 44 3b 65 3d d1 cd 3b bd f6 d8 0c 3d 28 88 1f bd
       0.055964723 -0.04585058 0.034386598 -0.038948208
000130 08 b2 10 bc 41 be 65 3d 69 5d c9 3c b6 97 4a bd
       -0.008831508 0.056089643 0.024580674 -0.04946109
000140 20 80 71 bd 8a b9 89 bc 17 f1 ba bc 54 d5 21 3d
       -0.05896008 -0.016812105 -0.022820039 0.039510086
000150 20 37 f7 bc 5c 7f 47 3d f8 45 6c bd 6c be 96 3c
       -0.030177653 0.048705444 -0.057683915 0.018401347
000160 fa 64 33 3d f8 9b 1a 3d 16 86 0a bd 60 65 77 bc
       0.04379747 0.0377464 -0.03381928 -0.015099853
000170 3d fb 4a 3c 1e 89 7d bb aa 9f 2f 3c dd 77 6a 3d
       0.012389001 -0.0038686465 0.010719219 0.057243217
000180 e5 0f 85 3c 60 8a 92 3b ec 3d 26 bd 00 b8 e6 ba
       0.01624293 0.004472062 -0.040586397 -0.0017602444
000190 38 d0 ec 3c c9 d7 92 bc b8 f2 06 bd 68 08 c9 bc
       0.02890788 -0.01792516 -0.03294632 -0.024540141
0001a0 d6 6f 6f bd b8 89 78 3c 00 95 ff 39 3e b1 2f 3d
       -0.058456264 0.015169553 0.00048748404 0.04289364
0001b0 48 20 d3 3c aa ce 62 bd 4d bf 1b bc 73 83 fb 3c
       0.025772229 -0.05537287 -0.009506059 0.030702328
0001c0 48 d9 b6 bc ca b3 2c 3d 34 62 ed bc 14 fd 66 3d
       -0.022320405 0.042163648 -0.028977491 0.056393698
0001d0 18 43 3a bd 06 6e 36 bd 23 7e ff 3c 76 79 a7 bc
       -0.04547414 -0.04453852 0.031188076 -0.02044366
0001e0 e0 61 81 bb 43 84 86 3c cc 4f 71 3d b0 81 08 bc
       -0.003948435 0.01642049 0.05891399 -0.008331701
0001f0 d5 4a 62 bd b5 c2 f8 3b e9 7d 76 bd a8 f4 ac bc
       -0.055247147 0.0075915703 -0.06017867 -0.021112755
000200 46 06 21 3d 10 a9 a3 3c 90 5f 4b 3d a5 9f d2 bb
       0.039312623 0.019978076 0.049651682 -0.0064277225
000210 6d 81 43 bc 78 10 97 3c 81 13 39 bd 7e db 45 bd
       -0.011932713 0.01844047 -0.045184616 -0.048305027
000220 fa c2 1d 3d 00 b5 1b 3b bc 5b 03 3d f4 29 a1 bc
       0.038516022 0.0023759007 0.032069907 -0.019673325
000230 19 7f a9 bc cb a1 62 bd 31 66 5c bd 28 15 cc 3c
       -0.020690488 -0.05533008 -0.053808395 0.024912432
000240 00 6e ef 3a 7f 15 ac bc ce 78 7c bd e8 ad 43 bc
       0.0018267035 -0.021006344 -0.061638646 -0.011943318
000250 90 48 3c 3d ca 9c 71 bd 85 dd 09 3d a8 f7 58 3d
       0.04596764 -0.058987416 0.033658523 0.05297056
000260 c8 a5 5f bd 7f 54 12 3d 49 81 6f 3d 25 b3 66 bd
       -0.05460146 0.035725113 0.058472905 -0.05632319
000270 74 1a d9 bc e1 28 bf 3b 68 62 dd bc f0 7e ee bb
       -0.026501872 0.0058337306 -0.027024463 -0.0072783157
000280 6a 5b 07 3c 0d cc 63 bd b4 be 99 bc 03 b6 d6 bc
       0.008261541 -0.05561452 -0.018767692 -0.026209837
000290 49 16 51 bd ea a8 6f 3d 40 3d 00 bc a4 b0 1e bd
       -0.051046643 0.0585107 -0.007827103 -0.038742676
0002a0 22 ec ff bc 8a ef 70 bd df 49 0c 3d b3 f7 44 bd
       -0.031240527 -0.058822192 0.034250136 -0.048087787
0002b0 42 fd 18 bd 0a d0 19 3d 8f 1f 7a bd bc d4 f8 3c
       -0.0373509 0.037551917 -0.061065253 0.030374877
0002c0 b2 8e d8 3a 3c ae 4b bc 2c 95 c4 3c f4 21 5b bd
       0.0016522019 -0.012431677 0.023996912 -0.053499177
0002d0 9c 7e 91 3c 97 aa 66 bd ec 16 7a bd 3e 1d 01 bd
       0.017760567 -0.05631503 -0.061057016 -0.03152203
0002e0 81 b8 46 3d 78 5d 25 3c 24 b2 86 3c 58 33 eb 3c
       0.0485158 0.0100930855 0.016442366 0.028711006
0002f0 16 34 03 bd 38 15 26 3d 79 88 28 bd 70 67 3e 3d
       -0.032032095 0.04054758 -0.041145775 0.046485364
000300 b4 b9 9a 3c f8 67 36 3c da 6d 73 bd 62 36 42 bd
       0.018887378 0.0111331865 -0.059430934 -0.047415145
000310 ec a0 a1 bc cd a2 22 3d 50 82 01 bd 94 89 fb bc
       -0.019730054 0.03970604 -0.031618416 -0.03070525
000320 30 d4 ac 3c 5e 4f 0c 3d e1 42 a0 3c e4 a9 a4 bc
       0.021097273 0.034255378 0.01956314 -0.020100541
000330 60 14 5f bd 78 2b 61 3d 74 a0 f1 3c 67 bf f1 3b
       -0.05446279 0.054973096 0.029495455 0.0073775533
000340 cc 2e 69 3d 91 2c 2e bd f3 5d b6 bc e0 88 5c bd
       0.056929395 -0.04252297 -0.022261595 -0.05384147
000350 a0 9c 9a bc 24 73 29 bd 29 a9 6d bd dc 16 2d 3d
       -0.018873513 -0.041369572 -0.05802265 0.04225813
000360 16 86 0d 3d 6c 90 23 bc 43 ff 33 bd f0 99 1b 3d
       0.034551702 -0.009983163 -0.04394461 0.037988603
000370 c6 4a b7 3c 80 95 32 bc ca 64 cd 3c 57 e9 85 3c
       0.022374522 -0.010899901 0.025072474 0.016346617
000380 14 7d 16 bd 78 1a 0f 3d b9 8e d0 bc fe aa 60 bd
       -0.036740378 0.034937352 -0.02545868 -0.05485057
000390 9a e3 39 3d cd 2f b2 bc b8 a2 76 3d 52 e1 39 3d
       0.045383073 -0.021751309 0.060213774 0.045380898
0003a0 52 7b 59 bd c0 26 22 3d e8 21 7d 3c 14 c0 26 3d
       -0.053096123 0.039587736 0.015449978 0.040710524
0003b0 48 a5 6b bc b4 3f 63 bd 44 f6 fd 3c 34 2d 25 bd
       -0.014382668 -0.055480674 0.031001218 -0.040326312
0003c0 74 00 97 3b 64 ce 9e 3c 45 4d 94 bc ce b3 2a 3d
       0.0046082083 0.019385524 -0.018103251 0.04167538
0003d0 58 48 6a 3c 4d 0c e0 3c 05 f3 2f bd 1e 00 29 3d
       0.014299475 0.027349615 -0.04295637 0.041259877
0003e0 4a 01 36 3d 76 21 48 bc 5f d2 59 bd e6 60 5d bd
       0.044434823 -0.012215009 -0.05317914 -0.054047488
0003f0 22 6e 32 bd e0 be 06 3c de 6c 46 3c da 15 eb 3c
       -0.043562062 0.008224219 0.012110917 0.028696943

bias f4 [128]
000000 a0 0d 06 bc f3 22 8c bd bd 4c 7e bd 4d de 20 bd
       -0.008181959 -0.068426035 -0.062084902 -0.039274503
000010 97 a9 c9 3c c6 b2 65 bd 2c 7a 0d bd 79 20 a4 3e
       0.024617 -0.056078695 -0.03454034 0.32056025
000020 3a 31 11 3e 88 c6 9e 3e 98 56 a3 3e 4f c3 04 3e
       0.14178935 0.31010842 0.31902003 0.1296513
000030 d0 80 05 bd 59 1d 13 bd 98 d0 93 3c 22 21 50 3d
       -0.03259355 -0.03591666 0.018043801 0.050812848
000040 80 23 0d 3b 0c 4f 77 bd cb c6 09 bd db 5e e5 3d
       0.0021536052 -0.06037812 -0.03363685 0.11199733
000050 02 22 10 bd 9d 25 f8 3d 1c 04 6c bd 86 f2 5b bd
       -0.035188682 0.12116549 -0.057621107 -0.053698085
000060 fc 0f 3f bd 56 be a4 3e ec 85 43 bd 92 a3 18 3e
       -0.046646103 0.32176465 -0.04773514 0.14906147
000070 a0 3e 69 bc 5c 4d 43 bd b9 26 41 3d af a7 fc 3b
       -0.014236122 -0.047681198 0.04715607 0.007710419
000080 56 be 27 3e 15 de 8d bd 10 e1 d2 bb f7 f8 14 3e
       0.16381201 -0.069271244 -0.006435521 0.14548098
000090 18 7d 02 bd ec 71 8e 3e 5e 0f 84 bd 7f 2d 0d 3e
       -0.03185758 0.2782129 -0.064482436 0.13786887
0000a0 c3 95 5b bd 6c 7b d4 3d 78 f6 74 bd 7c 96 04 3e
       -0.05360962 0.10375103 -0.059805363 0.1294803
0000b0 b5 a6 ff ba 50 32 fd bc 5d c0 07 bd 49 90 10 3e
       -0.0019504639 -0.03090778 -0.033142436 0.1411754
0000c0 fb a7 b1 3e 9d 87 9d 3d bb 92 e0 3d cc 2c a1 3e
       0.3469847 0.07691882 0.109654866 0.3147949
0000d0 6b b5 f4 bc 26 2c eb bc d1 d0 63 3b b3 ad 35 bd
       -0.029871663 -0.028707575 0.0034761915 -0.044355106
0000e0 78 79 23 3e ef 4f 2b bd d9 94 9f 3e 6c 5d c5 3d
       0.15964305 -0.041824277 0.3116825 0.096369594
0000f0 6a 37 d5 3d a7 37 e1 3d b2 ef 7b bd 06 e4 43 bd
       0.1041096 0.10996943 -0.06150789 -0.047824882
000100 b5 7a 7e 3b bc bb 14 bd 4c 67 c1 3d 29 15 dd 3d
       0.0038830463 -0.03631185 0.094435304 0.107950516
000110 bd b7 bf bc ff 91 5e 3c 70 19 12 3e 3d f8 b0 3d
       -0.023403043 0.013584613 0.14267516 0.08641098
000120 90 7e 96 bc f0 af 9e 3e 89 12 95 3e aa 7d 72 bd
       -0.018370897 0.30993605 0.29115704 -0.059201874
000130 de 37 72 bd 52 a0 0d 3e 6d 13 04 3e 51 30 33 bd
       -0.05913531 0.13830689 0.12898035 -0.04374725
000140 f5 e8 03 3e 82 66 1f 3e a2 2a 3b 3d 0e bd 18 3e
       0.12881835 0.15566447 0.045694955 0.14915869
000150 3c 06 64 bd d9 90 10 3e a8 b8 66 bc 92 f4 42 bd
       -0.055670008 0.14117755 -0.014082111 -0.04759652
000160 a0 08 24 3b ce 03 98 3e 4a 75 ad 3e 04 8c b7 3c
       0.0025029555 0.29690403 0.33878547 0.022405632
000170 06 4d b0 3c 47 11 b2 3e 7c 29 a0 3e fd ef 84 3d
       0.021521103 0.34778807 0.3128165 0.06491087
000180 06 1c 71 3d 5b 2e 77 3c f9 4a 88 bd 37 2b e1 bc
       0.058864616 0.015086736 -0.06654925 -0.027486427
000190 b0 aa ac 3c 75 20 60 3b d0 ab dd 3d c3 0a 8d 3e
       0.021077484 0.0034199033 0.10823786 0.27547273
0001a0 58 11 9c bc 4b c4 9e 3e 18 ca 01 3c de 41 c8 3d
       -0.019051239 0.31009135 0.007921718 0.09778188
0001b0 a3 e0 7f bd 1c 92 01 3e 88 dc cd bc f4 04 06 bd
       -0.06247009 0.12653393 -0.025129572 -0.032719567
0001c0 9a b1 46 bd 1b 05 07 3e 6c a5 f5 bc aa 55 b3 3d
       -0.048509218 0.13185541 -0.029986106 0.087565735
0001d0 e6 e8 1b bd d9 fa 85 bd 5e 11 22 bd fc 61 c7 bc
       -0.038063906 -0.06541986 -0.039567344 -0.024338715
0001e0 60 07 1c 3e 94 b6 df bc d1 a4 d0 bb 10 05 ec 3b
       0.15237188 -0.02730874 -0.006367304 0.007202752
0001f0 d5 26 04 3e 94 d8 13 3d c8 6a cf bc 84 df 2a bd
       0.12905438 0.036095217 -0.025319472 -0.041717067

weight f4 [5, 128]
000000 51 ad a9 3d b8 9a 8b bd 3c 39 a1 bd 7f 23 5a 3d
       0.082850106 -0.0681662 -0.07872245 0.053256508
000010 13 d2 2a bd 93 f6 dc bc 92 44 a8 bc 66 75 bb bf
       -0.04170425 -0.026973044 -0.02054051 -1.4645202
000020 19 f7 b5 3e 90 6a ad bf e5 16 ae bf 6c a9 b3 3e
       0.35540083 -1.3548145 -1.3600737 0.35090196
000030 c4 93 aa 3d e3 f6 55 3d d7 2a c9 3c 08 2c c5 3e
       0.08328965 0.052237403 0.02455656 0.38510156
000040 6b ab 6e bc 22 f2 ca bc c5 a9 d3 bb 2b 43 b8 3e
       -0.014567236 -0.024773661 -0.006459447 0.35988745
000050 a5 1b 8e 3d 92 62 ba 3e 85 30 9c 3d 53 b1 a0 3d
       0.069388665 0.36403328 0.07626442 0.07846322
000060 4a aa 55 bc b9 07 ae bf a8 16 4b bd 50 7b 9a 3e
       -0.013041088 -1.3596107 -0.049582154 0.30172205
000070 5f 1a 59 bc 18 5b ff bc b8 6d ba 3e d3 0d 0f 3d
       -0.013250916 -0.031171367 0.36411834 0.034925293
000080 38 e0 b9 3e 61 93 12 bc 99 a8 03 bd a1 88 9d 3e
       0.36303878 -0.008946271 -0.03214321 0.30768302
000090 d6 cd 94 3d 0e 89 b5 bf 0a 9a 39 3b 4e f7 bb 3e
       0.072658226 -1.4182451 0.0028320574 0.36712116
0000a0 79 83 12 bd 53 27 59 3e 09 c0 a6 bd eb cb b6 3e
       -0.035769913 0.21206407 -0.081420965 0.35702452
0000b0 77 d6 84 3c 76 3e c3 bc 64 2f 86 bd 65 3b b8 3e
       0.016215546 -0.023833495 -0.06552008 0.35982814
0000c0 e7 19 b2 bf aa d3 a8 3e 87 aa 70 3e eb c1 aa bf
       -1.3914155 0.32973987 0.23502551 -1.3340429
0000d0 7d 2e 40 3d 92 7c 7d 3d 65 a8 3c bb 90 a6 5a bd
       0.046919335 0.061886378 -0.0028786894 -0.053381503
0000e0 45 e3 b3 3e c4 69 9b 3c 08 e2 b1 bf fc 9b bd 3e
       0.3513433 0.018971331 -1.3897104 0.3703307
0000f0 c2 34 72 3e d6 c3 9c 3e ee e3 9c bc 59 f3 dc bc
       0.23652938 0.3061816 -0.019151654 -0.026971506
000100 d9 c5 34 bd 75 47 4f bc 72 0e 8b 3e cf 67 7a 3e
       -0.044133995 -0.012651314 0.27159458 0.24453662
000110 34 a2 60 3c 12 2e fd bc 08 9e b5 3e f6 ff 6a 3e
       0.013710547 -0.030905757 0.3547213 0.22949204
000120 3b e6 04 bd 26 56 ba bf a3 7f b3 bf 4e 17 9f bd
       -0.032446127 -1.455754 -1.4023327 -0.07768117
000130 6d dc 90 3d 70 c1 5d 3e 8f 65 9d 3e b0 e2 c2 bc
       0.07073293 0.21655822 0.30741546 -0.023789734
000140 32 1e 8c 3e c4 60 a2 3e 20 5b c3 3e 00 4b 91 3e
       0.27366787 0.3171445 0.3815546 0.28377533
000150 6f 63 01 bd 5a 50 a1 3e cf 85 5d bd 30 c1 dc bc
       -0.031588968 0.31506616 -0.054082688 -0.026947588
000160 eb b9 71 3d 99 76 b4 bf f2 d1 ae bf 85 de 4c bd
       0.059015196 -1.4098693 -1.365782 -0.0500169
000170 97 8b a2 3c 6d 2d a7 bf b9 62 ae bf 85 4d 66 3e
       0.019841952 -1.3060738 -1.3623878 0.22490509
000180 7c ac 80 3e a4 68 59 3e d2 7b 09 3d df d3 b8 bc
       0.25131595 0.21231323 0.03356535 -0.022561966
000190 3b 7f 59 bd 53 92 a1 bc 95 da ab 3e a2 05 a9 bf
       -0.053099852 -0.019723093 0.33565202 -1.3204844
0001a0 de 79 a1 bd 66 9e 9d bf 8d f6 52 3d c7 5f 62 3e
       -0.078845724 -1.2313964 0.05150466 0.22106849
0001b0 81 c4 5f bd 47 67 b7 3e 79 9e 59 bd 86 bb 6e 3d
       -0.05463076 0.35820982 -0.053129647 0.058284305
0001c0 b3 4a f2 3b fd f7 59 3e 38 2d fb 3c ee bc b1 3e
       0.0073941587 0.21286006 0.03066121 0.34714454
0001d0 f3 9e 8a 3b 8c 42 83 bd 93 49 87 bd ff 7b 44 3d
       0.004230374 -0.06409177 -0.0660583 0.047969814
0001e0 ea 21 97 3e ab d0 f3 ba 15 7d 4d 3d 64 59 d1 3e
       0.29518062 -0.0018601617 0.050168116 0.40888512
0001f0 28 6f bb 3e dd 32 72 bc bb 8b 59 bd 7c 0b 6d 3d
       0.36608243 -0.014782635 -0.053111773 0.05787228
000200 0d 8e 27 bd 71 92 b8 3c 23 dd 3f 3d fa 43 b3 bd
       -0.040906955 0.022530766 0.04684175 -0.087532
000210 c8 b8 98 bd a7 e6 aa bd a1 45 e3 bb bc ea ba bf
       -0.07457119 -0.08344775 -0.0069357906 -1.4602885
000220 81 ce ab 3e 98 e5 b5 bf 76 a9 aa bf 64 ac 80 3e
       0.33555987 -1.4210691 -1.3332965 0.25131524
000230 b6 c6 f1 3c 46 b7 84 3c 24 5b 9b 3d c0 25 c8 3e
       0.029513698 0.016200673 0.07585743 0.390913
000240 c6 56 70 3b 5b f1 85 bc 64 17 b7 3c 20 0e be 3e
       0.0036672815 -0.016350439 0.02235002 0.37120152
000250 f6 17 79 bd 9b 3b ae 3e c2 a8 a5 bd 23 cb b4 3d
       -0.060813867 0.3402985 -0.080888286 0.08827808
000260 8b 41 13 bc 01 f0 b0 bf 56 77 67 3d 59 87 a8 3e
       -0.008987795 -1.3823243 0.056510292 0.32915762
000270 85 1a 85 bd 70 37 55 bd 07 a8 75 3e 88 a9 f7 bb
       -0.06499199 -0.052054822 0.23989879 -0.0075580515
000280 77 c7 95 3e e0 43 4d 3d 10 61 bf 3c 23 e4 b6 3e
       0.29253742 0.05011356 0.023361713 0.3572093
000290 dd 5e 5f 3d dc b8 ae bf a3 6a ad ba 01 a1 a5 3e
       0.054533828 -1.3650165 -0.0013230633 0.323494
0002a0 bb 72 4b bd b6 ff af 3e 5c 1f 6d 3d e6 2b 80 3e
       -0.049669962 0.3437478 0.057891235 0.25033492
0002b0 b9 7b 8c bd d9 98 a7 bc 52 18 2e 3d 50 9e 9e 3e
       -0.06859536 -0.020458626 0.042503662 0.30980158
0002c0 f2 fa ac bf ea f8 bc 3e 4e c1 b5 3e f5 af ac bf
       -1.3514082 0.36908656 0.35499042 -1.3491198
0002d0 78 6e ca bc c3 fe 2f bd e5 40 2c bd cf 7e 26 bd
       -0.024710879 -0.04296757 -0.042054076 -0.040648278
0002e0 23 b6 81 3e 7d d9 c2 bc fa 57 af bf 58 c7 b7 3e
       0.25334272 -0.023785347 -1.3698723 0.35894275
0002f0 f3 ae 97 3e 40 e1 b1 3e 78 a4 99 3d ca 5b a0 b8
       0.29625663 0.34742165 0.07502073 -7.6464916e-05
000300 eb f3 05 bd 86 ad 75 3c 29 0d 85 3e 56 18 bd 3e
       -0.03270332 0.0149949845 0.25986603 0.3693263
000310 4b ab 28 bd 21 70 d7 bc d5 85 c1 3e 87 02 a7 3e
       -0.041178983 -0.026298584 0.37797418 0.32619116
000320 0d 28 39 bd bb 88 bc bf 6f 32 b7 bf 9d 41 ad bd
       -0.04520421 -1.4729227 -1.4312266 -0.0845978
000330 b4 8f e2 bc 9c 9d 80 3e 7e 10 94 3e 14 33 1a bd
       -0.027656414 0.25120246 0.28918833 -0.03764637
000340 fe f6 9f 3e 33 0e 82 3e 02 0b 99 3e cf 33 b7 3e
       0.31243128 0.25401458 0.2989121 0.35781714
000350 01 2f d6 3b 8f 49 9d 3e 14 3a 82 bd 98 41 05 3d
       0.006536365 0.30720183 -0.06358734 0.03253326
000360 44 6b 8b 3d d0 96 a2 bf da c4 a2 bf c3 be 0b bd
       0.06807569 -1.2702274 -1.2716324 -0.03411747
000370 28 f0 3d bd d4 20 bd bf fd 15 aa bf 46 0b c5 3e
       -0.04637161 -1.4775643 -1.328796 0.38485163
000380 2d 29 97 3e 18 c9 83 3e 98 62 64 3d 3b a9 b4 3d
       0.29523602 0.2573936 0.05575809 0.08821341
000390 5c a6 be 3d a0 66 2f bb 14 50 9b 3e 48 2d b3 bf
       0.09309074 -0.002676405 0.30334532 -1.3998194
0003a0 67 27 21 3d 73 bf a5 bf c9 47 8b 3d 71 20 ca 3e
       0.039344218 -1.2949051 0.06800801 0.39477876
0003b0 03 8e 9b 3d 05 a8 5f 3e 1d e1 8b bd 1f be 18 3d
       0.07595446 0.21841438 -0.06830046 0.03729069
0003c0 92 26 91 3d 94 54 6f 3e 1a 11 5d bd 7e 27 62 3e
       0.07087435 0.23372108 -0.053971387 0.22085378
0003d0 e2 31 ea bc fd fa cd 3c 07 58 0b 3d 15 2a 01 3c
       -0.02858824 0.025144095 0.034019496 0.007883568
0003e0 2c 76 a6 3e 0b cd 8e bc 4e 99 61 3d 0c 37 de 3e
       0.32512033 -0.017431756 0.055077843 0.43401372
0003f0 63 ce 96 3e ad 85 33 bd 08 c5 a6 bd ed 2b 53 bd
       0.29454336 -0.043828655 -0.081430495 -0.051555563

bias f4 [5]
000000 da 25 f5 3d 0f 5a 98 3d 33 b4 01 3d 8a 56 06 3d
       0.1197011 0.07439052 0.031665992 0.032797374
000010 8d 28 46 3c
       0.012094629
