dqn_models/dqn_model_ver5.pth (torch, 401102 bytes, 6 tensors)

weight f4 [256, 256]
0	0x3e017f82	0.12646297
1	0xbe949fd6	-0.29028195
2	0xbec07fdb	-0.37597546
3	0x3c027795	0.007963081
4	0xbc7c0190	-0.015381232
5	0xbda35af1	-0.0797633
6	0x3dea12eb	0.114293896
7	0x3e06ad07	0.13151942
8	0x3d80df52	0.06292595
9	0xbe17ec31	-0.14836194
10	0x3d3fcd15	0.04682644
11	0x3dd3100a	0.103057936
12	0xbe06e5f8	-0.13173664
13	0xbeeef313	-0.46669826
14	0xbc4d5164	-0.012531612
15	0x3ebd946d	0.37027302
16	0xbe0a18fb	-0.13486092
17	0x3db1bbe5	0.08678416
18	0xbdc06bdb	-0.09395572
19	0x3d982d22	0.074304834
20	0xbd1a8767	-0.037726786
21	0xbc147cc9	-0.009062954
22	0x3af499a4	0.0018661511
23	0x3dc2bdf4	0.09508887
24	0xbe196d42	-0.14983085
25	0xbe614baa	-0.2200152
26	0x3e668081	0.22509958
27	0xbd7e06c7	-0.062018182
28	0x3ccc8728	0.024966791
29	0x3d12aaa9	0.035807285
30	0xbf9387a0	-1.1525764
31	0xbe6c6ebb	-0.23089115
32	0xbc954004	-0.018219002
33	0x3d381633	0.044943046
34	0x3d582c85	0.052776832
35	0xbded93ea	-0.11600478
36	0x3e40f340	0.18842793
37	0xbc356f20	-0.011073858
38	0x3f1e2ee6	0.6179031
39	0xbe2a9ee6	-0.16662177
40	0xbea3b553	-0.31974277
41	0x3daf9c67	0.08574753
42	0x3cce900b	0.02521517
43	0xba790808	-0.0009499793
44	0xbdd38b5f	-0.10329317
45	0xbe033e50	-0.12816739
46	0x3d892134	0.06695786
47	0x3d409fdc	0.047027454
48	0xbde52440	-0.11188555
49	0x3e4c77a2	0.19967511
50	0xbe4dfdbd	-0.20116325
51	0xc04cfa0d	-3.202762
52	0x3f3e512c	0.7434261
53	0xbd9e662d	-0.07734332
54	0x3dcbf682	0.09959127
55	0x3dacfa1d	0.08446143
56	0xbd6d4785	-0.057929534
57	0x3f15c43b	0.5850255
58	0x3ba39fca	0.0049934136
59	0x3ea953d8	0.3307178
60	0x3e4dce1f	0.2009816
61	0xbd83ab6b	-0.0642918
62	0x3ec62c18	0.38705516
63	0x3e1cdb0a	0.15317932
64	0xbe3f685f	-0.18692158
65	0x3e181029	0.14849915
66	0x3d6aa144	0.0572827
67	0x3e94d9e4	0.29072487
68	0x3dc3a848	0.095535815
69	0xbed9ca6c	-0.42537248
70	0x3d83dfe2	0.06439187
71	0x3dc7f62c	0.097637504
72	0x3d6974ef	0.056996282
73	0x3e30e8d6	0.1727632
74	0x3defb928	0.117052376
75	0xbd865c53	-0.06560578
76	0xbe3297cb	-0.17440717
77	0x3d13c96a	0.036080755
78	0xbeaffa5b	-0.34370694
79	0xbec36adb	-0.38167462
80	0x3cc2e037	0.023788555
81	0x3d1a332b	0.037646454
82	0xbfe3b98d	-1.7791001
83	0x3e94e67b	0.29082093
84	0x3d8b74d0	0.068093896
85	0xbd2f6b41	-0.042826895
86	0xbcb9f802	-0.022701267
87	0xbbdb23a5	-0.006687599
88	0xbc8e5dab	-0.017378649
89	0x3e0a50d2	0.13507393
90	0x3e03da78	0.12876308
91	0xbd19feeb	-0.037596624
92	0x3c307fab	0.010772626
93	0xbb7fa7f7	-0.0039010027
94	0x3c039589	0.008031257
95	0xbd891a6b	-0.06694492
96	0x3dfcbe4d	0.123409845
97	0x3e3048f4	0.1721533
98	0xbde4bcb4	-0.11168805
99	0xbe892c48	-0.26791596
100	0x3e8f5f66	0.2800247
101	0x3d40bd13	0.047055315
102	0xbe2ee6e5	-0.17080267
103	0x3d080f17	0.033217516
104	0xbe8be170	-0.27320433
105	0xbd74db77	-0.05977961
106	0x3f3cf232	0.7380706
107	0xbdf05982	-0.11735822
108	0xbde02b46	-0.10945754
109	0xbfec1a72	-1.844557
110	0x3f07ef4a	0.530995
111	0xbdcc903f	-0.0998845
112	0x3ea86231	0.32887414
113	0xbdd5414c	-0.10412845
114	0xbd6d10b8	-0.057877272
115	0x3ec739c3	0.38911256
116	0x3c775d9f	0.015098005
117	0x3dde1335	0.10843507
118	0x3ea6dd30	0.32590628
119	0xbdd70a02	-0.10499956
120	0xbc9fb1c0	-0.019493937
121	0x3e5c478b	0.21511666
122	0x3ef07473	0.46963844
123	0x3f1f6517	0.62263626
124	0xbbac1e3c	-0.0052526277
125	0xbfbb804d	-1.4648529
126	0x3f65a42f	0.8970365
127	0x3c890c3d	0.016729468
128	0x3dd12163	0.10211446
129	0xbf4c0a88	-0.7970357
130	0xbda09dd4	-0.07842603
131	0x3ccbcf06	0.02487899
132	0xbde728cd	-0.11287079
133	0x3ee7edc6	0.45298594
134	0x3dac52bf	0.0841422
135	0xbe2e3e5a	-0.17015973
136	0x3e14ddc0	0.14537716
137	0xbcf3bc59	-0.029752897
138	0x3d4bf93a	0.049798228
139	0x3eef5a31	0.46748498
140	0x3ea0e11c	0.31421745
141	0x3dae474d	0.08509693
142	0x3fa64c64	1.2992063
143	0xbd313d94	-0.043271616
144	0xbcd8a8b2	-0.026447628
145	0xbe937e09	-0.28807095
146	0xbeda3d47	-0.42624876
147	0xbd1ea8db	-0.038735252
148	0x3e4aa14d	0.19788094
149	0xbe506903	-0.20352559
150	0xbcdf3e3e	-0.02725136
151	0xbd1e8d5d	-0.038709033
152	0xbe46f616	-0.19429812
153	0xbec710d0	-0.38880014
154	0x3ddd9200	0.10818863
155	0x3d8bf5e1	0.06834007
156	0x3ceb66a7	0.028735472
157	0x3ea3aa94	0.31966078
158	0x3db9e389	0.09076602
159	0x3fcd6dde	1.6049154
160	0xbd7a5f22	-0.061125882
161	0xbd9c6601	-0.07636643
162	0xbf14f785	-0.58190185
163	0xbcca683b	-0.024707904
164	0xbefe22f9	-0.49636057
165	0xbc48d255	-0.012257178
166	0x3df2ff6c	0.11865124
167	0x3e617b55	0.22019704
168	0x3e385534	0.18001252
169	0xbf292509	-0.66072136
170	0x3f034f21	0.51292616
171	0xbcf68b3c	-0.030095689
172	0xbc56b622	-0.013104947
173	0xba833286	-0.0010009564
174	0x3cc12162	0.023575488
175	0x3dee25e4	0.11628321
176	0xbc99d39f	-0.018777667
177	0xbd5104d8	-0.05103001
178	0xbfde6c2c	-1.7376761
179	0xbe1b85d1	-0.15187766
180	0x4002809d	2.0391
181	0x3c8b0b3e	0.016973134
182	0x3ea9cf9b	0.33166203
183	0x3ed9c587	0.42533514
184	0x3dcc371a	0.09971447
185	0x3e732e39	0.23748101
186	0x3e636caa	0.22209421
187	0xbd869723	-0.06571796
188	0x3d308bbd	0.043102015
189	0xbd9fd94e	-0.078051195
190	0x3e429ca0	0.1900506
191	0x3e00dd86	0.12584504
192	0x3e0443ac	0.1291644
193	0x3cba849c	0.022768311
194	0xbce93362	-0.028466884
195	0x3e2e6135	0.17029269
196	0x3e023672	0.12716082
197	0x3d9f9528	0.07792121
198	0x3dda49ac	0.10658583
199	0xbe375eb6	-0.17907223
200	0xc0941fca	-4.6288805
201	0x3e0b2547	0.13588439
202	0xbd8e1b93	-0.06938853
203	0x40766fe9	3.8505805
204	0x3de43b34	0.111441046
205	0xbc117b44	-0.0088794865
206	0x3e66ac88	0.22526753
207	0x3ec004b3	0.37503585
208	0xbe01aced	-0.12663622
209	0x3d79d746	0.060996316
210	0x3dcceb52	0.10005821
211	0xbeff0976	-0.49811906
212	0x3d6751d4	0.05647452
213	0x3e5c3341	0.21503927
214	0x3e754b09	0.23954405
215	0xbde89dad	-0.11358199
216	0xbd0a3d40	-0.03374982
217	0xbe7c05e3	-0.2461162
218	0x3ebb2c1b	0.36557087
219	0xbda8461a	-0.08216496
220	0xbd247f8e	-0.040160708
221	0x3d6d844d	0.0579875
222	0x3eb59249	0.3546317
223	0x3d426d43	0.04746748
224	0xbd24f2a5	-0.040270466
225	0xbdba9f6b	-0.09112438
226	0xbd76c9ce	-0.06025105
227	0xbd3130d1	-0.043259446
228	0x3d3b82a1	0.045778874
229	0xbe15daba	-0.14634219
230	0xba281faf	-0.00064134126
231	0x3b76da75	0.0037666832
232	0x3b81398b	0.0039436272
233	0x3e02885b	0.12747328
234	0x3cd28e3b	0.025702586
235	0x3cf24400	0.02957344
236	0xbdc6ed09	-0.097131796
237	0x3c35cba4	0.011095915
238	0xbd29add3	-0.041425537
239	0xbd3813f0	-0.04494089
240	0xbe77b65c	-0.24190658
241	0xbc38b7e8	-0.011274315
242	0xbe5a3c1c	-0.21311992
243	0xbe992170	-0.29908323
244	0xbe5451c8	-0.20734322
245	0xbd96f248	-0.0737043
246	0x3ebb5cb4	0.36594164
247	0xbdc9d263	-0.09854581
248	0x3e21c512	0.15797833
249	0xbf09db10	-0.5384989
250	0x3f005972	0.5013648
251	0xbdf11205	-0.11771015
252	0x3e2beb5a	0.16788998
253	0x3da3587f	0.07975864
254	0x3d0a131e	0.033709638
255	0x3ce2811e	0.027649458

bias f4 [256]
0	0xbcf0412e	-0.029327955
1	0x3d5948f9	0.053048108
2	0xbd008e9e	-0.03138601
3	0x3d64d701	0.055869106
4	0x3d844ab1	0.06459559
5	0xbca86c0f	-0.020559339
6	0x3c26da4d	0.010183883
7	0x3d3ef966	0.046624564
8	0xbcda32d0	-0.026635557
9	0x3d07ceae	0.03315609
10	0xbcf145b4	-0.029452182
11	0x3cd18dde	0.025580343
12	0x3acde480	0.0015708357
13	0xbc9004c2	-0.017580394
14	0xbabf8b4b	-0.0014613656
15	0xbbf079b1	-0.0073387255
16	0x3cead7f9	0.028667437
17	0xbc5cb811	-0.013471619
18	0xbc86f84c	-0.016475819
19	0xba93cdc9	-0.0011276539
20	0x3ca30294	0.01989869
21	0xbb246200	-0.0025082827
22	0x3a2ffa00	0.0006712973
23	0x3d364b58	0.044505447
24	0xbcf5103c	-0.029914968
25	0xbd29cfe4	-0.041458026
26	0xbba13560	-0.004919693
27	0x3b132baf	0.0022456457
28	0xbc2fde44	-0.010734145
29	0x3d474d45	0.048657674
30	0xbd34941e	-0.044086568
31	0x3ba4426e	0.005012802
32	0x3ca08a6c	0.019597255
33	0xbd67167d	-0.05641793
34	0x3a903900	0.0011003315
35	0xbd78fd5e	-0.060788505
36	0x3bcc2acb	0.0062306873
37	0xbc1da038	-0.009620719
38	0x3d6af304	0.057360664
39	0x3cc386c6	0.023867976
40	0x3cf806f4	0.030276753
41	0x3c596ed0	0.013271049
42	0x3d23ab92	0.039958544
43	0xbd2c2cde	-0.042034976
44	0xbd075467	-0.033039477
45	0xbc18c1e6	-0.009323573
46	0x3d4acf84	0.04951431
47	0xbbd6d920	-0.006556645
48	0x3d4c1823	0.049827706
49	0xbd7e0b06	-0.06202223
50	0xbcc07758	-0.023494408
51	0xbd3cf4e9	-0.046132002
52	0x3ce906ee	0.028445687
53	0x3bebf31c	0.0072006118
54	0xbcad65dc	-0.021166734
55	0xbd61521a	-0.05500994
56	0x3d598b56	0.053111397
57	0xbcc7c9b8	-0.02438818
58	0x3c5d880f	0.013521208
59	0xbbb25980	-0.005442798
60	0xbd657ace	-0.05602532
61	0xbd5972c6	-0.053087972
62	0x3cc55a84	0.024091013
63	0x3ced2aba	0.028951038
64	0xbb43e967	-0.0029893757
65	0x3d479f43	0.04873587
66	0x3b78c1bd	0.0037957274
67	0xbd145176	-0.0362105
68	0xbbc6a03b	-0.0060615814
69	0xbcafe298	-0.021470353
70	0xbd68e2fe	-0.0568571
71	0x3d47a300	0.048739433
72	0xbd66de46	-0.05636432
73	0x3cd73fc3	0.026275521
74	0xbb62f934	-0.00346334
75	0x3bb00552	0.005371728
76	0x3d7b20f4	0.061310723
77	0xbce410a0	-0.027839959
78	0xbd152414	-0.03641136
79	0x3d3c17b1	0.04592103
80	0x3ca5d698	0.020243928
81	0xbd5e1f80	-0.05422926
82	0xbd29039a	-0.0412632
83	0x3b2d3e5d	0.0026434876
84	0x3cf4c43c	0.029878728
85	0xbd684728	-0.056708485
86	0x3d3b21ef	0.04568666
87	0xbcac3054	-0.021019138
88	0xbbedc960	-0.007256672
89	0x3c6a4c94	0.014300484
90	0x3d65f3a2	0.05614055
91	0x3bb79bd9	0.0056032953
92	0xbd5aa58a	-0.053380527
93	0x3c3b21f0	0.011421666
94	0x3d4c082c	0.04981248
95	0xbb822fa0	-0.0039729625
96	0xbd67e835	-0.056617934
97	0x3c5e64a0	0.013573796
98	0x3c96b625	0.0183974
99	0x3cf3313a	0.029686559
100	0xbb892dbf	-0.0041863616
101	0xbb2bbe80	-0.0026206076
102	0xbd132174	-0.035920575
103	0xbd69b558	-0.05705771
104	0x3cca732f	0.024713127
105	0x3b921a5c	0.0044587087
106	0x3d792dc8	0.060834676
107	0xbbdfda1e	-0.0068314215
108	0x3d2529f0	0.040323198
109	0x3c8e7bb0	0.017392963
110	0xbd803a10	-0.062610745
111	0x3c344f1c	0.011005189
112	0x3cc47610	0.023982078
113	0x3be1010e	0.006866581
114	0xbbfc2790	-0.007695146
115	0x3d3f3a6f	0.046686586
116	0xbb07db60	-0.0020730123
117	0xbd7348ac	-0.059395477
118	0x3d30aef5	0.043135602
119	0xbbaf5590	-0.005350776
120	0xbd195fe4	-0.037444964
121	0x3d65f054	0.056137398
122	0x3d35416b	0.04425184
123	0x3cd55c01	0.026044847
124	0xbd09ab58	-0.03361067
125	0x3c6276f6	0.013822308
126	0xbc783c80	-0.015151143
127	0x3c0882e8	0.008331992
128	0x3d54b7f4	0.051933244
129	0x3d146f57	0.036238994
130	0xbc5875a8	-0.013211645
131	0xbd0c79ce	-0.03429585
132	0xbcc067f9	-0.023487078
133	0x3d011117	0.03151044
134	0xbd0ea3da	-0.03482423
135	0xbd0055ec	-0.03133194
136	0x3d7ad25a	0.061235763
137	0x3bb8df18	0.005641829
138	0x3c9b87a5	0.018985579
139	0x3d7d3cb1	0.061825458
140	0xbce009ec	-0.027348481
141	0x3a8fec5e	0.0010980477
142	0xbd634c2c	-0.055492565
143	0x3ba8c3d9	0.0051503
144	0xbd022ebc	-0.03178285
145	0xbd557662	-0.05211485
146	0x3d2d4f6d	0.042312074
147	0x3d69e853	0.057106327
148	0x3c832f3c	0.016013734
149	0x3b5d9320	0.0033809617
150	0x3d3190d3	0.043351006
151	0x3d547fab	0.051879566
152	0xbd00773c	-0.03136371
153	0x3ce02ff0	0.027366608
154	0x3d66d783	0.05635787
155	0x3cd70c10	0.026250869
156	0x3d068f23	0.03285135
157	0xbc4cb482	-0.012494208
158	0xbd63e9de	-0.055642955
159	0xbbd51400	-0.0065026283
160	0x3d6accb8	0.05732414
161	0xbcd2dbec	-0.025739633
162	0xbc9bdd60	-0.019026458
163	0xbd79ce6c	-0.060987875
164	0x3d5328a5	0.051552434
165	0xbc3d7ff8	-0.011566155
166	0x3c33b7d0	0.010969117
167	0x3ce1ed08	0.027578846
168	0xbbb73d63	-0.0055920347
169	0x3d565095	0.052322943
170	0xbd84244e	-0.06452237
171	0x3d120125	0.035645623
172	0x3b218840	0.0024647862
173	0x3d12048e	0.035648875
174	0x3be438f0	0.0069647953
175	0x3d27331c	0.040820226
176	0x3c0537e3	0.008131
177	0x3cd095a8	0.025461987
178	0xbd32f7f4	-0.043693498
179	0x3d2bbb02	0.04192639
180	0xbc83195a	-0.0160033
181	0xbd09ee2a	-0.033674397
182	0x3cd60d10	0.026129276
183	0x3d797338	0.060900897
184	0x3c3f35bd	0.011670527
185	0xbd051152	-0.03248722
186	0x3c19f898	0.009397648
187	0xbb818ce0	-0.003953561
188	0x3d517e61	0.051145915
189	0x3d54b6bb	0.051932078
190	0x3d448884	0.047981754
191	0x3c6a5730	0.014303014
192	0x3cadba50	0.021207005
193	0xbd5b7660	-0.053579688
194	0xbd7da7ea	-0.061927713
195	0x3ce04fe8	0.027381852
196	0x3d7da6e7	0.06192675
197	0xbc993230	-0.01870069
198	0xbc1af450	-0.009457663
199	0x3c4f2928	0.01264409
200	0xbce56450	-0.028001934
201	0xbd02582e	-0.031822376
202	0xbd2c3d2e	-0.042050533
203	0x3c446290	0.01198639
204	0x3d66408c	0.0562139
205	0xbce1dc0c	-0.027570747
206	0xbc9e2db4	-0.019308902
207	0x3d007d92	0.031369753
208	0x3d743887	0.05962422
209	0x3d46af8e	0.048507266
210	0x3d127d9c	0.03576432
211	0xbd26312e	-0.040574245
212	0x3d0df978	0.03466174
213	0xbd7ee6e0	-0.0622319
214	0xbd7a89c0	-0.061166525
215	0x3cceb111	0.025230916
216	0xbd897d85	-0.06713394
217	0xbd6c6616	-0.057714544
218	0x3c4efbf8	0.012633316
219	0xbd407246	-0.04698398
220	0xbd4130ac	-0.047165558
221	0x3d520861	0.051277522
222	0x3d70c675	0.058783013
223	0xbd259da0	-0.040433526
224	0x3c096f76	0.008388391
225	0x3c9fea3c	0.019520871
226	0x3cac754c	0.021052025
227	0xbb62ea41	-0.003462449
228	0xbbfb98c0	-0.0076781213
229	0x3d32edb8	0.043683738
230	0x3cc3801d	0.0238648
231	0xbd4f5600	-0.050619125
232	0x3d789562	0.060689338
233	0xbc8217af	-0.015880434
234	0xbd288860	-0.041145682
235	0x3c0ce518	0.008599542
236	0x3d34f26b	0.0441765
237	0xbbd156fd	-0.0063885436
238	0xbd650a60	-0.055918097
239	0x3ce8240e	0.028337505
240	0x3d4bfb6c	0.04980032
241	0x3d6e3c0c	0.058162734
242	0xbcf4e910	-0.02989629
243	0xbd4e56ee	-0.05037587
244	0xbc764a00	-0.015032291
245	0x3ab257d6	0.0013606499
246	0x3d0992cd	0.033587266
247	0xbd45cd48	-0.048291475
248	0x3d2afa97	0.041742887
249	0x3d351e93	0.04421861
250	0x3d3eb4ca	0.046559133
251	0x3cf4502c	0.029823385
252	0xbd8fbd86	-0.070185706
253	0x3d06036c	0.032718107
254	0xbd02b83f	-0.031913992
255	0x3cdce5d9	0.026965069

weight f4 [128, 256]
0	0x3f14c65b	0.58115166
1	0x3f3c1150	0.73463917
2	0x3d5ca72e	0.053870372
3	0xbd287ba1	-0.041133527
4	0x3f070ad2	0.52750885
5	0xbceae605	-0.028674135
6	0x3f300d00	0.68769836
7	0x3f2f655a	0.68514025
8	0xbd1b5018	-0.03791818
9	0xbd0a25e7	-0.033727553
10	0x3d4ad550	0.049519837
11	0x3f54e88c	0.8316734
12	0xbd3765b4	-0.044774726
13	0x3f2f84b8	0.6856189
14	0x3f152388	0.5825734
15	0x3d3a4c01	0.04548264
16	0x3f25b10f	0.64723295
17	0x3f128c05	0.572449
18	0x3d267794	0.040641382
19	0x3c9ade9d	0.018904978
20	0xbd02ea82	-0.031961925
21	0x3d624ee4	0.055251017
22	0x3cb66364	0.02226419
23	0xbd5ca24e	-0.053865723
24	0xbd4fd844	-0.050743356
25	0xbc268868	-0.010164358
26	0xbb98c5e0	-0.0046622604
27	0xbd25ec3f	-0.040508505
28	0x3f1af0ec	0.6052387
29	0xbcf3a90a	-0.02974369
30	0x3cf6d190	0.030129224
31	0x3f30f9cd	0.69131166
32	0xbd379230	-0.04481715
33	0x3d6fa025	0.058502335
34	0xbcf41e20	-0.029799521
35	0xbcd12f08	-0.025535122
36	0x3bb222dd	0.005436285
37	0xbd0e4b9e	-0.034740083
38	0x3f265954	0.64980054
39	0x3f147565	0.5799163
40	0x40216337	2.5216806
41	0xbd2ade64	-0.041715994
42	0x3d4adeb6	0.0495288
43	0x3c624460	0.013810247
44	0xbbaf104d	-0.0053425194
45	0x3f4a656a	0.79060996
46	0xbd61f2c4	-0.05516316
47	0xbd7f754c	-0.062367722
48	0x3f0a5328	0.54033136
49	0x3cd693b8	0.026193485
50	0xbd7ee0be	-0.06222605
51	0x3d4cf96f	0.050042566
52	0x3f4e413f	0.8056831
53	0x3f1e2315	0.6177228
54	0x3c82fc34	0.0159894
55	0xbca4e9cc	-0.020131014
56	0x3c460345	0.01208574
57	0x3c7776b8	0.015103988
58	0x3f23bcf6	0.63960207
59	0x3cae860e	0.021304157
60	0x3c5d7da0	0.013518721
61	0xbd563aa6	-0.052302025
62	0x3d2c4096	0.04205378
63	0x3f3a7630	0.7283659
64	0x3f2ac799	0.6671081
65	0x3f18f2af	0.59745306
66	0xbbc116a4	-0.0058925916
67	0xbc9341e0	-0.017975748
68	0xbcfb9812	-0.030712161
69	0xbd3eb032	-0.04655475
70	0xbd5494d6	-0.051899754
71	0xbb76aa5d	-0.0037638166
72	0x3cbda364	0.0231492
73	0x3f4fa929	0.8111749
74	0xbc8afe50	-0.016966969
75	0x3f33538f	0.70049375
76	0xbcf8dfd8	-0.030380175
77	0xbcf95568	-0.030436233
78	0x3d1b0d26	0.037854336
79	0x3f26f174	0.6521218
80	0x3c98a260	0.018632114
81	0x3d784750	0.060614884
82	0x3c306b18	0.010767721
83	0x3f1129d4	0.5670445
84	0x3f3f8f91	0.7482844
85	0x3c9d64b0	0.01921305
86	0x3f27e193	0.65578574
87	0xbcd8c9dc	-0.026463442
88	0xbd39ec46	-0.045391344
89	0x3f0cf4f5	0.55061275
90	0x3f10a7e4	0.5650618
91	0x3f390ba3	0.7228338
92	0x3b5cc960	0.0033689365
93	0xbd7ad966	-0.061242484
94	0x3f1b7f67	0.60741276
95	0xbd4af06e	-0.049545698
96	0x3f3b6c3d	0.73212034
97	0x3cff569d	0.03116923
98	0x3f40325a	0.7507683
99	0x3fca3d40	1.5799942
100	0x3f3d350c	0.7390907
101	0xbb746d80	-0.0037296712
102	0xbd52bfaa	-0.051452316
103	0x3f19dc67	0.6010193
104	0x3d1ebdc9	0.038755212
105	0xbc9563a1	-0.018235983
106	0x3f41d1c6	0.75710714
107	0x3d475115	0.04866131
108	0xbd02e96e	-0.031960897
109	0x3cce5428	0.025186613
110	0xbcf53187	-0.029930843
111	0x3f1bd282	0.60868084
112	0xbc974904	-0.018467434
113	0x3f4fcedc	0.8117502
114	0xbd68550e	-0.05672174
115	0x3f42c493	0.760812
116	0x3d51c996	0.051217638
117	0xbd33d50e	-0.043904357
118	0xbd0f62d4	-0.03500636
119	0x3bc87e00	0.006118536
120	0xbd3ae92c	-0.045632526
121	0xbc936ec4	-0.017997153
122	0xbcb0a02f	-0.021560756
123	0x3f30f9e6	0.69131315
124	0xbca06efc	-0.019584171
125	0xbd59a2f1	-0.05313391
126	0xbd256482	-0.040379055
127	0x3cbfe7f4	0.023426034
128	0xbc7babe3	-0.015360805
129	0x3f28b1f3	0.6589653
130	0xbd7b740e	-0.061389975
131	0xbc028808	-0.007967003
132	0x3d8135c3	0.06309082
133	0x3f4e4cab	0.80585736
134	0xbd5cd0fc	-0.05391024
135	0x3cd9ff7c	0.026611082
136	0x3f2fe7b7	0.68712944
137	0xbcc01d23	-0.023451393
138	0x3f137201	0.5759583
139	0x3f168d84	0.58809686
140	0x3b29a3c0	0.0025884956
141	0x3f31ed0b	0.69502324
142	0xbd0f1c40	-0.03493905
143	0xbd696d7c	-0.056989178
144	0xbcb94504	-0.022615917
145	0x3cf6ce3c	0.030127637
146	0x3f0c9945	0.5492137
147	0x3d19fefc	0.037596688
148	0x3f8a0fef	1.0786113
149	0x3c9ea150	0.01936403
150	0x3f1d1fec	0.61376834
151	0x3f4a72e3	0.79081553
152	0xbd4f5592	-0.050618716
153	0xbd59aab9	-0.05314133
154	0xbc7e4888	-0.0155202225
155	0xbd427f60	-0.047484756
156	0x3f088ea2	0.5334264
157	0x3d807408	0.06272131
158	0xbcb44104	-0.022003658
159	0xbd23348c	-0.039845034
160	0xbd64bcd8	-0.055844158
161	0x3cf97b88	0.030454412
162	0xbc99f4bc	-0.018793456
163	0x3d57ed5a	0.05271659
164	0x3d09dfc4	0.033660665
165	0xbd30776a	-0.043082632
166	0x3f086e56	0.5329336
167	0xbc82402f	-0.015899746
168	0xbcbdf87a	-0.023189772
169	0xbd1543b0	-0.036441505
170	0xb9ae122a	-0.000332014
171	0x3f139a9a	0.5765778
172	0xbd7d5d6e	-0.06185668
173	0x3d6ed58c	0.058309123
174	0xbb9431c0	-0.004522532
175	0x3f1c2ea7	0.61008686
176	0x40026b56	2.0378013
177	0xbcf38a6c	-0.02972909
178	0x3c576250	0.013145998
179	0x3d215096	0.039383493
180	0xbbc5522f	-0.00602176
181	0xbd2e0ad8	-0.04249081
182	0x3c1d6328	0.00960616
183	0x3f0d1ccb	0.5512206
184	0x3d448a5e	0.04798352
185	0xbd2033bd	-0.03911184
186	0x3ca5bbc4	0.020231135
187	0x3c60abd8	0.013712846
188	0x3f1182a9	0.56839997
189	0x3f0046b2	0.5010787
190	0x3f3d574c	0.7396133
191	0xbd403540	-0.046925783
192	0x3f097ed6	0.5370916
193	0xbb5d1820	-0.0033736303
194	0x3cb4b830	0.022060484
195	0xbc89e5c4	-0.016833194
196	0x3f1cd652	0.61264527
197	0x3c92874c	0.01788678
198	0x3d1d1fb6	0.03836032
199	0x3d0b1c18	0.03396234
200	0x3cd4cff4	0.025978066
201	0x3d6a1610	0.057149947
202	0xbcb37dcc	-0.02191057
203	0x3d7ccbef	0.061717924
204	0x3f189217	0.59597915
205	0x3ce8fe5c	0.0284416
206	0xbc8390e8	-0.016060308
207	0x40067f27	2.1015108
208	0x3f412176	0.7544168
209	0x3f1401dd	0.57815343
210	0x3d5d923c	0.054094538
211	0xbd2581b6	-0.040406905
212	0x3f1f4d8e	0.62227714
213	0x3ccaa5b0	0.02473721
214	0x3c550fd8	0.013004266
215	0x3d838b17	0.06423014
216	0x3d6b9d01	0.057522777
217	0x3c93daf0	0.018048733
218	0xbc8be128	-0.017075136
219	0x3c2ee258	0.010674082
220	0xbca89db8	-0.020583019
221	0xbd3c31cc	-0.045945928
222	0xbd505ab5	-0.050867755
223	0x3cc6cfe0	0.024269044
224	0x3f352b1c	0.70768905
225	0xbd4a6d9f	-0.04942095
226	0x3c914264	0.017731853
227	0xbd5c8656	-0.05383905
228	0x3c551f50	0.013007954
229	0xbd0246cb	-0.031805795
230	0x3f7917fa	0.9730221
231	0x3bc43d79	0.0059887734
232	0x3f266d25	0.6501029
233	0x3f196d3b	0.599323
234	0x3c30ac98	0.010783337
235	0x3d27d98a	0.040978946
236	0x3f1d24ca	0.6138426
237	0x3f324913	0.6964275
238	0x3d20af8e	0.039229922
239	0x3f1de40e	0.6167611
240	0x3d478af6	0.048716508
241	0x3f1ae68e	0.6050805
242	0x3d1e7752	0.03868801
243	0x3c6a2578	0.01429116
244	0xbd65e672	-0.056127973
245	0x3d8b9741	0.06815959
246	0xbd260f43	-0.0405419
247	0xbd223698	-0.039602846
248	0x3f27986e	0.65466964
249	0x3f1ae41c	0.6050432
250	0x400c758b	2.1946743
251	0xbd6645bc	-0.056218848
252	0xbd13ba6b	-0.036066454
253	0x3fd971e2	1.6987879
254	0x3f5510d6	0.83228815
255	0x3f217db0	0.6308241

bias f4 [128]
0	0x3d526e9b	0.051375013
1	0xbc8f27f2	-0.017475102
2	0xbd0de5ee	-0.034643106
3	0x3d2bfd57	0.04198965
4	0xbcf2ca3f	-0.029637454
5	0xbd74b173	-0.05973954
6	0x3d272e01	0.040815357
7	0xbd3958c8	-0.045250684
8	0x3d9a58f7	0.075365
9	0x3d101542	0.035176523
10	0xbbdc7370	-0.0067276284
11	0xbcebe5bc	-0.02879607
12	0xbd05805a	-0.03259311
13	0xbd64667c	-0.0557618
14	0x3d4dbeae	0.050230674
15	0xbd66c490	-0.0563398
16	0xbd837ba5	-0.06420068
17	0xbd1fe7a8	-0.039039284
18	0x3cf8f241	0.030388953
19	0x3d150a19	0.036386583
20	0xbd0b4895	-0.034004766
21	0x3d97bec2	0.07409431
22	0x3db238d1	0.08702243
23	0x3c1dd950	0.009634331
24	0x3d457fc4	0.04821755
25	0xbcc36bb2	-0.023855064
26	0x3d49b9b5	0.04924937
27	0x3d26fe6e	0.040769987
28	0x3cfe6047	0.031051768
29	0xbba4ebbd	-0.005032985
30	0xbd1d67ee	-0.038429193
31	0x3ca7d6b4	0.02048812
32	0x3d4a0c23	0.04932798
33	0xbd7a794a	-0.061150827
34	0xbccf28f0	-0.025288075
35	0xbd268b8e	-0.040660433
36	0x3c779170	0.015110359
37	0xbd2080fb	-0.039185505
38	0xbbb1e0d9	-0.0054284153
39	0x3ca60a4a	0.020268578
40	0xbc70aa40	-0.014689028
41	0x3bcc7c98	0.0062404387
42	0x3d5c6640	0.05380845
43	0xbd05f6a7	-0.03270593
44	0xbca62ee4	-0.020286031
45	0x3be46ea8	0.006971199
46	0x3d705faf	0.058685
47	0x3d13f035	0.03611775
48	0x3c912f3c	0.017722718
49	0x3cee3ba4	0.029081173
50	0x3cf7e8a4	0.030262299
51	0xbd80bf29	-0.06286461
52	0x3c8fd588	0.017557874
53	0xbd6309b2	-0.055429168
54	0x3c9f5962	0.0194518
55	0xbd450cc0	-0.048107862
56	0x3c9ccd8e	0.019140985
57	0xba979371	-0.0011564327
58	0xbd823ba9	-0.063590355
59	0x3c21e662	0.009881588
60	0xbcb773f9	-0.022394167
61	0x3d2dcda1	0.04243243
62	0x3d4f563c	0.05061935
63	0x3cd97ae6	0.02654786
64	0xbd2cfade	-0.042231433
65	0x3cdd623f	0.027024386
66	0x3ba03e80	0.004890263
67	0xbd73fdb8	-0.059568137
68	0xbc5c1268	-0.013432123
69	0x3bfd46d0	0.007729389
70	0xbd80ac9e	-0.06282924
71	0xbd2231ec	-0.03959839
72	0x3d905f06	0.07049374
73	0xbcffa6f4	-0.03120754
74	0x3ceae01d	0.028671319
75	0xbd1c96cb	-0.038229745
76	0x3c8b1b03	0.016980654
77	0x3d0aea49	0.033914838
78	0xbd56b81a	-0.052421667
79	0xbb8a588a	-0.0042219805
80	0xbd07ebf6	-0.033184014
81	0xbd379d74	-0.044827893
82	0x3d51f025	0.05125441
83	0x3c71a705	0.014749293
84	0x3d3e550b	0.046467822
85	0x3c506438	0.0127192065
86	0xbb952d79	-0.00455254
87	0xbc1e5ae0	-0.009665221
88	0xbd42ed02	-0.04758931
89	0x3bafa4f2	0.005360239
90	0xbbd8459b	-0.0066000945
91	0x3d427587	0.047475364
92	0xbac6e3be	-0.0015174074
93	0x3d002677	0.031286683
94	0x3d382442	0.044956453
95	0xbd1831b8	-0.03715679
96	0x3d8bc2af	0.06824242
97	0x3d2220ac	0.03958194
98	0x3cf0138e	0.0293062
99	0xbd63fc02	-0.055660255
100	0x3d59603f	0.053070303
101	0xbd4e7280	-0.050402164
102	0x3d5e6989	0.054299865
103	0xbc69616f	-0.014244421
104	0x3c9c0adf	0.019048152
105	0xbd612540	-0.054967165
106	0x3c2adb15	0.01042821
107	0xbcdee670	-0.02720949
108	0xbbe94ab2	-0.0071195
109	0x3d3e426d	0.046450067
110	0xbd4b642e	-0.049656086
111	0x3d57ebd7	0.05271515
112	0x3d3f454b	0.046696942
113	0xbcf06db0	-0.029349178
114	0xbd6e16b7	-0.05812713
115	0xbd6483a7	-0.055789616
116	0x3d4c2254	0.049837425
117	0x3cfd9faf	0.030959932
118	0x3d616bb9	0.055034373
119	0xbd3fb33e	-0.046801798
120	0x3cfdd4d4	0.030985273
121	0x3b338a17	0.002739554
122	0x3d5449f2	0.051828332
123	0xbc3537e8	-0.011060692
124	0x3d9e6a3c	0.07735106
125	0xbc82a65c	-0.015948467
126	0xbd7966be	-0.060889
127	0xbd668c50	-0.056286156

weight f4 [5, 128]
0	0x3f02ad67	0.5104584
1	0x3f05dc9f	0.52289766
2	0xbd11f210	-0.03563124
3	0x3f024fb4	0.5090287
4	0x3bb07027	0.0053844634
5	0x3c0353e0	0.008015603
6	0xbd0367c0	-0.032081366
7	0x3ec90084	0.39258206
8	0x3f02d1fc	0.5110166
9	0x3efe782e	0.49701065
10	0xbd6f76b9	-0.058462832
11	0xbb636fab	-0.003470401
12	0x3d018c61	0.031628016
13	0x3d0d271f	0.034461137
14	0xbc720d12	-0.014773624
15	0xbcc4219e	-0.023941811
16	0x3d2b7dab	0.041867893
17	0xbd02f1db	-0.031968933
18	0x3ee652b1	0.44984964
19	0x3eecb77f	0.46233746
20	0x3eca6d29	0.39536408
21	0x3ede7fe8	0.4345696
22	0x3ef94c49	0.48691013
23	0x3d2627ff	0.040565487
24	0x3f0012ef	0.5002889
25	0x3ed6074f	0.4180245
26	0x3efe53a6	0.49673194
27	0x3ec3bdbb	0.3823069
28	0x3d94bb04	0.07262233
29	0x3eeb1b2f	0.45919177
30	0x3d8a13c0	0.06742048
31	0x3edf74d7	0.4364383
32	0x3ec5d896	0.38641804
33	0x3d41bb25	0.047297616
34	0xbcc2ff21	-0.023803296
35	0x3d32e600	0.043676376
36	0x3cb4db62	0.022077266
37	0x3f03d891	0.5150233
38	0xbc3e59f6	-0.011618128
39	0x3ef34120	0.47510624
40	0xbd3bdbe6	-0.04586401
41	0x3eecc0f1	0.46240953
42	0x3ecab653	0.39592227
43	0x3ed6c438	0.41946578
44	0x3db142d5	0.08655325
45	0xbd7fc901	-0.06244755
46	0xbd19fb3b	-0.037593108
47	0x3cb9c4c1	0.022676827
48	0x3ebece30	0.37266684
49	0x3db9cf15	0.09072701
50	0x3ed6fc3f	0.41989323
51	0x3d534732	0.05158157
52	0xbd412eba	-0.047163703
53	0x3cc2e72d	0.023791874
54	0x3ef3bfe7	0.47607347
55	0xbd911a65	-0.070851125
56	0x3ef85da6	0.48508948
57	0xbbced4ea	-0.0063120024
58	0xbd9763c9	-0.073920794
59	0x3ef91617	0.48649666
60	0x3ef16f6f	0.4715533
61	0x3d102c22	0.03519834
62	0x3f0037e6	0.50085294
63	0xbcf73de4	-0.030180879
64	0x3ef58b8e	0.47958034
65	0x3ec3f9a1	0.3827639
66	0x3b937cac	0.004500946
67	0xbd990a9c	-0.07472727
68	0x3da60bab	0.08107694
69	0x3db0d22d	0.08633838
70	0x3efb4a47	0.49080107
71	0xbd832e47	-0.06405311
72	0x3f042392	0.51616776
73	0xbd857bff	-0.06517791
74	0x3eefc340	0.4682865
75	0x3f04a3b3	0.51812285
76	0x3daccf15	0.08437935
77	0x3ee976b8	0.45598388
78	0xbd93bc87	-0.07213693
79	0x3ec75577	0.38932392
80	0xbc86d78a	-0.016460199
81	0x3ec831ab	0.39100394
82	0x3ef8650a	0.48514587
83	0xbd7fec40	-0.062481165
84	0x3efbbfe4	0.49169838
85	0xbdb0635e	-0.08612703
86	0x3f041bca	0.516049
87	0x3d50a240	0.050935984
88	0x3d73aae5	0.05948915
89	0x39c228a7	0.00037032852
90	0x3ee941dd	0.45558062
91	0x3d5e4714	0.054267004
92	0x3efb559d	0.49088755
93	0x3f04c4ff	0.5186309
94	0xbd07157f	-0.032979485
95	0xbd4d4d28	-0.05012241
96	0x3edf0057	0.43554947
97	0x3ed23e9c	0.41063392
98	0xbd066bf5	-0.0328178
99	0xbda5fc55	-0.08104769
100	0x3db8a69d	0.09016154
101	0xbdb137fe	-0.08653258
102	0xbd9951d0	-0.074863076
103	0x3ed32080	0.41235733
104	0x3d5b8408	0.05359271
105	0x3d5d394f	0.05400973
106	0xbd578ede	-0.052626483
107	0x3b8c3545	0.004278811
108	0x3ef84787	0.4849207
109	0x3cc4aaca	0.02400722
110	0xbd314a67	-0.043283846
111	0x3ef0702e	0.46960586
112	0xbc2997a1	-0.010351093
113	0x3c28b09a	0.010296011
114	0xbd9d3f2c	-0.07678065
115	0x3cb077d9	0.021541523
116	0xbd352fab	-0.044234913
117	0x3d3b7715	0.045767862
118	0x3f083125	0.5319999
119	0xbd8e0b79	-0.06935782
120	0x3d95c727	0.07313376
121	0x3eec3e9d	0.4614152
122	0x3ee15bfc	0.4401549
123	0x3d9df2bb	0.07712313
124	0x3eed9fa2	0.46410853
125	0xbd7bbe02	-0.061460502
126	0x3cdb48c4	0.026768096
127	0x3d244d5a	0.04011283
128	0x3ee94ff9	0.45568827
129	0x3ec2161e	0.379075
130	0xbd628a80	-0.055307865
131	0x3edeaa8a	0.43489486
132	0xbd0eda36	-0.03487607
133	0xbd3795e7	-0.044820692
134	0xbd8654e9	-0.06559164
135	0x3f056305	0.52104217
136	0x3ee22dcb	0.44175562
137	0x3ecff67e	0.40617746
138	0x3d83d3d0	0.064368844
139	0x3cc2d537	0.02378331
140	0xbdaabb5e	-0.08336519
141	0xbd467950	-0.048455536
142	0xbda4e0f3	-0.08050718
143	0x3d5d6afe	0.054057114
144	0x3d88af41	0.06674052
145	0x3d54be1b	0.05193911
146	0x3eed1e00	0.4631195
147	0x3efaa973	0.48957404
148	0x3ed5a319	0.41725996
149	0x3f02eb92	0.511407
150	0x3ed42b25	0.41439167
151	0x3d85f572	0.065409556
152	0x3ee2a243	0.4426442
153	0x3edf29ca	0.4358657
154	0x3ee62c59	0.4495571
155	0x3efd91d5	0.49525324
156	0xbd534162	-0.051576026
157	0x3eebe2b6	0.46071404
158	0x3d17cf32	0.03706283
159	0x3f00f26e	0.5036992
160	0x3ee340eb	0.44385466
161	0xbdad29ca	-0.08455236
162	0x3d9c6a64	0.0763748
163	0x3d6db8f8	0.058037728
164	0xbd2a3405	-0.041553516
165	0x3f034e8f	0.51291746
166	0x3d747a1a	0.059686758
167	0x3ec6e547	0.388468
168	0xbd27d686	-0.04097607
169	0x3efc9977	0.49335834
170	0x3efbeb23	0.49202833
171	0x3ef9f605	0.4882051
172	0x3ce3ee84	0.027823694
173	0xbd601960	-0.0547117
174	0xbdaa1b9d	-0.08306048
175	0xbcf0868b	-0.02936103
176	0x3ec1a8eb	0.37824187
177	0xbd52f98b	-0.051507514
178	0x3edf3717	0.43596718
179	0x3d8da3a0	0.069159746
180	0xbcc547b9	-0.024082052
181	0x3da7270b	0.08161744
182	0x3efdf37f	0.49599835
183	0x3c9ad796	0.018901628
184	0x3ef80485	0.48440948
185	0xbc9f7904	-0.019466884
186	0x3cf1ca3a	0.029515374
187	0x3ee77cd5	0.45212427
188	0x3f04cebf	0.5187797
189	0xbc84e40b	-0.01622202
190	0x3ed7f9b2	0.4218269
191	0x3d5985c4	0.053106084
192	0x3f05789a	0.5213715
193	0x3efa7597	0.4891784
194	0xbd8d08b3	-0.06886425
195	0xbc46ac61	-0.012126059
196	0x3cd72af4	0.026265599
197	0x3db2f20b	0.08737572
198	0x3edda313	0.43288478
199	0x3db60975	0.088885225
200	0x3ebb622b	0.36598334
201	0x3cc02f46	0.023460042
202	0x3ef64344	0.48098195
203	0x3f03aec6	0.5143856
204	0x3ca94eed	0.020667518
205	0x3eec55dc	0.46159256
206	0x3d0217e2	0.031761058
207	0x3f01deb5	0.5073045
208	0xbcb0dee0	-0.02159065
209	0x3f04ddd1	0.51900965
210	0x3eee02bc	0.4648646
211	0xbda9febb	-0.08300539
212	0x3ec38e82	0.38194662
213	0x3d9084bb	0.07056566
214	0x3ed38f4a	0.41320258
215	0xbd36ba2f	-0.044611152
216	0x3d85decb	0.06536635
217	0x3d82e824	0.063919336
218	0x3ef3d05a	0.47619897
219	0xbd1dd415	-0.038532335
220	0x3eda7e8d	0.42674676
221	0x3f03389f	0.5125827
222	0x3d88fd0f	0.06688892
223	0xbd3f829e	-0.046755426
224	0x3ef2060f	0.47270247
225	0x3ed6b15d	0.41932192
226	0xbbd6e7d7	-0.006558399
227	0x3d814fd5	0.06314055
228	0xbda2d0da	-0.079499915
229	0x3daaacd4	0.083337456
230	0xbd759c38	-0.059963435
231	0x3ef94372	0.4868427
232	0x3d35f989	0.04442743
233	0x3d92dd88	0.0717116
234	0xbd11cb44	-0.03559424
235	0xbd666711	-0.056250636
236	0x3ef61b74	0.4806782
237	0x3d015558	0.03157553
238	0x3cd6f78a	0.026241083
239	0x3ef19422	0.4718333
240	0xbd5acf07	-0.053420093
241	0x3d9b9067	0.07595902
242	0xbcf65b9c	-0.03007298
243	0xbd834e80	-0.06411457
244	0x3d50d085	0.05098011
245	0xb9ac6f4d	-0.00032889322
246	0x3ef9f6b1	0.48821023
247	0x3c5e458b	0.013566385
248	0xbd27a2b2	-0.040926643
249	0x3ef6fca7	0.48239633
250	0x3efeaec2	0.49742705
251	0xbd0eeb6e	-0.034892492
252	0x3efdd589	0.49576977
253	0x3d33eb69	0.043925676
254	0xbda30460	-0.07959819
255	0xbd1cf812	-0.038322516

bias f4 [5]
0	0x3e0aba6a	0.13547674
1	0xbd942622	-0.07233836
2	0x3e23de85	0.16002853
3	0xbe4bdfc0	-0.19909573
4	0x3de532c5	0.11191324
