dqn_models/dqn_model_ver4.pth (torch, 401102 bytes, 6 tensors)

weight f4 [256, 256]
0	0x3d408c2e	0.047008686
1	0xbc2ada58	-0.010428034
2	0x3cf33f9c	0.029693417
3	0xbd197c60	-0.03747213
4	0xbd4d6ad6	-0.050150715
5	0xbb41abc0	-0.0029551834
6	0x3bda1500	0.0066553354
7	0x3d756aec	0.05991642
8	0xbd6ea248	-0.058260232
9	0x3c49fb28	0.012327947
10	0x3d1a3686	0.037649654
11	0x3d0ab914	0.03386791
12	0xbccca0a4	-0.024978943
13	0xbcca725c	-0.024712734
14	0xbd7be78c	-0.061500117
15	0xbb055f20	-0.0020350888
16	0xbd564f68	-0.05232182
17	0xbce1ad84	-0.027548559
18	0x3c80f610	0.015742332
19	0xbc9f7238	-0.019463643
20	0x3d06a0ae	0.03286808
21	0x3d5563f6	0.052097283
22	0x3b5184e0	0.0031970069
23	0x3cae7c68	0.021299556
24	0x3cd526f4	0.02601955
25	0xbd53a0e2	-0.0516671
26	0xbd1843a6	-0.03717389
27	0xbc342c08	-0.010996826
28	0xbb578440	-0.0032885224
29	0xbbc9b410	-0.0061554983
30	0xbd305b8c	-0.043056056
31	0xbd13d9aa	-0.036096253
32	0xbcb091f0	-0.021553963
33	0x3c15eda0	0.0091508925
34	0xbd422a8c	-0.047403857
35	0x3baa5200	0.0051977634
36	0xbc6725d8	-0.014108144
37	0xbd134ba2	-0.0359608
38	0xba803180	-0.0009780377
39	0x3c9d3a34	0.019192792
40	0xbd588710	-0.05286318
41	0xbcf4e994	-0.029896535
42	0x3d19fe72	0.037596174
43	0x3d0f6b9e	0.03501474
44	0xbd2128b8	-0.039345473
45	0x3d1cf49e	0.038319223
46	0xbd13763a	-0.03600142
47	0x3c349fc0	0.0110244155
48	0xbd2a6a98	-0.041605562
49	0x3d28bc2c	0.04119508
50	0x3c8b1bac	0.016980968
51	0x3d4afa30	0.049555004
52	0x3d3fa450	0.04678756
53	0x3cfd5efc	0.030929081
54	0xbd7d3fb4	-0.06182833
55	0x3d4b836e	0.049685888
56	0x3d6247ba	0.055244185
57	0xbd270b24	-0.04078211
58	0xbd63ecd4	-0.05564578
59	0xbd0c89f4	-0.03431125
60	0xbd34c15c	-0.044129714
61	0x3cb0e900	0.021595478
62	0xbd20eb56	-0.039286934
63	0xbd33ff30	-0.043944538
64	0x37f70000	2.9444695e-05
65	0x3c812f48	0.015769616
66	0xbcf54c74	-0.029943682
67	0x3d4d0c7a	0.050060727
68	0x3d138728	0.036017567
69	0xbd2aa0ca	-0.041657247
70	0x3bca4a70	0.0061734244
71	0xbc0674f8	-0.008206598
72	0xbd7a3b6e	-0.061091833
73	0x3d6a4884	0.057198063
74	0xbcf4050c	-0.029787563
75	0x3c83ca10	0.016087562
76	0xbd2ed1be	-0.042680494
77	0xbd31ef5c	-0.04344116
78	0x3d6fc64e	0.058538727
79	0x3d6afb9c	0.05736886
80	0x3a4b9c80	0.0007767156
81	0xbba3bab0	-0.00499662
82	0x3cf29b54	0.029615082
83	0xba94a0c0	-0.0011339411
84	0xbb80a450	-0.0039258376
85	0xbba43c70	-0.0050120875
86	0xbd72fec2	-0.059324987
87	0xbd4b2bd2	-0.049602337
88	0x3d108d94	0.03529127
89	0x3c291880	0.010320783
90	0xbc76bfb0	-0.01506035
91	0x3cf1eafc	0.029530995
92	0x3d21b482	0.039478786
93	0x3d25f1c0	0.040513754
94	0x3d36e400	0.04465103
95	0x3c8d83b0	0.017274708
96	0xbd0202fe	-0.031741135
97	0xbab38dc0	-0.0013698861
98	0xbc57c860	-0.013170332
99	0xbd1d5ad8	-0.038416713
100	0x3af67b40	0.0018805042
101	0xbd065e16	-0.03280457
102	0x3c784200	0.015152454
103	0x3cf63ee4	0.030059285
104	0x3d7978de	0.060906284
105	0x3d4de676	0.050268613
106	0xbd02a760	-0.031897902
107	0xbb1eff40	-0.0024261028
108	0x3d451ac6	0.048121236
109	0xbd2d29c6	-0.042276166
110	0xbc3b6750	-0.011438206
111	0xbd439c0c	-0.04775624
112	0x3d321c6a	0.04348413
113	0x3c3dc9a0	0.011583716
114	0x3af95380	0.0019022077
115	0xbc574720	-0.013139516
116	0xbd238034	-0.039917186
117	0xbd36bfa2	-0.04461635
118	0x3ce8c4dc	0.028414182
119	0xbc0ace28	-0.008472003
120	0x3d548dd8	0.051893085
121	0xbc4ead70	-0.012614593
122	0x3bc71520	0.0060755163
123	0xbcdf1780	-0.027232885
124	0xbbe428a0	-0.0069628507
125	0x3c0b5408	0.008503921
126	0xbd1d864c	-0.038458154
127	0x39f1ce00	0.00046120584
128	0x3bbb59f0	0.0057175085
129	0xbb4c54c0	-0.0031178445
130	0xbd4accaa	-0.04951159
131	0xbd10f940	-0.035393953
132	0x3d233cca	0.039852895
133	0x3d602b3e	0.05472874
134	0xbd69eaa4	-0.057108536
135	0xbc76e8a8	-0.015070118
136	0x3d0225b4	0.031774238
137	0xbd65f5b4	-0.056142524
138	0x3d242244	0.04007174
139	0xbd3629f2	-0.044473596
140	0x3cdb17d0	0.026744753
141	0xbc4e8ad8	-0.012606345
142	0xbd5ed2e0	-0.054400325
143	0x3d0d1de2	0.034452327
144	0x3c3cd3d0	0.011525109
145	0xbb6afe80	-0.003585726
146	0x3c2c41e0	0.010513753
147	0xbd720dea	-0.0590953
148	0xbcd4ff90	-0.026000768
149	0x3d6b3ff4	0.057434037
150	0x3c3d85c8	0.0115675405
151	0x3c864a88	0.016392961
152	0xbce06340	-0.027391076
153	0xbccd99e0	-0.025097787
154	0x3d775032	0.060379215
155	0xbc3bb310	-0.011456266
156	0x3d0c0a08	0.034189254
157	0xbd26b9ec	-0.040704653
158	0x3d5ffdfe	0.054685585
159	0x3d74a79a	0.05973015
160	0x3b4217a0	0.0029616132
161	0x3d0dfd78	0.034665555
162	0x3d66726e	0.056261472
163	0xbc1aad50	-0.009440735
164	0xbd415e46	-0.047209047
165	0xbcdab088	-0.026695505
166	0x3c703d88	0.014663108
167	0xbccd9524	-0.02509553
168	0xbd438082	-0.047729976
169	0x3cac32e8	0.021020368
170	0xbd3f19d6	-0.0466555
171	0xbce4b558	-0.027918503
172	0x3d570630	0.052496135
173	0xbc89ced0	-0.016822249
174	0x3cba6900	0.022755146
175	0xbd44135e	-0.047870032
176	0x3a007d00	0.0004901439
177	0x3ce98cc8	0.028509513
178	0xbd2967bc	-0.041358694
179	0xbcee5454	-0.029092945
180	0xbd43cc0c	-0.047802016
181	0xbcdcbe28	-0.026946142
182	0x3d014886	0.031563304
183	0xbc900d18	-0.017584369
184	0xbcc3a240	-0.023881078
185	0xbcfe8ab4	-0.031071998
186	0xbcc014f4	-0.023447491
187	0xbcefa264	-0.029252239
188	0x3cb88100	0.02252245
189	0x3ba382a0	0.004989937
190	0xbc520dc0	-0.012820661
191	0x3cd10314	0.025514163
192	0xbca4a450	-0.020097882
193	0xbc81bc28	-0.01583679
194	0xbc5793a0	-0.013157755
195	0xbc82c280	-0.015961885
196	0x3b90a640	0.00441435
197	0xbd3992c8	-0.045305997
198	0xbd575ebe	-0.052580588
199	0x3cd38c98	0.025823876
200	0xbd3ad916	-0.045617186
201	0xbd0e09b0	-0.034677207
202	0x3cca4d2c	0.024695002
203	0x3c3d7fb8	0.011566095
204	0xbb9810a0	-0.0046406537
205	0x3d5af200	0.053453445
206	0xbc73eb68	-0.014887668
207	0xbc9f75d0	-0.019465357
208	0x3d23c800	0.039985657
209	0x3bea5850	0.007151641
210	0xbd0cb66c	-0.03435366
211	0x3d47fc20	0.04882443
212	0x3c9c2278	0.019059405
213	0x3bafa830	0.0053606257
214	0x3ce38f44	0.027778275
215	0x3d5a1736	0.053244792
216	0xbd622be0	-0.055217624
217	0x3b1bc3c0	0.00237678
218	0xbd38c282	-0.045107372
219	0x3d66fe98	0.056395143
220	0x3d0d162a	0.034444965
221	0xbd16e55c	-0.036839828
222	0x3d70b618	0.058767408
223	0x3b8d4120	0.004310742
224	0x3d302da8	0.04301229
225	0xbd3b1ab0	-0.045679748
226	0xbd4633f2	-0.048389383
227	0xbcfab3a4	-0.030603237
228	0x3c948390	0.01812914
229	0x3d14e7f8	0.036354035
230	0xbd54b1e6	-0.05192747
231	0x3c98fba8	0.018674687
232	0xbcccaa74	-0.024983622
233	0x3d709134	0.058732226
234	0x3d03783a	0.03209708
235	0xbd78b700	-0.060721397
236	0xbd774a80	-0.060373783
237	0x3d3735f8	0.044729203
238	0x3c740268	0.014893152
239	0xb94e6400	-0.00019682944
240	0x3ce0df60	0.027450264
241	0xbd3d5fd4	-0.046233967
242	0xbd1e49b0	-0.038644493
243	0x3d43c0d4	0.047791317
244	0xbbd6bc00	-0.006553173
245	0x3d398ac8	0.045298368
246	0xbd56df18	-0.052458853
247	0x3cc2c18c	0.023773931
248	0xbaea2900	-0.0017865002
249	0xbc49e448	-0.012322493
250	0x3cadb8c8	0.021206275
251	0x3d515c30	0.051113307
252	0xbccd3ea8	-0.02505429
253	0xbd5c5302	-0.0537901
254	0xbc536a80	-0.01290381
255	0x3cd893c8	0.026437655

bias f4 [256]
0	0xbd52a298	-0.051424593
1	0xbce49968	-0.027905181
2	0x3cc1163e	0.023570176
3	0xbd7f2f48	-0.06230095
4	0xbd31bf68	-0.04339543
5	0xbd61ead8	-0.055155605
6	0xbc4adf29	-0.012382307
7	0x3c9d7dac	0.019224964
8	0x3d00eebe	0.031477682
9	0xbd5ebfd2	-0.054382153
10	0xbce2d1ec	-0.02768799
11	0xbd4613cc	-0.048358724
12	0x3d86eb2a	0.06587823
13	0x3d635eed	0.05551045
14	0x3cc01ee6	0.023452234
15	0xbaaba40b	-0.0013095153
16	0xbcf4b114	-0.029869594
17	0x3d7c3b3f	0.06157994
18	0xbd329b30	-0.04360503
19	0x3d8af7a5	0.06785516
20	0x3c943a90	0.018094331
21	0x3c22ef3b	0.009944732
22	0x3d864407	0.06555944
23	0xbcb78a4c	-0.022404812
24	0xbd6f7fb2	-0.05847139
25	0xbc17ef8f	-0.009273424
26	0xbd8ede70	-0.0697602
27	0xbc201328	-0.009770192
28	0xbce72988	-0.028218046
29	0xbcecc900	-0.028904438
30	0x3cbb0d62	0.02283353
31	0x3d2ad4e1	0.041706923
32	0xbd2d80b7	-0.04235908
33	0x3d912c67	0.07088547
34	0x3d18236b	0.037143152
35	0xbd380090	-0.04492241
36	0x3d0ce641	0.034399275
37	0x3d6304c1	0.055424456
38	0x3d026d28	0.03184238
39	0x3cad6a84	0.021168955
40	0x3db58011	0.08862317
41	0xbd1a6a9a	-0.03769932
42	0x3c93d154	0.018044151
43	0xbcd5a0dc	-0.02607768
44	0x3d38cb46	0.04511573
45	0xbd3374ae	-0.043812446
46	0x3d6fb285	0.05851986
47	0x3c6ae520	0.014336854
48	0xbd6e5f2e	-0.05819624
49	0x3a13db9c	0.00056403293
50	0xbc8c8633	-0.017153835
51	0x3d1d6380	0.03842497
52	0x3d602b05	0.054728527
53	0xbc2304f8	-0.009949915
54	0x3d7dc5ea	0.061956324
55	0x3c1ce310	0.00957562
56	0xbbbf2293	-0.005832979
57	0x3c15fa60	0.009153932
58	0xbcf8f31c	-0.030389361
59	0xbb6f3c99	-0.0036504625
60	0xbc508b00	-0.012728453
61	0xbcc28c32	-0.023748491
62	0x3cfa1ca4	0.030531235
63	0x3c7bd653	0.015370923
64	0xbc9ca85a	-0.019123245
65	0xbcfe6e80	-0.03105855
66	0x3d80ea8c	0.06294736
67	0x3c605b51	0.0136936465
68	0xbd369117	-0.044571962
69	0xbd243ac8	-0.04009512
70	0xbc831920	-0.016003191
71	0x3ce7ada1	0.028281035
72	0xbc930d40	-0.017950654
73	0x3c16f8eb	0.00921462
74	0x3b818260	0.0039523095
75	0x3c3c23c0	0.011483133
76	0x3cd0115b	0.0253989
77	0x3d5f8a06	0.05457499
78	0xbd6a4386	-0.0571933
79	0x3c8c9d1c	0.01716476
80	0xbd7b5094	-0.061356142
81	0x3c0d030e	0.008606685
82	0xbd349fac	-0.044097587
83	0xba947840	-0.0011327341
84	0xbd03653e	-0.032078974
85	0x3dbedb21	0.09319139
86	0x3d64c793	0.05585439
87	0x3bcb1bd1	0.0061983843
88	0x3cf41af8	0.029798016
89	0x3d22c9c2	0.039743192
90	0xbd4d6e06	-0.050153755
91	0x3d258214	0.040407255
92	0x3d5bccdd	0.05366217
93	0x3c84e34c	0.016221665
94	0xbd6c0bce	-0.057628445
95	0x3d2466c4	0.040137067
96	0x3d0079ef	0.031366285
97	0xb9b098a5	-0.00033683065
98	0xbab99580	-0.0014158934
99	0x3c1e505e	0.009662716
100	0x3d927f46	0.07153182
101	0x3d66c2f9	0.056338284
102	0x3db9a30f	0.09064304
103	0xbd04250e	-0.0322619
104	0x3d5697ea	0.05239097
105	0x3d1a808a	0.03772024
106	0x3d4d9201	0.05018807
107	0xbd3d580a	-0.04622654
108	0x3b4a9580	0.0030911863
109	0xbd26c64d	-0.040716458
110	0x3c9b5c01	0.01896477
111	0x3d61c4eb	0.055119436
112	0x3d250ec6	0.040297292
113	0xbd4186f2	-0.047247835
114	0xbd1deb25	-0.03855433
115	0x3db1417d	0.08655069
116	0xbc537e38	-0.012908511
117	0xbd3ba482	-0.045811184
118	0xbd15cbd2	-0.03657133
119	0xbbc0e650	-0.0058868304
120	0x3d75339f	0.059863683
121	0x3d0ce608	0.034399062
122	0xbcc3b6dc	-0.023890905
123	0x3da2debc	0.079526395
124	0x3dbd7fe0	0.09252906
125	0xbcc217c0	-0.023692966
126	0xbd65eece	-0.056135945
127	0x3d3e2d07	0.04642966
128	0x3cdef6b4	0.027217247
129	0xbbb085a0	-0.005387023
130	0x3d675f14	0.056487158
131	0xbd105de8	-0.035245806
132	0xbc636f48	-0.013881512
133	0xbd58b102	-0.052903183
134	0xbd777b4a	-0.060420312
135	0xbd4ab532	-0.049489208
136	0x3cd99a94	0.026562966
137	0xb9b8ec00	-0.0003527105
138	0xbd0ba39c	-0.034091577
139	0xbd0c59e2	-0.034265406
140	0x3db0d339	0.086340375
141	0x3d91a20c	0.07110986
142	0x3d9a80a3	0.07544067
143	0x3d2a3321	0.041552667
144	0x3d001042	0.031265505
145	0x3d15c06e	0.03656047
146	0x3d21b6ad	0.039480854
147	0xbbe334a0	-0.0069337636
148	0x3cb05275	0.021523694
149	0xbcdae955	-0.02672259
150	0xbaf18e40	-0.0018429235
151	0xbd763f34	-0.06011887
152	0xbd26ac8a	-0.04069189
153	0x3ce32515	0.027727643
154	0x3c3876c0	0.011258781
155	0x3c677877	0.014127842
156	0x3d633413	0.055469584
157	0x3d3f14c0	0.046650648
158	0xbd3817d5	-0.044944603
159	0xbd7a327c	-0.061083302
160	0xbd465ff5	-0.048431356
161	0x3c12b846	0.008955067
162	0xbcda109d	-0.02661925
163	0xbd50bc9a	-0.050961114
164	0x3d5bcb2f	0.053660568
165	0x3c3917a2	0.011297138
166	0x3ca21d36	0.01978932
167	0xbd780b00	-0.060557365
168	0x3dacc7a7	0.08436518
169	0x3bec3650	0.007208623
170	0x3c20f6c4	0.0098244585
171	0xbd6585d8	-0.056035846
172	0x3d25e776	0.04050394
173	0xbcc05046	-0.023475777
174	0x3c8283fc	0.015932076
175	0xbc83bba8	-0.016080692
176	0x3bf85afb	0.007579205
177	0x3c4bcefe	0.0124394875
178	0x3cc30ea9	0.023810701
179	0xbbe8cb69	-0.0071043265
180	0x3d068d1e	0.032849424
181	0x3d230e25	0.03980841
182	0x3d05da14	0.03267868
183	0xbbed92ea	-0.0072501795
184	0x3ae60640	0.001754947
185	0x3cb73d0c	0.022367977
186	0xbd57a556	-0.05264791
187	0x3c0f1df4	0.008735169
188	0x3d242929	0.040078316
189	0xbcac4688	-0.021029726
190	0xbc7902c0	-0.01519841
191	0xbcaab063	-0.02083606
192	0xbd26b6de	-0.04070174
193	0x3d59cbbf	0.053172823
194	0x3b4512cd	0.003007102
195	0x3db4a086	0.0881968
196	0xbd690144	-0.056885973
197	0x3b911469	0.004427482
198	0x3d1fe5ba	0.039037444
199	0xbd4103f4	-0.04712291
200	0xbcdbb504	-0.026819713
201	0xbd393ac4	-0.04522206
202	0xbc6291ce	-0.013828708
203	0x3c88ac20	0.016683638
204	0xbc094c20	-0.008379966
205	0xbd4d9596	-0.050191484
206	0x3d401e35	0.046903808
207	0xbca794fc	-0.020456783
208	0xbd2a5ff6	-0.04159542
209	0xbc8114b8	-0.01575695
210	0x3db9e948	0.09077698
211	0xbc7bc278	-0.015366189
212	0xbaa53980	-0.0012605637
213	0xbd5b7884	-0.05358173
214	0xbd4716c8	-0.04860571
215	0x3dad66be	0.08466862
216	0xbc989265	-0.018624494
217	0xbcd0616c	-0.02543708
218	0x3d6eb59c	0.058278665
219	0x3dc246ad	0.094861366
220	0x3cf53eed	0.029937232
221	0x3d3a0b0e	0.0454207
222	0x3d88aa96	0.06673162
223	0xbd396e02	-0.045270927
224	0x3c3ac4bf	0.011399447
225	0xbd2ffc18	-0.042965025
226	0xbc04b0b4	-0.00809877
227	0xbd22c142	-0.039735086
228	0xbd2efe88	-0.04272321
229	0x3b9877b3	0.004652941
230	0xbd36bb1f	-0.044612046
231	0xbd28ff58	-0.04125914
232	0xbd6f5cf1	-0.058438245
233	0xbd534823	-0.051582467
234	0x3d78bf3a	0.060729243
235	0x3aeb76f5	0.0017964529
236	0xbd6c3a4c	-0.057672784
237	0x3c105021	0.008808167
238	0xbd5e47e4	-0.05426778
239	0xbccf7fd7	-0.025329513
240	0xbd12cda6	-0.035840653
241	0x3c986c30	0.018606275
242	0x3cd52460	0.026018322
243	0x3d06aef8	0.032881707
244	0x3d0c4f2c	0.03425519
245	0x3d38d186	0.045121692
246	0x3a985c00	0.0011624098
247	0xbcb7c256	-0.022431534
248	0x3c618caa	0.013766447
249	0x3c486c56	0.012232861
250	0xbd5fc005	-0.054626483
251	0xbade4e34	-0.0016960562
252	0xbc4a2560	-0.012338012
253	0xbc920a5c	-0.017827205
254	0xbc249809	-0.010046014
255	0xbd2f76dd	-0.042837966

weight f4 [128, 256]
0	0x3d27e13c	0.040986285
1	0x3cccf63c	0.025019757
2	0xbb02d1b8	-0.0019961428
3	0x3cb0d104	0.021584041
4	0xbc83986c	-0.016063891
5	0x3b021560	0.0019849166
6	0x3c4163f8	0.01180362
7	0xbd470fba	-0.048598982
8	0xba8ee388	-0.001090155
9	0x3c5546a8	0.013017334
10	0x3cffbb38	0.031217203
11	0xbd1f492c	-0.03888814
12	0x3ebcc6cc	0.3687042
13	0x3f494525	0.7862113
14	0x3ca1ef83	0.019767528
15	0x3f15d86f	0.58533376
16	0xbd2a1c92	-0.041531153
17	0x3f5b7b0d	0.85734636
18	0x3d37a032	0.04483051
19	0x3eb94145	0.3618261
20	0x3c252578	0.010079734
21	0xbbd57ee8	-0.0065153725
22	0x3f7484b5	0.95514995
23	0x3cc27504	0.023737438
24	0xbd460c22	-0.048351415
25	0x3ef64894	0.48102248
26	0x3d3a65cf	0.04550725
27	0xbd0f7696	-0.0350252
28	0x3c77e788	0.015130885
29	0x3d422ada	0.047404148
30	0x3d3f9bd3	0.046779465
31	0xbcb264fa	-0.021776665
32	0x3d4689de	0.048471324
33	0x3edbbed0	0.42919016
34	0x3ed392c4	0.4132291
35	0x3d379674	0.044821218
36	0x3f13d035	0.57739574
37	0xbd450ac1	-0.04810596
38	0xbcf232b4	-0.029565193
39	0xbd22e248	-0.03976658
40	0x3ebb8d9f	0.36631486
41	0xbd46a846	-0.04850032
42	0x3ecca40b	0.39968905
43	0x3d01b400	0.031665802
44	0xbd548230	-0.05188197
45	0x3d2ea364	0.04263629
46	0x3f1d437f	0.61431116
47	0x3c912a24	0.01772029
48	0x3d242ec8	0.040083677
49	0x3f8949c4	1.0725636
50	0xbbf373bf	-0.0074295695
51	0x3d6975b9	0.056997035
52	0x3c418609	0.011811742
53	0x3d144bac	0.03620498
54	0x3f9366c7	1.151574
55	0x3cbccb68	0.02304621
56	0xbc95ff20	-0.01831013
57	0xbccc2ef3	-0.02492473
58	0x3f679ee2	0.9047681
59	0x3ce15be3	0.027509635
60	0xbc7b7048	-0.015346594
61	0x3abb74cd	0.0014301777
62	0xbd279a55	-0.040918667
63	0x3d83fd28	0.0644477
64	0xbd01f970	-0.031732023
65	0x3b6a3340	0.0035736114
66	0x3fb21269	1.3911868
67	0x3ec7dce9	0.3903573
68	0x3f0a7566	0.54085386
69	0x3caa2d24	0.020773478
70	0x3c6ce460	0.014458746
71	0xbc363dfd	-0.011123178
72	0xbc1b5078	-0.009479634
73	0xbd5fbfa2	-0.054626115
74	0x3c5605b8	0.013062887
75	0xbc8b2f34	-0.016990282
76	0xbd58e011	-0.05294806
77	0x3f160eb4	0.58616185
78	0x3a757500	0.00093634427
79	0xbd760832	-0.06006641
80	0x3d539666	0.051657103
81	0x3f46788a	0.7752768
82	0x3ce19590	0.027537137
83	0x3d7803fc	0.060550675
84	0xbd46a5ae	-0.04849785
85	0x3ec1255f	0.37723824
86	0x3f5717a7	0.84020466
87	0x3d9bfeb8	0.07616943
88	0xbd6a670a	-0.057227172
89	0x3eadcc28	0.3394482
90	0xbd0fec6a	-0.03513757
91	0xbc93f138	-0.018059358
92	0x3d17977a	0.037009694
93	0x3d3d87fa	0.046272255
94	0xbd72e958	-0.059304565
95	0x3d076374	0.03305383
96	0x3ed17db8	0.40916228
97	0x3d7446e5	0.059637923
98	0x3d1569a0	0.036477685
99	0x3fda06ee	1.7033365
100	0x3ea630cb	0.324591
101	0xbc93d48f	-0.018045692
102	0x3ec15934	0.3776337
103	0x3af1eac0	0.0018456802
104	0x3ece6440	0.4031086
105	0x3f292e18	0.6608596
106	0x3cd752b2	0.02628455
107	0x3c112630	0.008859202
108	0x3cf94888	0.030430093
109	0x3b48abad	0.0030619905
110	0x3face40b	1.3507093
111	0xbcf17113	-0.029472863
112	0x3f0aa423	0.541567
113	0xbc8c3680	-0.017115831
114	0xbcfa77db	-0.03057473
115	0x3edb3a47	0.428179
116	0x3bb3a280	0.005482018
117	0x3ba69f60	0.005084917
118	0x3ccfd840	0.02537167
119	0x3d560954	0.05225499
120	0x3f89f4c1	1.0777818
121	0x3f51eae7	0.8199906
122	0xbbb8bb0e	-0.005637533
123	0x3ed07875	0.407169
124	0x3ebcdde4	0.3688804
125	0xbb7840a0	-0.0037880316
126	0xbc7baeb4	-0.015361477
127	0x3ebeebc1	0.3728924
128	0xbca3d6c0	-0.019999862
129	0xbd71369e	-0.058889978
130	0x3ef56e8b	0.479359
131	0xbd00559a	-0.031331636
132	0x3c1682b8	0.009186439
133	0x3d423c5a	0.047420837
134	0xbd171b16	-0.036891066
135	0x3d3db960	0.046319366
136	0xbd14f376	-0.036364995
137	0x3d6ef59a	0.058339693
138	0x3c9db7f0	0.019252747
139	0x3cc74258	0.024323627
140	0x3ea9cf9b	0.33166203
141	0x3f8137af	1.0095118
142	0x3ec22589	0.37919262
143	0x3f1ed7f2	0.62048256
144	0x3f883258	1.0640364
145	0x3f716442	0.94293606
146	0x3f157114	0.5837567
147	0x3ca4f96c	0.020138465
148	0x3d6a7cef	0.057248052
149	0x3eecefaf	0.46276614
150	0x3d2292f4	0.039690927
151	0xbd20af1a	-0.03922949
152	0x3f07a2f7	0.5298304
153	0x3bbdbb02	0.0057901153
154	0x3ca5db1c	0.020246081
155	0x3f0ec0cb	0.5576293
156	0x3f24b2fe	0.6433562
157	0xbba59330	-0.0050529465
158	0x3d1a5bc2	0.037685163
159	0x3d1e035a	0.038577415
160	0x3d4acd8e	0.04951244
161	0xbce35c80	-0.027754068
162	0x3ef1db84	0.4723779
163	0x3d2ba52c	0.041905567
164	0x3f060e21	0.5236531
165	0x3d76dd76	0.060269795
166	0xbd0bec4a	-0.03416089
167	0xba9bc980	-0.0011885613
168	0x3ed8de6f	0.42357203
169	0x3c0e0870	0.008669004
170	0x3f8c9a1b	1.0984529
171	0x3ede4550	0.43412256
172	0xbd1c3b66	-0.038142584
173	0xbc7c57a6	-0.015401756
174	0x3d2ec122	0.042664655
175	0xbd06b942	-0.03289152
176	0x3c33dac9	0.010977455
177	0xbbf96099	-0.0076103923
178	0x3f336dc0	0.7008934
179	0x3f2bc97e	0.6710433
180	0xbd0ea5ea	-0.034826197
181	0x3ee8a7e4	0.4544059
182	0x3d4ba9d6	0.049722515
183	0xbceee177	-0.029160244
184	0xbcb0d8e4	-0.021587797
185	0x3d0d0562	0.03442896
186	0x3cf5d670	0.030009478
187	0x3c80e035	0.01573191
188	0x3f1576f6	0.58384645
189	0x3d503f92	0.050841875
190	0x3d0eb650	0.034841835
191	0x3eeac8eb	0.45856413
192	0xbc1f8846	-0.00973708
193	0x3ef67159	0.48133352
194	0xbcf5cebe	-0.030005809
195	0x3ea918ad	0.3302664
196	0x3d59199a	0.05300293
197	0x3f0ce5b7	0.5503802
198	0x3fc64ce3	1.5492214
199	0x3d684d06	0.05671408
200	0xbcf18ee8	-0.029487088
201	0xbcac7b04	-0.021054752
202	0x3f095c97	0.53656906
203	0xbd6b59b4	-0.057458594
204	0x3c866b04	0.01640845
205	0xbd7c5758	-0.061606735
206	0x3ed31f54	0.4123484
207	0x3d572635	0.05252667
208	0x3cb98e98	0.022651002
209	0xbd174ef4	-0.03694053
210	0x3eac08bd	0.33600417
211	0xbbb1e340	-0.0054287016
212	0x3d4b96d8	0.049704403
213	0x3ba9adc0	0.0051781833
214	0xbd48fb98	-0.049068063
215	0x3ed40931	0.41413262
216	0x3f1345a3	0.5752813
217	0xbb7b23e0	-0.0038320944
218	0x3f29ab11	0.6627665
219	0x3ea45dd8	0.32102847
220	0x3f0e6aeb	0.55631894
221	0x3ea30657	0.31840774
222	0x3ec67d2a	0.38767368
223	0x3f0f44cb	0.55964345
224	0xbd572828	-0.05252853
225	0x3c8cdd1c	0.017195277
226	0x3f3ebbb7	0.7450518
227	0x3d11f60e	0.035635047
228	0x3b9e1074	0.0048237387
229	0xbccd8772	-0.025089
230	0x3d68cac3	0.056833994
231	0x3ceae714	0.02867464
232	0x3cc977eb	0.024593314
233	0xbc698b59	-0.0142544145
234	0x3d75cd16	0.06001004
235	0x3d85a2ee	0.06525217
236	0xbd5ccbc2	-0.053905256
237	0x3eed2d1a	0.46323472
238	0xbd3f123c	-0.04664825
239	0x3c26e3de	0.010186164
240	0x3d386697	0.045019712
241	0x3d7b538a	0.061358966
242	0xbcac52a8	-0.021035507
243	0xbd10e9da	-0.03537927
244	0xbd3d5334	-0.046221927
245	0xbd32734c	-0.043566987
246	0x3d68302c	0.056686565
247	0x3ec11a25	0.3771526
248	0x3f23ee84	0.6403582
249	0x3efb1902	0.49042517
250	0xbd28c466	-0.041202925
251	0xbca555b9	-0.020182477
252	0xbd24645a	-0.040134765
253	0xbd4c6c94	-0.049908236
254	0x3edda939	0.4329317
255	0xbbb16722	-0.0054139057

bias f4 [128]
0	0x3dc03e00	0.093868256
1	0xbd206654	-0.039160088
2	0x3dbe59af	0.092944495
3	0xbcf935b4	-0.030421115
4	0xbd27838d	-0.04089694
5	0xbc3474c0	-0.0110141635
6	0xbd63ccac	-0.055615112
7	0x3e3bcaf8	0.18339145
8	0xbd4e5fb2	-0.05038423
9	0xbc45c7e5	-0.012071584
10	0xbd73cc2c	-0.059520885
11	0xbbd19cfe	-0.0063968888
12	0x3dc28eaa	0.09499867
13	0x3d5034b0	0.050831497
14	0xbd76a129	-0.060212288
15	0xbc3acdcb	-0.011401604
16	0x3b65e618	0.0035079774
17	0xbcab5f34	-0.02091942
18	0x3d747ee0	0.05969131
19	0xbc9ce2b3	-0.019151067
20	0xbb9e63a0	-0.0048336536
21	0xba3f96e6	-0.00073085574
22	0x3ca4fc79	0.02013992
23	0x3dede74e	0.116163835
24	0x3e166796	0.14687952
25	0xbcf593a8	-0.029977635
26	0xbcbd2e61	-0.023093404
27	0xbcf589c6	-0.029972922
28	0x3da7aa06	0.08186726
29	0x3dc92350	0.098211884
30	0x3c148cee	0.009066803
31	0xbc261035	-0.0101357
32	0xbd0bd03a	-0.034134127
33	0x3d8c068f	0.068371885
34	0xbd3309f8	-0.04371068
35	0xbd132420	-0.035923123
36	0x3db09f1e	0.08624099
37	0x3d53a88d	0.051674414
38	0x3ca0a45a	0.019609619
39	0x3ec7b6a5	0.39006534
40	0x3ca7954b	0.02045693
41	0xbd7eadba	-0.062177397
42	0xbd5556f2	-0.05208487
43	0xbca1ed18	-0.019766375
44	0x3de419ec	0.11137757
45	0xbd17afb6	-0.037032805
46	0x3bbbd0c0	0.005731672
47	0x3d361c06	0.04446032
48	0x3d485312	0.048907347
49	0x3d218b74	0.039439633
50	0xbd2a2e9b	-0.041548353
51	0xbc383a00	-0.011244297
52	0x3dcaf016	0.09909074
53	0x3d55e03d	0.052215803
54	0xbbc8f74f	-0.006132997
55	0xbd726605	-0.059179325
56	0x3d245ade	0.04012572
57	0xbd1df63c	-0.038564906
58	0xbd708ec2	-0.058729894
59	0xbd668ace	-0.05628472
60	0x3d8be7d3	0.06831326
61	0xbcbc1760	-0.022960365
62	0x3da8c7c0	0.08241224
63	0xbc3990d0	-0.01132603
64	0xbd178eee	-0.037001543
65	0x3dd82c94	0.105553776
66	0xbd1f315e	-0.03886544
67	0xbd2530ea	-0.04032985
68	0xbcb17448	-0.021661893
69	0xbd207e50	-0.03918296
70	0x3da65176	0.08121006
71	0x3cabb9dd	0.02096265
72	0xbbfb4fa7	-0.0076694074
73	0x3dc34587	0.09534746
74	0x3dc042c9	0.09387738
75	0xbd598883	-0.053108703
76	0x3dbc6f34	0.09200898
77	0xbd507ac8	-0.050898343
78	0x3e28499a	0.16434327
79	0x3dab4398	0.08362502
80	0xbd624fc0	-0.055251837
81	0xbc778f35	-0.015109827
82	0xbc85d200	-0.016335487
83	0xbd5126e4	-0.05106248
84	0xbcca8598	-0.024721906
85	0x3d3342bd	0.04376482
86	0x3c632c36	0.013865521
87	0xbc5e2430	-0.013558432
88	0x3d042fca	0.032272138
89	0x3dd9b68c	0.10630521
90	0x3ca16337	0.01970063
91	0xbcdc6df8	-0.026907906
92	0x3e260936	0.16214451
93	0x3c3f9138	0.011692338
94	0x3ce70718	0.028201625
95	0x3c8f6682	0.017504934
96	0xbd30c0d4	-0.043152645
97	0x3d859ceb	0.0652407
98	0xbc2a4c40	-0.010394156
99	0xbc3d1438	-0.011540465
100	0x3cad9967	0.021191312
101	0x3cb4c465	0.022066304
102	0x3d9ed976	0.07756321
103	0xbc0f3990	-0.008741751
104	0x3d3809e4	0.044931307
105	0xbcf7eac5	-0.030263314
106	0x3da4636d	0.080267765
107	0x3cb2efb1	0.02184281
108	0xbc4c0da0	-0.01245442
109	0xbcfd20ac	-0.030899368
110	0xbc831ca4	-0.016004868
111	0x3d3ad937	0.04561731
112	0xbd28da94	-0.041224077
113	0xbc9f3a8c	-0.019437097
114	0x3dafaaf3	0.08577528
115	0x3d4d437d	0.05011319
116	0xbcbad37c	-0.022805922
117	0x3db59fa3	0.08868339
118	0xbd96622f	-0.07342946
119	0x3b2b5ec3	0.0026149012
120	0xbd623302	-0.055224426
121	0xbc7d5f04	-0.015464548
122	0x3da96d46	0.082727954
123	0x3dd5fef5	0.1044902
124	0xbceec850	-0.02914825
125	0xbd01ac8f	-0.031658705
126	0x3c83be9d	0.016082102
127	0x3c972980	0.018452406

weight f4 [5, 128]
0	0x3ed0599f	0.40693375
1	0xbd8a3d50	-0.06749976
2	0x3ec65781	0.38738635
3	0x3d054526	0.03253665
4	0x3ee2dec6	0.44310588
5	0xbcb10244	-0.021607526
6	0x3d726f3f	0.059188124
7	0xbf16712e	-0.5876645
8	0xbcdb05f1	-0.026736232
9	0xbcc1745c	-0.023615055
10	0xbd81e629	-0.06342728
11	0x3cb5c274	0.022187449
12	0x3ee3422c	0.44386423
13	0x3ec72e70	0.38902617
14	0xbda78387	-0.08179384
15	0xbd967088	-0.073456824
16	0xbd5abec4	-0.053404585
17	0x3d29ef52	0.041488
18	0x3ee2bab6	0.44283074
19	0xbd12d00a	-0.035842933
20	0x3d5d8212	0.054079123
21	0x3d96ae97	0.07357519
22	0x3eebe078	0.46069694
23	0x3eae1f6a	0.34008342
24	0xbef4ecc0	-0.47836876
25	0xbda42ba6	-0.08016138
26	0xbd8860e4	-0.066591054
27	0xbbdec785	-0.006798687
28	0x3ece2f8f	0.4027066
29	0x3eb01cdf	0.34397027
30	0x3eb9439d	0.36184397
31	0xbc8a26de	-0.016864236
32	0x3bce4004	0.0062942524
33	0x3ecee845	0.40411583
34	0xbdb25a69	-0.087086506
35	0xbd29b112	-0.041428633
36	0x3eb0f0ae	0.34558624
37	0x3ecb8a43	0.39753923
38	0xbd9a04d9	-0.07520456
39	0xbf1a6b48	-0.6031995
40	0xba8368e0	-0.0010025762
41	0x3d90a4a3	0.07062652
42	0x3d115fb1	0.03549165
43	0x3d859061	0.06521679
44	0x3eb37197	0.350476
45	0xbd9ed5b2	-0.07755603
46	0xbab5ca68	-0.0013869526
47	0x3ecb95c8	0.39762712
48	0x3e9e03d2	0.3086229
49	0xbdb335f0	-0.08750522
50	0x3d9f57a0	0.07780385
51	0xbcf98982	-0.030461077
52	0x3ed6bb71	0.4193988
53	0x3ee0bd19	0.4389427
54	0xbcf20b16	-0.029546302
55	0xbb58c46c	-0.003307606
56	0x3eb507af	0.35357425
57	0x3d468d99	0.04847488
58	0xbad2cfce	-0.0016083659
59	0xbd99eb29	-0.07515556
60	0x3eb10249	0.34572056
61	0xbd51013c	-0.051026568
62	0x3ea2cd5a	0.31797296
63	0x3dae7be7	0.08519726
64	0x3d9da787	0.07697969
65	0x3eb3e0e2	0.3513251
66	0xbc2df7c0	-0.01061815
67	0x3cdbe0c0	0.026840568
68	0x3d53101b	0.05152903
69	0x3ca59d29	0.020216541
70	0x3ea39696	0.31950825
71	0x3ec06830	0.3757949
72	0xbc7bbbdb	-0.015364612
73	0x3ed9ca56	0.42537183
74	0x3ee8b28c	0.4544872
75	0xbc9a10bf	-0.018806813
76	0x3ee9139d	0.45522776
77	0x3dafeb3e	0.08589791
78	0xbf24a79c	-0.6431825
79	0x3ed5a500	0.41727448
80	0xbd8226ad	-0.06355033
81	0x3ede36d4	0.43401206
82	0xbc5981f6	-0.013275614
83	0xbd27b0b2	-0.040939994
84	0xbd964c74	-0.07338801
85	0x3eb8cac6	0.36092204
86	0x3d71dd1f	0.059048768
87	0xbd8caf21	-0.06869341
88	0x3ece02a0	0.40236378
89	0x3ed4f4fe	0.41593164
90	0xbd7504b9	-0.059818957
91	0x3c895da8	0.016768292
92	0xbf216cfe	-0.63056934
93	0xbcfd08b5	-0.03088794
94	0xbd4f68e3	-0.050637137
95	0x3dba6c15	0.09102646
96	0xbd89dddc	-0.067317694
97	0x3ebd3dc0	0.36961174
98	0xbd8bae66	-0.06820373
99	0x3da2dc50	0.079521775
100	0x3ecbca95	0.39802995
101	0x3ede3109	0.43396786
102	0x3ebdd4e6	0.3707649
103	0x3b011d5a	0.0019701333
104	0x3ec7a31b	0.38991627
105	0xbd7fca38	-0.06244871
106	0x3eda64b5	0.42654958
107	0x3d5a00ed	0.05322354
108	0x3d3825b1	0.04495782
109	0x3d28c2dc	0.041201457
110	0xbdb328eb	-0.08748039
111	0x3ec085ab	0.3760198
112	0x3da1ff22	0.07909991
113	0x3c850f4d	0.016242648
114	0x3ee0ac3f	0.43881413
115	0x3ee1ff72	0.44140202
116	0x3daa46f6	0.08314316
117	0x3eb4e397	0.35329887
118	0xbd514d7d	-0.05109929
119	0xbd7207ad	-0.05908935
120	0xbd948abe	-0.072530255
121	0xbc5b841e	-0.013398198
122	0x3ec562c7	0.38551924
123	0xbeda06c7	-0.42583296
124	0xbc5796ca	-0.0131585095
125	0xbcd87674	-0.02642367
126	0xbd935d43	-0.07195523
127	0xbd8a39f3	-0.06749334
128	0x3e9b6bac	0.30355585
129	0x3b6951aa	0.0035601654
130	0x3ec20d35	0.379007
131	0x3c457924	0.012052808
132	0x3ed86e03	0.42271432
133	0xbd9a882f	-0.07545506
134	0xbc81427a	-0.015778769
135	0xbeff2fce	-0.4984116
136	0x3c944b04	0.018102176
137	0x3d7a1fe5	0.061065573
138	0x3cc67b8b	0.024228832
139	0x3bc33ee5	0.0059584253
140	0x3ed3eb30	0.4139037
141	0x3ec0d0d3	0.3765932
142	0xbb2b1942	-0.0026107584
143	0xbc15c370	-0.009140834
144	0xbd4aa2a4	-0.049471512
145	0xbd2d46e0	-0.04230392
146	0x3ee15fc9	0.4401839
147	0x3d7d5c16	0.061855398
148	0xbd5aed90	-0.053449214
149	0xbc303fc6	-0.010757392
150	0x3e9e3e6f	0.30907008
151	0x3ebb33a2	0.3656283
152	0xbed293c9	-0.41128376
153	0xbcd679bc	-0.026181094
154	0xbd76a218	-0.06021318
155	0xbd9318ac	-0.0718244
156	0x3edb0b6c	0.42782152
157	0x3ecc93b4	0.3995644
158	0x3ee54073	0.44775733
159	0x3a1a690e	0.0005890288
160	0x3d5b1a05	0.05349161
161	0x3edeef9c	0.43542182
162	0xbd92a65d	-0.071606375
163	0xbd8a177e	-0.06742762
164	0x3eb96db1	0.362165
165	0x3ece11a0	0.40247822
166	0xbd99275f	-0.074782126
167	0xc0135e70	-2.302639
168	0x3ca99908	0.020702854
169	0xbd55ce08	-0.05219844
170	0xbc94063a	-0.018069375
171	0x3d3f7c39	0.046749327
172	0x3edefa61	0.435504
173	0xbd9d8fc5	-0.076934375
174	0x3d14e74c	0.036353394
175	0x3ee8aec5	0.4544584
176	0x3ec89ffe	0.39184564
177	0x3d164792	0.03668935
178	0xbdd0cfe7	-0.10195904
179	0x3d80e062	0.062927976
180	0x3edda254	0.4328791
181	0x3ed7cd89	0.42148998
182	0x3b9dfff5	0.004821772
183	0xbd15b66b	-0.03655092
184	0x3eb2a9e7	0.3489525
185	0x3d80c875	0.06288234
186	0x3d04219a	0.032258607
187	0x3c8c2cdf	0.01711124
188	0x3ede7ca1	0.4345446
189	0x3ccd5602	0.025065426
190	0x3ed5b80b	0.41741976
191	0xbd76153a	-0.060078837
192	0x3d848574	0.06470767
193	0x3ec7a0ce	0.38989872
194	0x3d76711e	0.06016647
195	0xbcbee60d	-0.023303056
196	0x3d8215a5	0.063517846
197	0xbcc793af	-0.024362413
198	0x3e9a43f6	0.30129975
199	0x3ee25dc3	0.4421216
200	0x3d40be19	0.04705629
201	0x3ebbe72e	0.36699814
202	0x3eccb27e	0.3997993
203	0x3d953c07	0.0728684
204	0x3eccd8ad	0.4000906
205	0x3d729f71	0.059234086
206	0xbefd91e0	-0.49525356
207	0x3ec2fcff	0.38083646
208	0x3cb12388	0.021623388
209	0x3ed164a0	0.40897083
210	0xbbdd99ac	-0.006762704
211	0x3d86a3fb	0.065742455
212	0xbd18ac09	-0.03727344
213	0x3eca2237	0.3947923
214	0x3d4b920e	0.049699835
215	0x3b28ae20	0.0025738552
216	0x3ec303f8	0.38088965
217	0x3ea224a6	0.31668586
218	0x3da6f71b	0.081526004
219	0xbd94bf48	-0.072630465
220	0xbef69a26	-0.4816448
221	0xbca62e9f	-0.020285903
222	0x3dae6ab5	0.085164465
223	0x3e019e7d	0.12658115
224	0xbd9588d4	-0.073014885
225	0x3ea557e3	0.32293615
226	0x3d1648ce	0.036690526
227	0xbb2442ef	-0.002506431
228	0x3ecc2aca	0.39876395
229	0x3eb5e64c	0.35527265
230	0x3edd4206	0.43214434
231	0x3da8be12	0.08239378
232	0x3eca5ea6	0.39525336
233	0x3d91a919	0.07112331
234	0x3edccfdd	0.43127337
235	0xbd022ad6	-0.031779133
236	0x3d1d1bf2	0.03835673
237	0x3d180abc	0.037119612
238	0x3da0f093	0.07858386
239	0x3eb67d0a	0.35642272
240	0xbda24a65	-0.07924346
241	0xbcbd286b	-0.023090562
242	0x3e995893	0.2995039
243	0x3ed180e7	0.40918657
244	0x3daa2196	0.08307187
245	0x3ec4d8cb	0.3844665
246	0xbd53093b	-0.051522475
247	0x3c8bb174	0.01705239
248	0x3d8e420e	0.06946193
249	0x3d26f1f7	0.0407581
250	0x3eb71ffe	0.35766596
251	0xbe57004e	-0.2099621
252	0xbd278e97	-0.04090747
253	0x3c418490	0.0118113905
254	0xbd4b05c1	-0.049566034
255	0xbcf62261	-0.03004569

bias f4 [5]
0	0x3c08bf0f	0.008346333
1	0xbd9b79e4	-0.07591608
2	0x3d49b8fe	0.049248688
3	0x3e0314bb	0.12800877
4	0x3d02278d	0.031776
