dqn_models/dqn_model_ver7.pth (torch, 401172 bytes, 6 tensors)

weight f4 [256, 256]
000000 2c b9 91 bc 90 93 99 bb 5c 04 1c 3d 50 48 81 bc
       -0.017788492 -0.0046867803 0.038090095 -0.015781552
000010 9c a4 4c 3d 50 88 d8 bb c0 5c 9a ba b4 a9 17 3d
       0.04996167 -0.0066080466 -0.0011776909 0.037027076
000020 4c a7 f6 bc 0c 99 db bc 20 e3 b5 3c 3c 15 20 bd
       -0.03010907 -0.026806377 0.022203028 -0.03908275
000030 48 ef 41 bd c8 56 3c bc 5e a3 18 3d 0e a2 1b bd
       -0.047347337 -0.0114953 0.037265174 -0.037996344
000040 0a b9 04 bd c6 36 40 3d 78 34 60 3d e0 a6 6b bd
       -0.03240303 0.046927236 0.054737538 -0.05753219
000050 3e cc 5b 3d fe 1a 4c 3d cc b7 f3 bc fc 4b 4c bd
       0.053661577 0.04983043 -0.029750727 -0.04987715
000060 d2 b1 31 bd d4 1b ef 3c ac d6 0a 3d cc 03 43 bd
       -0.043382473 0.029188074 0.033896133 -0.047611043
000070 7a f4 05 bd 70 35 2e 3d 5c 35 51 bd b4 22 98 3c
       -0.032703854 0.04253143 -0.051076278 0.018571235
000080 40 b4 63 bc a4 14 bd bc ea d7 1d bd f0 2d 32 3c
       -0.013897955 -0.023081131 -0.03853599 0.01087521
000090 8c fc 2f bd 5a 7e 44 bd aa 57 42 3d c8 02 1c bd
       -0.042965457 -0.04797206 0.047446884 -0.03808859
0000a0 e0 32 63 3b c0 76 a0 bb 40 39 23 bc d2 58 1e bd
       0.0034667775 -0.0048969686 -0.00996238 -0.038658924
0000b0 fc d0 f2 bc 20 e2 d1 bb a8 7c 7c 3d 30 66 85 bb
       -0.029640667 -0.00640513 0.06164232 -0.0040710196
0000c0 06 ca 73 3d 8e 35 23 bd c0 26 38 3c 90 59 e5 3b
       0.059518836 -0.039845996 0.0112397075 0.006999202
0000d0 78 25 55 3c 92 56 4f 3d aa 12 71 bd 92 8a 73 bd
       0.0130094215 0.05061967 -0.05885569 -0.059458323
0000e0 f0 f4 74 3d e0 fa 27 3d 00 ae 25 bd e0 c0 ef 3b
       0.059803903 0.041010737 -0.040449142 0.0073166937
0000f0 00 23 07 bb c4 3a e3 3c 74 c1 8c 3c ec e4 88 bc
       -0.0020620227 0.027737983 0.01718209 -0.016710721
000100 d0 2b 23 bd c2 e2 66 3d 28 1c 2b bd 88 06 22 bd
       -0.039836705 0.056368597 -0.0417749 -0.03955701
000110 36 98 22 3d 2c 38 7a bd 68 b9 30 3d 76 87 3c bd
       0.03969594 -0.061088726 0.043145567 -0.046027623
000120 50 11 42 3c e0 f6 be 3c 50 73 84 3c 44 cc fd 3c
       0.011844948 0.023311079 0.016168267 0.03098119
000130 60 c3 3e 3c dc 5b 98 bc 40 29 41 3c 80 31 ff 3c
       0.011643261 -0.01859849 0.01178962 0.031151533
000140 a0 4e 3a 3b 30 a0 51 3d 00 6e fe bc 90 a9 b8 bc
       0.0028428212 0.051178157 -0.031058311 -0.022541791
000150 5a 22 76 3d ea 1e 37 bd 60 04 64 bb f4 cb b5 3c
       0.060091354 -0.044707216 -0.0034792647 0.022191979
000160 98 05 18 3d 00 b4 29 3a 5a d2 37 3d 12 68 1f 3d
       0.03711471 0.00064736605 0.04487834 0.03891761
000170 d0 dc 8d 3c 38 e4 8f bc 34 43 3b bd e8 ab 0f 3d
       0.017317206 -0.017564878 -0.045718387 0.035076052
000180 b4 67 42 3d 6a 07 2d bd 44 8f 97 bc d0 0b 0d 3c
       0.04746218 -0.0422434 -0.018500932 0.008608773
000190 06 0e 53 3d f8 b1 1e bd be 39 47 3d 4c 9d 28 bd
       0.051527046 -0.038743943 0.04863905 -0.041165635
0001a0 9c 19 45 3d 60 f7 21 3b 40 84 15 bb c0 8b 7d bd
       0.048120126 0.0024714097 -0.0022814423 -0.061900854
0001b0 6a ed 06 3d a0 fd 5d 3d 18 da 6c 3c f8 64 27 bc
       0.03294126 0.054196954 0.0144562945 -0.010216944
0001c0 bc bb 2a 3d 10 f1 3c 3c 22 29 09 3d 32 af 0f 3d
       0.041682944 0.011532083 0.033486493 0.03507919
0001d0 70 21 a4 bc 00 de 8b bb f8 26 79 bc d4 19 50 3d
       -0.020035475 -0.004268408 -0.015207045 0.05080588
0001e0 04 1a 8d 3c 1c 9c be 3c de db 78 3d d8 ca 06 bc
       0.01722432 0.023267798 0.060756557 -0.008227073
0001f0 1c 76 7d bd c0 3d 53 bc ec 04 36 3d 28 85 07 bd
       -0.061880216 -0.01289314 0.044438288 -0.033085972
000200 c8 ce 49 3c 98 0c 74 3c aa c5 62 3d 98 e4 c1 bc
       0.012317367 0.014895581 0.05536429 -0.023668572
000210 4c 83 95 bc c0 27 07 bb a0 cc 35 bb 68 f3 05 bc
       -0.018251084 -0.0020623058 -0.0027740374 -0.008175708
000220 f8 35 67 bc 1e 4b 2e bd 4c 04 01 3d dc f9 71 3d
       -0.014111988 -0.042552106 0.03149824 0.059076175
000230 8e 61 0f bd 08 d3 36 3d 42 94 7a bd fc 6c 7d bd
       -0.035005145 0.04463485 -0.061176546 -0.061871514
000240 90 a1 b8 3b 92 5d 5b 3d 90 5b 11 bd 8c 26 5d 3d
       0.005634494 0.053556032 -0.03548771 0.05399184
000250 10 ee e2 bb a8 d5 18 bd bc 9f 53 3d d4 4a 95 bc
       -0.006925352 -0.037313133 0.051666006 -0.018224157
000260 3a 85 40 bd b0 f2 a9 3b 28 07 c4 bc 4c ad 44 3d
       -0.047002055 0.0051864013 -0.023929194 0.04801683
000270 e0 8e 0a 3d 50 da be bc e0 2b 9e bb 54 65 d9 3c
       0.033827662 -0.023297459 -0.0048270077 0.026537575
000280 90 ae 47 3d 60 e3 5d bd 2c 7b 33 3d c6 f8 07 bd
       0.04875046 -0.05417192 0.043818638 -0.033196233
000290 ac b6 ee bc d0 ec de 3b a0 e8 39 bd 44 c0 cb 3c
       -0.02913984 0.0068031326 -0.045387864 0.024871953
0002a0 e0 9c 4a 3d 00 cf 43 3a 76 68 57 3d 96 ca 4c 3d
       0.049466014 0.0007469505 0.052589856 0.04999789
0002b0 76 9a 20 bd e6 03 29 3d 80 ab 27 bc a0 79 ac 3b
       -0.039209805 0.041263483 -0.01023376 0.0052635223
0002c0 c8 e9 b5 bc 78 4b ce 3c 00 c6 54 39 cc e2 3e bd
       -0.022206202 0.02518247 0.00020291656 -0.04660301
0002d0 80 f8 3a 3c 48 dd 38 bd 64 1b 4a bd 24 04 85 bc
       0.011411786 -0.045132905 -0.049342528 -0.016237326
0002e0 e8 62 d4 3c e0 28 a5 bc 70 84 46 bd d2 9e 5b bd
       0.025926068 -0.020161092 -0.048466146 -0.05361826
0002f0 28 07 28 3c ac 3d 9d bc 7a fc 01 bd da 15 16 bd
       0.010255612 -0.019194447 -0.03173492 -0.036641933
000300 78 c5 2c 3d 80 4e 16 3a 44 c9 ae bc 4c 9c ba 3c
       0.04218051 0.00057337433 -0.021336205 0.022779606
000310 b8 67 64 bc ea ca 4d 3d 8e 4f 0d 3d 88 d2 3a bc
       -0.013940744 0.050242342 0.034499697 -0.011402734
000320 56 f5 3d 3d f4 22 e1 bc 00 d8 34 bb ec f4 7b bd
       0.04637655 -0.027482487 -0.0027594566 -0.061512873
000330 00 3e 53 bd 98 2f 02 bc ac 82 46 bd d8 49 56 3c
       -0.0515728 -0.007945918 -0.048464462 0.013079129
000340 34 9a 16 bd dc 1e f3 3c f4 b0 80 3c 84 52 e1 bc
       -0.036768153 0.0296778 0.015709378 -0.027505167
000350 72 51 55 bd cc bc 87 3c 30 44 4c 3c e6 50 68 3d
       -0.052079625 0.016569518 0.012467429 0.056717776
000360 2c f0 39 bd 20 c5 f8 bc 28 06 61 bc fe b4 4f 3d
       -0.04539506 -0.030367434 -0.013734378 0.050709717
000370 00 8d 3f bc 54 1a 49 3d ac 63 fc 3c ec 10 41 3d
       -0.011691332 0.049097374 0.030809246 0.04713528
000380 c8 64 36 3d 40 bb 92 3c 06 6e 70 bd ca d0 7a bd
       0.044529706 0.017911553 -0.058698677 -0.061234273
000390 50 5c d8 3c 22 a1 3c bd 70 dd d3 bb 48 80 38 bd
       0.026411206 -0.046052106 -0.0064656064 -0.045044214
0003a0 9e 72 17 bd e0 79 98 bc 40 d6 26 3b a0 da 53 3b
       -0.03697454 -0.018612802 0.0025457293 0.0032326356
0003b0 9c bd 3f 3d 06 d3 6b 3d b2 1e 68 3d 58 7b bc 3c
       0.046811685 0.057574295 0.0566699 0.023008034
0003c0 3c 23 58 bd 40 22 6c bc 80 df ab 3b 68 95 34 3c
       -0.052767977 -0.014412463 0.005245149 0.011021949
0003d0 08 10 55 bd b8 d9 68 3d da 31 08 bd dc 4c 59 3d
       -0.05201724 0.056848258 -0.033250667 0.053051814
0003e0 6c 18 53 3d 2c 41 6c 3d 90 12 78 bc 18 e1 1a bd
       0.051536962 0.05767934 -0.015141144 -0.037812322
0003f0 0e c6 16 3d 92 24 31 bd ac 22 2d 3d 36 d7 33 bd
       0.036809973 -0.043247767 0.042269394 -0.043906413

bias f4 [256]
000000 a2 9a 5e bd 00 5e 77 bd 30 f8 62 bd 58 f4 88 3c
       -0.054346688 -0.06039238 -0.05541247 0.016718075
000010 10 f0 79 bd 04 44 a7 3d d2 47 62 bd a8 6c 37 bd
       -0.061019957 0.0816727 -0.055244274 -0.044781357
000020 78 8f 06 bd 6d 74 db 3c f8 48 04 3c 04 43 05 bd
       -0.032851666 0.026788915 0.008074038 -0.032534614
000030 2b ad 0f 3e ae d7 07 3e a6 74 e1 bc ed 13 ae 3d
       0.14030902 0.13265869 -0.027521443 0.08499894
000040 9f 95 93 3d 72 83 4a bd 37 26 ec 3d ec d3 13 bd
       0.07206272 -0.049441762 0.115307264 -0.036090776
000050 23 b4 f3 3d c5 6d 61 bd ee 2c 76 bd 6e 0a 0a bd
       0.11899593 -0.055036325 -0.060101442 -0.033701353
000060 a0 37 6d 3b 32 02 03 bd 70 de f9 3c b0 60 5f bd
       0.0036196485 -0.031984515 0.030501574 -0.054535568
000070 dc c5 65 bd 21 03 1a 3e fd a9 c7 3d 74 ae 28 bd
       -0.056096897 0.15040256 0.097492196 -0.041181996
000080 d4 c2 14 bd 3c b8 39 3d 90 cb 28 3c e6 30 fb 3d
       -0.036318615 0.045341715 0.010302439 0.12265186
000090 53 2a 32 3d b9 5b ce 3c 6c 5c 53 3d 48 64 15 bd
       0.043497395 0.025190221 0.051601812 -0.03647259
0000a0 7c 76 4b bd ec 2e a6 3c ad 82 b3 3d 41 cd fd 3d
       -0.049673542 0.020286046 0.08765159 0.12392665
0000b0 f4 58 c5 bc 37 fe 20 bd ec 59 8f bc d0 0c 04 3d
       -0.024090268 -0.03930494 -0.017498933 0.03223878
0000c0 4a 09 ca 3d da 38 6b bd b4 a3 02 bd c4 ab e4 bc
       0.09865053 -0.057427265 -0.0318944 -0.027913935
0000d0 7a f2 78 bd 63 a9 44 3d 68 5c 29 3c 04 0d 7c bd
       -0.06077812 0.048013102 0.010336973 -0.06153585
0000e0 30 b0 44 bd e0 d5 12 3e 6c f6 4f bd 94 81 97 bc
       -0.048019588 0.143394 -0.050772116 -0.018494405
0000f0 94 c7 d9 3d 86 ec f3 3d bc f7 0f 3d 1d 74 e0 3d
       0.1063377 0.11910348 0.035148367 0.10959647
000100 58 5c 4e bd e2 ba 0f 3e e0 db bd bb 48 bb 43 bc
       -0.050381035 0.14036134 -0.0057940334 -0.011946507
000110 46 41 0f 3e f2 52 5d bd 57 f3 b3 3c 74 ec e0 3c
       0.13989744 -0.05403418 0.02196662 0.0274565
000120 84 9f 16 bd 38 af 60 bd 40 5d 11 bd 2c e6 ce bc
       -0.03677322 -0.0548546 -0.03548932 -0.025256239
000130 f0 d4 1d 3e 78 ff 85 bc 23 64 0f 3e 03 c6 05 3e
       0.1541326 -0.016357169 0.14003043 0.13063817
000140 5a 11 f3 3d 9e e7 f8 3d dc f6 f4 3c ac e2 c2 3d
       0.11868544 0.121535525 0.029902868 0.095158905
000150 24 f9 28 3d 2e 53 2b bd 00 7c 9c bc b4 f2 7f bd
       0.041253224 -0.041827373 -0.019102097 -0.06248732
000160 e6 df 99 bc 50 0d 9e 3d 8f 95 a5 3d 05 25 f7 3d
       -0.01878352 0.07717383 0.08085167 0.12067608
000170 48 1c ec 3d 6c d5 78 3d 4d 6f b1 3d 80 2c c9 3b
       0.11528832 0.06075041 0.08663807 0.006139338
000180 b6 b7 01 3d c4 2e 21 bd 04 0b 09 bd ca 07 60 bd
       0.03166934 -0.03935124 -0.03345777 -0.05469493
000190 1b d3 d4 3c f6 9c 0e 3e 74 1c de bc 0e c2 fa 3d
       0.02597957 0.13927063 -0.027113177 0.12244044
0001a0 03 a9 8d 3d a2 28 54 bd 46 e6 58 bd 2f 1a 1b bc
       0.06917002 -0.051796563 -0.05295398 -0.009466692
0001b0 b0 96 6a bc 5b 80 43 bb 00 bb 1c bc 75 ff cf 3d
       -0.014318153 -0.0029831144 -0.009566069 0.101561464
0001c0 94 67 af 3d 89 31 07 3e 62 95 60 bd d0 f3 65 3c
       0.08564678 0.1320249 -0.054829963 0.01403518
0001d0 6c 42 18 bc 71 4e c1 3d 13 f3 01 3e d5 53 f3 3b
       -0.00929318 0.0943879 0.12690382 0.007425765
0001e0 48 d8 15 3e 55 3d bb 3d 3f f0 36 3c e6 9b 14 bd
       0.14633286 0.091425575 0.011165678 -0.03628149
0001f0 52 5c f2 ba 03 ab 7a 3d 3c b9 91 3d 4c 8d 8d bc
       -0.0018490648 0.061198246 0.07115409 -0.01727929
000200 40 04 52 bb a4 dc 24 3c d8 9a 00 bc ca 4f 18 bd
       -0.003204599 0.01006237 -0.007849418 -0.037185468
000210 41 af d6 3c 62 cb 58 3d f4 9e 69 bd b6 02 1d bd
       0.026206614 0.052928336 -0.057036355 -0.038332663
000220 68 c1 14 3e 1a 2b 74 bd e0 97 8c 3b 8a 1a 32 3d
       0.14526904 -0.059611417 0.004290566 0.04348234
000230 fa a7 10 3e e4 e9 2a bd 9a 86 cd bc 1a dd 0b 3e
       0.14126578 -0.04172696 -0.025088597 0.13658562
000240 03 00 e2 3d 06 86 13 bd d0 18 78 bd 6e f8 06 3d
       0.110351585 -0.036016487 -0.060570538 0.032951765
000250 10 22 02 bc 32 04 1c 3e 1f 48 e5 3d ea da 3e 3c
       -0.007942691 0.15235975 0.11195397 0.011648873
000260 a0 80 e6 bb 80 50 4c bb 40 a0 3a 3c b0 54 16 bc
       -0.0070343763 -0.0031175911 0.011390746 -0.0091754645
000270 da 34 6a bd 6e b3 41 bd 3e 65 0c 3e 9d 62 f5 3b
       -0.05717931 -0.047290258 0.13710496 0.0074885623
000280 e9 6e 4a bd d7 64 1c 3e 05 ae e7 3d 60 f5 c0 3b
       -0.04942218 0.15272842 0.113124885 0.005888626
000290 f0 e4 d0 3c 30 a2 44 3d 6a 61 5c bd 3e ea 3a bd
       0.02549979 0.048006237 -0.05380384 -0.045633547
0002a0 49 fb 1a 3e 89 af 9a 3c 4c f4 76 3d b0 b4 83 bb
       0.1513492 0.01888253 0.060291573 -0.0040193424
0002b0 44 90 cc bc 6f ad 17 3e a0 16 d2 3c 60 11 cd bc
       -0.024971135 0.14812253 0.025645554 -0.0250327
0002c0 4a 1d f0 3d 83 4e de bb d6 e8 8f 3d a3 4b ea 3d
       0.117243364 -0.0067842617 0.07026832 0.11440208
0002d0 42 f7 03 bd e8 94 48 3c 9a ce e6 3d 60 c0 e9 bb
       -0.032218225 0.012242533 0.11269875 -0.0071335286
0002e0 22 4e 55 bd 32 1b d1 3d cb c0 4e 3d 88 23 42 3c
       -0.052076466 0.10210265 0.05047683 0.011849292
0002f0 df c6 4e 3d 0c d4 d6 3d 0c b5 0d bd 36 72 ed 3d
       0.050482627 0.104896635 -0.034596488 0.1159405
000300 94 a1 6f 3d ee 81 d3 3d 0a 88 25 3d 33 11 b9 bc
       0.058503702 0.103275165 0.04041294 -0.022591209
000310 ce 02 a7 3c b4 b5 84 bc 79 6f 1d 3e 6c 08 45 3d
       0.02038708 -0.016199924 0.15374555 0.048103735
000320 74 cf aa bc 46 ea 51 3d 4e e9 f4 3c 93 1d 05 3e
       -0.020850874 0.05124881 0.029896405 0.12999563
000330 b8 19 7e 3c dc 0e b3 3d 7e 7f 4b bd 34 44 02 3e
       0.0155090615 0.087430686 -0.049682133 0.1272133
000340 aa e2 3b bd 7e 81 30 bd 40 bc d0 3b 70 a1 53 bd
       -0.04587046 -0.043092243 0.0063700974 -0.05166763
000350 56 90 10 3e b6 67 81 3c b2 01 00 3e 43 12 c8 3c
       0.1411756 0.015796524 0.12500647 0.02442277
000360 84 46 80 bc 26 dd 49 3d 5c ab 25 bd 28 a1 b4 bc
       -0.015658624 0.04928317 -0.040446624 -0.022049502
000370 03 60 e8 3c 2a 2a 06 3d 40 33 16 3e 75 40 15 3e
       0.028366094 0.032755055 0.14667988 0.1457537
000380 80 ce 38 ba 44 74 3e bd a5 66 02 3e d0 f9 32 3c
       -0.0007049814 -0.0464976 0.12734468 0.010923818
000390 0d e8 82 3c 40 f4 06 bb 52 92 c0 3d f9 20 16 3e
       0.015979791 -0.0020592362 0.094029084 0.14661016
0003a0 18 f3 2a bc 6d a8 ef 3d 83 57 00 3e 30 18 d2 bc
       -0.010433935 0.117020465 0.12533383 -0.0256463
0003b0 7a b3 61 3d 8a 87 7a 3c 64 80 b8 3d e6 35 26 bd
       0.055102803 0.015291104 0.090088636 -0.040578745
0003c0 50 7b 58 bd b0 95 f8 bb 3c 1a 86 3c 76 03 a2 bc
       -0.052851975 -0.0075862035 0.016369931 -0.01977704
0003d0 43 eb 26 3d d2 9c f8 3d 75 19 c7 3d 8e 96 7d bd
       0.040751707 0.12139286 0.097216524 -0.06191116
0003e0 bf c1 0f 3e 53 4a fd bc ec 84 03 3d 98 ec 5b bc
       0.14038752 -0.03091923 0.032109186 -0.013423108
0003f0 f2 df 0d 3d b8 63 94 bc 65 11 b9 3c 5c 4b 2a bd
       0.0346374 -0.018113956 0.022591302 -0.041575775

weight f4 [128, 256]
000000 e8 33 14 3d ce 16 5c 3d 9e f5 70 3d 8c 6a 6a bd
       0.036182314 0.053732686 0.05882799 -0.057230517
000010 7e db 35 3d 6e 46 54 bd 64 de 5a bd c0 bd a5 bb
       0.044398777 -0.05182498 -0.053434744 -0.0050580204
000020 70 32 fc 3c 8e 92 39 3d 38 45 ec 3c 84 2d da 3c
       0.03078577 0.04530578 0.0288416 0.026633032
000030 d0 92 17 bd 80 c4 1f 3b 00 c0 27 b7 50 53 ad 3b
       -0.037005246 0.0024378598 -9.998679e-06 0.0052894726
000040 a0 43 bb 3b ae 60 60 3d 82 da 13 bd c2 f7 05 bd
       0.0057148486 0.0547797 -0.036097057 -0.032706983
000050 62 0f 4a 3d 0c 9d 79 3d 28 f6 2d 3d f4 7a db bc
       0.049331076 0.060940787 0.04247108 -0.026792027
000060 60 d4 1f 3d a8 0b ad bc 50 3a 5c 3c 20 29 be 3c
       0.039020896 -0.021123722 0.013441637 0.02321297
000070 c8 de 55 3c fa 72 31 bd 98 7b f7 bc ec c6 4f bd
       0.0130536035 -0.04332254 -0.030210301 -0.050726816
000080 fe f4 2c bd 7a 92 2b bd 00 75 97 b9 d0 c1 f0 bb
       -0.04222583 -0.041887738 -0.00028888136 -0.007347323
000090 08 9b 7e bd 50 dd 1a 3d 52 71 4a 3d 34 a5 45 bd
       -0.062159568 0.037808716 0.049424477 -0.048253253
0000a0 08 33 27 3c ae 5c 1c bd 64 b8 3d bd 28 da 85 bc
       0.010205038 -0.038174324 -0.046318427 -0.016339377
0000b0 f0 1d ee 3b f2 9d 4f bd 5c 37 f0 3c b8 a3 c7 3c
       0.0072667524 -0.050687738 0.029323272 0.02437006
0000c0 9c 47 4b bd e8 b2 00 bd a8 93 a0 bc cc 91 2b 3d
       -0.04962884 -0.03142062 -0.019601658 0.04188709
0000d0 b4 5e 4d 3d 58 a3 c4 bc 58 73 37 bd 7e e7 3b bd
       0.050139144 -0.02400367 -0.044787735 -0.045875065
0000e0 3c 62 0d bd 14 0f a3 bc 80 1a 7e bc f4 30 43 bd
       -0.03451751 -0.01990465 -0.015509248 -0.047654107
0000f0 80 10 bb ba 52 ce 29 bd 64 64 a3 3c 98 47 b7 bc
       -0.0014271885 -0.041456528 0.01994533 -0.022373006
000100 c0 3f ee bb 80 14 1d 3c 64 c5 4f bd 9c 14 2f bd
       -0.007270783 0.009587407 -0.050725356 -0.042744264
000110 90 95 07 3d e6 b0 77 bd 00 e3 bc 3c 54 5b 06 bd
       0.03310162 -0.060471438 0.02305746 -0.03280194
000120 80 6d dc 3c 40 0c cf bc 56 f1 05 3d 04 85 c5 3c
       0.026907682 -0.025274396 0.03270086 0.024111278
000130 6c 22 ab bc e8 39 b3 bc 14 c4 2c 3d de 7a 71 bd
       -0.020890437 -0.021878198 0.042179182 -0.058955066
000140 5e 72 0a bd bc aa 11 3d 32 28 00 3d 40 83 7b 3b
       -0.033800475 0.035563216 0.031288333 0.0038377792
000150 8a c5 2b 3d 8e 22 02 3d ac 87 eb bc d0 b5 1c 3d
       0.041936435 0.031771235 -0.028751217 0.038259327
000160 b6 dc 2f bd 76 f6 42 3d 06 05 38 bd 38 b6 06 bd
       -0.042935096 0.047598325 -0.044926666 -0.03288862
000170 b8 4f ec 3c 5a 0f 0f bd 10 ca 2d 3c 00 36 37 b9
       0.028846607 -0.03492675 0.0106072575 -0.00017472357
000180 e8 6e 0e bd ec b2 91 bc 00 e1 5b 3a 16 e5 01 bd
       -0.034773737 -0.017785512 0.00083877146 -0.031712614
000190 1a 00 50 bd c0 2b 3d 3d a0 67 ad 3c 60 b5 e1 3c
       -0.050781347 0.0461843 0.021167576 0.027552307
0001a0 00 b7 4d ba 2c ec ea bc 00 08 43 b8 de 91 3d bd
       -0.00078473985 -0.028677069 -4.6499074e-05 -0.046281688
0001b0 00 92 8f 3b 3e cb 73 bd 0c 4c 10 bd 80 3e 29 bb
       0.004381418 -0.05952 -0.035228774 -0.0025824606
0001c0 f8 a2 79 3d 82 df 23 bd 68 1d 23 3c 50 6e 43 3d
       0.060946435 -0.040008076 0.009955741 0.047712624
0001d0 8e b5 34 3d 7c 03 c1 bc d8 30 b6 3c 70 80 89 bb
       0.044118457 -0.023561232 0.022240087 -0.004196219
0001e0 d0 bb 9b 3b e0 11 03 bb 00 54 83 3c c0 2e 96 bb
       0.0047526136 -0.0019999668 0.016031265 -0.0045832098
0001f0 40 a0 aa 3c 48 27 e6 bc 68 04 84 bc 38 24 5b bc
       0.020828366 -0.028094903 -0.016115382 -0.013375334
000200 ce b0 1e 3d 00 b4 e2 b9 08 62 1f bd 18 19 b2 bc
       0.038742833 -0.0004324019 -0.03891185 -0.021740481
000210 c0 74 17 bc 82 6c 51 bd 52 da 1f 3d 26 18 13 3d
       -0.009244144 -0.05112887 0.039026566 0.0359117
000220 10 b1 92 bc 28 cf 2c bc a0 00 34 3b 10 b7 91 bb
       -0.017906696 -0.010547437 0.0027466193 -0.0044468716
000230 a0 c7 5c 3c 96 aa 60 bd 2e ea 06 bd 08 61 94 bc
       0.013475329 -0.054850183 -0.032938175 -0.018112674
000240 50 43 7e bd 64 f0 9d bc 70 8f e0 3c ac 86 70 bd
       -0.062075913 -0.019279666 0.027412146 -0.058722183
000250 76 77 7f 3d f6 f6 54 bd d6 1e 61 3d e4 dc a6 3c
       0.062369786 -0.051993333 0.054961048 0.020369
000260 2c 5f fd bc 1a d7 59 3d e4 6d d1 bc d0 6c 74 3d
       -0.03092917 0.053183652 -0.025565095 0.059674084
000270 c0 7c 53 bd 20 e9 b5 3b 48 ec 0c bd 98 bd 29 bc
       -0.051632643 0.0055514723 -0.034405023 -0.010360144
000280 a0 38 37 bc 20 cd 1c 3c 00 be 49 3d ac 6f 2c 3d
       -0.011182934 0.00957039 0.049253464 0.042098686
000290 e8 99 20 bd 30 2f 16 bd b0 f9 85 3b ec d9 d5 bc
       -0.039209276 -0.036666095 0.004088603 -0.02610489
0002a0 22 a7 38 bd e0 2f 2e bd b6 20 06 3d 24 a2 44 3d
       -0.045081265 -0.042526126 0.03274604 0.04800619
0002b0 cc 3d 42 3d 74 c2 7a 3d 66 32 36 3d 40 86 85 3c
       0.047422215 0.0612206 0.044481657 0.016299367
0002c0 ca 90 78 3d 48 81 1b bd 70 40 ac bc 6c cb 07 3d
       0.060684957 -0.03796509 -0.02102682 0.033152983
0002d0 7c b6 95 bc 24 c6 64 3d e0 bf 2e bd 00 00 d9 3c
       -0.018275492 0.055853024 -0.042663455 0.026489258
0002e0 b8 f7 f0 bc 94 14 fd bc 74 63 68 bd 78 bd 4d 3d
       -0.029414997 -0.030893601 -0.05673547 0.05022952
0002f0 54 91 e3 bc 64 28 3e bd ac 9b 2a bd 78 2c a1 bc
       -0.027779259 -0.04642524 -0.041652367 -0.019674525
000300 f4 ce 20 3d e4 af 94 3c 18 79 32 3c 56 4c 3f bd
       0.039259866 0.018150277 0.010893129 -0.04670366
000310 40 65 04 3b 84 9a db bc 38 ea 57 bc 78 e3 8a bc
       0.0020201951 -0.026807077 -0.013178401 -0.016954169
000320 26 cb 4b bd ee fb 7b 3d 46 df 6a 3d 50 94 eb bc
       -0.049754284 0.061519556 0.057341836 -0.028757244
000330 4a c3 37 3d 10 92 c7 bc 48 13 42 bc ca 44 3c bd
       0.044863977 -0.02436164 -0.011845417 -0.04596404
000340 90 78 92 3b cc a7 1c bd 28 ce c1 bc cc 99 10 bd
       0.0044699386 -0.03824596 -0.023657873 -0.035302922
000350 10 6b 6b 3d 40 66 cc bc 60 da 0b 3d d8 5e 01 3d
       0.05747515 -0.0249511 0.034143806 0.03158459
000360 88 53 d2 bc 60 a8 4e 3c 12 0a 25 3d 28 7f 7b bc
       -0.025674596 0.012613386 0.040292807 -0.015350141
000370 00 a9 2c 3a 10 9f ad bc f4 37 51 3d e0 13 e4 3b
       0.0006586462 -0.021194011 0.05107875 0.006960377
000380 48 18 88 3c 18 a0 ea bc 0c 02 b9 bc 36 be 49 bd
       0.01661314 -0.028640792 -0.022583984 -0.049253665
000390 58 f0 4f 3c e4 b7 c2 3c dc 9b a4 bc d6 8e 47 bd
       0.01269158 0.023769327 -0.02009385 -0.048720203
0003a0 40 3b ce 3c 48 87 d9 bc 10 63 80 3b 60 4f 95 bb
       0.025174737 -0.026553765 0.003918059 -0.0045565814
0003b0 10 7b 71 3d cc 61 ef bc ec cd 8c bc ae 4d 42 3d
       0.058955252 -0.029221438 -0.017188035 0.047437362
0003c0 64 30 0d 3d 62 cb 05 bd 20 0d bf 3c c0 29 8c 3c
       0.034469977 -0.032664664 0.023321688 0.017109752
0003d0 60 a8 2b bc 9a e7 7b 3d 84 14 11 3d 0e 80 68 3d
       -0.010477155 0.06150017 0.035419956 0.056762747
0003e0 88 54 4e 3c 70 c1 70 bc 80 bf 08 3a c0 1b c4 ba
       0.012593396 -0.014694557 0.0005216524 -0.0014961883
0003f0 7e d0 25 bd 52 38 1a 3d 44 a6 ae 3c 3c eb ba bc
       -0.040482037 0.037651367 0.021319516 -0.022817247

bias f4 [128]
000000 20 48 2a bd d4 13 cf 3c 16 11 31 bd 6c 34 d6 bc
       -0.04157269 0.02527801 -0.043229185 -0.026148044
000010 5a 54 13 3d 65 d6 ea 3d dd 9c 69 bd dd 64 e9 3d
       0.035969116 0.11466674 -0.057034362 0.11396191
000020 d2 44 0f 3e 43 92 ad 3d c2 1a dd 3c 98 66 ff bc
       0.13991097 0.08475163 0.026990298 -0.03117685
000030 25 86 84 bd 66 84 dd 3d ac 30 c1 3d cb 37 ea 3d
       -0.064708985 0.108162686 0.094331115 0.11436423
000040 39 3e c6 3d 44 ae 44 bd e7 0f f6 3d 2c ed d1 3c
       0.09679837 -0.048017755 0.12014752 0.025625788
000050 f1 23 2e 3d 34 df 7b bd b3 57 e1 3d 25 e7 77 bd
       0.042514745 -0.06149216 0.110030554 -0.06052317
000060 76 d5 6e bd ac 04 aa 3c 77 2a 1d 3e 70 b7 d9 bb
       -0.05830904 0.02075418 0.1534823 -0.006644182
000070 35 67 51 bb 8e 8f 03 bd a2 52 09 3e 79 46 5a 3d
       -0.0031952385 -0.032119326 0.13410428 0.053289864
000080 b0 fb d0 3c 50 bc 2e bd ea 53 fe 3c 19 55 00 3d
       0.025510639 -0.042660058 0.031045873 0.031331155
000090 80 c8 6b bd 0e b3 1d bd 1f f2 72 3d 89 2b f4 3d
       -0.05756426 -0.038500838 0.059312936 0.11922366
0000a0 06 71 06 3e f7 b2 4f 3d c8 55 04 3e 2a 14 23 bd
       0.13129053 0.050707784 0.12923348 -0.03981415
0000b0 d5 be 12 3e 31 35 f7 3d 22 3f 39 bd a4 57 ee 3d
       0.14330609 0.12070692 -0.045226224 0.1163781
0000c0 f7 4f 5e 3d 59 4b db 3c a8 08 5a bd ed b6 81 bd
       0.05427548 0.026769327 -0.05323091 -0.063337184
0000d0 b7 b5 8a 3d 58 12 75 3c f8 42 ed bc 3c b2 f2 bc
       0.067729406 0.014957987 -0.028962597 -0.029626004
0000e0 c9 81 85 3d 3b 7d e2 3d d0 c8 1c bc c4 09 62 bd
       0.06518895 0.11059042 -0.009569362 -0.055185094
0000f0 14 fb 06 3e fd c2 5c 3c de b9 7b bd 41 58 22 3d
       0.13181716 0.013474223 -0.061456554 0.039634947
000100 00 7c dd 39 c1 29 6f 3d 62 41 8e 3d 5d 3b d8 3d
       0.00042244792 0.05838943 0.069460645 0.10558198
000110 8a 6e eb 3d 9f eb a1 3d 54 af d5 bc 3e 65 4d bd
       0.11495693 0.07906269 -0.02608458 -0.05014538
000120 3e 28 6d 3d cb 74 b2 3c 50 7c 2f 3c 23 d3 ef 3d
       0.057899706 0.021784207 0.010710791 0.11710193
000130 00 b4 b7 bc 48 29 88 3d dc ee ca bc 6a e1 6f bd
       -0.022424698 0.06648499 -0.0247721 -0.05856458
000140 49 fc fb 3d b8 4a 5e bd 27 36 04 3e 9b 9b b5 bb
       0.12303979 -0.054270476 0.12911282 -0.0055422313
000150 27 50 4f 3d 78 fe ed bc 58 f7 c9 bc 60 10 c3 bb
       0.05061355 -0.029052004 -0.024654076 -0.00595288
000160 b0 29 0a 3d fb 3d 8f 3c 9c 0b 4c bd 2e 08 18 bd
       0.033731163 0.01748561 -0.04981576 -0.037117176
000170 e8 a0 73 bd 16 6f 3c bd 4e 56 00 bd 3e 1f d9 3d
       -0.059479624 -0.046004377 -0.031332307 0.10601662
000180 98 3a 0d 3d 34 1e dc 3c 7a 1f be 3d 14 b3 2e bd
       0.034479707 0.02686987 0.092833474 -0.04265125
000190 a5 42 f3 3c f2 09 ad 3d a8 5d 13 bd 06 7b 65 bd
       0.029694865 0.084491625 -0.03597799 -0.056025527
0001a0 0b da 08 3e 18 0f 24 3e 20 7a 1f 3d 25 6c 06 3d
       0.13364427 0.16021383 0.038934827 0.03281798
0001b0 b4 ed 76 bd ec 59 de bc 02 cc 51 bd 88 c0 05 bc
       -0.060285285 -0.027142487 -0.051219948 -0.008163579
0001c0 50 e6 80 3c 3d 97 86 3d 0c e3 8e 3d 80 69 5e bc
       0.015734822 0.06571815 0.069768995 -0.013574958
0001d0 06 fb 20 bd 90 ae ad 3b d3 40 83 bb 40 dc 90 3c
       -0.039301895 0.0053003505 -0.0040055304 0.017683148
0001e0 a8 0d 51 3d 94 aa ad 3b 6b 2b 38 bc 98 f9 a2 3d
       0.051038414 0.0052998755 -0.01124082 0.079577625
0001f0 0e 12 bc 3d b4 3d 4b bd 9b e8 df ba f8 f8 88 3d
       0.09183131 -0.04961939 -0.0017082872 0.06688112

weight f4 [5, 128]
000000 4c 54 25 3d f9 7e aa bd d3 89 ab 3c 86 2f 2e bd
       0.040363595 -0.08324999 0.020939743 -0.04252579
000010 14 e1 09 bd 62 84 e3 3d 61 a5 f6 3c 11 46 d4 3d
       -0.033661917 0.111092344 0.030108156 0.103649266
000020 03 58 24 3e d2 c5 f2 3c ee 24 ef 3d 56 1c cd 39
       0.16049199 0.029635344 0.11676966 0.0003912176
000030 1a 54 9a bd fd 68 d1 3d 90 57 1d 3e 98 4a 0b 3d
       -0.07535572 0.10225103 0.15365434 0.034006685
000040 bd 9b 2f 3d 46 52 9f 3a 26 f1 30 3e 9d 50 13 3d
       0.042873133 0.0012155257 0.17279491 0.03596555
000050 6b aa a3 bd 3d be b4 3a 01 7e ff 3d 8b 00 cf bc
       -0.07991489 0.0013789606 0.12475205 -0.025268814
000060 80 12 49 bc ac d5 3e 3d 8d 73 15 3e e7 e3 b3 bd
       -0.012272477 0.046590492 0.1459486 -0.08783703
000070 61 d2 c1 bc c7 9d eb 3c 50 b7 fd 3d 69 87 3f bd
       -0.023659887 0.028761758 0.1238848 -0.046759997
000080 93 8a a0 3d b6 6d 1e 3d 9f 18 8a 3d ab f4 34 bd
       0.07838931 0.038678847 0.06742977 -0.044178646
000090 0f 5f b1 3d 78 d8 81 3c 41 bf f7 3d 45 a1 ad 3d
       0.08660709 0.01585029 0.12097026 0.08478025
0000a0 ed 65 91 3d 44 42 35 bd 12 f1 eb 3d 74 38 8a bd
       0.07099519 -0.04425265 0.1152059 -0.06749049
0000b0 cf 3c 0a 3e 73 37 45 3d 82 6f 8c bb be c8 9f 3d
       0.13499759 0.048148584 -0.0042857537 0.078019604
0000c0 22 22 82 bb 1b 7c a5 bd b0 6a 96 3d 15 6e 48 bd
       -0.003971354 -0.08080312 0.07344568 -0.048933107
0000d0 83 0b e3 3c d3 eb 85 bd 8e 6d d7 bc 65 79 49 3d
       0.02771545 -0.065391205 -0.026297357 0.049188036
0000e0 23 78 c6 3d 7e 36 97 3d 88 d6 a3 3d 8a 21 a2 bd
       0.09690883 0.073834404 0.07999903 -0.07916553
0000f0 01 28 0e 3e d6 f2 4a 3d 07 06 10 3d b1 be a1 3d
       0.13882448 0.049547993 0.035161998 0.078976996
000100 21 68 d5 ba 78 a2 f4 3c 75 d6 d8 3d 08 bd 45 3d
       -0.0016281643 0.029862627 0.105877794 0.048275977
000110 c4 cf f2 3d 0a 52 2e 3d 01 94 35 3c f4 de af bd
       0.118560344 0.042558707 0.01108265 -0.08587447
000120 86 11 d0 3d ae 1c 84 bd e5 0a 7a bd 58 09 1d 3e
       0.10159592 -0.06450783 -0.061045546 0.15335596
000130 78 c1 9b bd 2c 22 06 3e 25 5a a4 bd 5d c1 43 bd
       -0.076052606 0.13098973 -0.08025006 -0.047791827
000140 2d c7 1f 3e b6 b6 80 3d 06 b3 f8 3d ce 93 72 bd
       0.15603323 0.06284849 0.12143521 -0.05922299
000150 6f e1 12 3e f7 70 ef 3a ff 6e 04 3d 50 ba a4 bd
       0.14343809 0.0018267919 0.032332417 -0.08043349
000160 3c 21 d2 3d 4c e4 14 3e 34 6b 89 3d 6d b5 0b bd
       0.10260245 0.14540213 0.067099005 -0.034108568
000170 7e cf a8 bd 8b 1d a6 bd b9 cb a3 bd ad 3c 4f 3d
       -0.08242701 -0.081111036 -0.079978414 0.050594974
000180 cb e1 ce 3d 45 22 eb 3c 49 84 2d 3e 49 ea 80 3d
       0.1010166 0.028702864 0.16944994 0.06294686
000190 e3 f2 13 3e fb 2b e3 3d 62 3c 91 3c c4 3f 6d bd
       0.14448123 0.11092373 0.017728988 -0.05792214
0001a0 15 cc 2b 3e fd a2 0d 3e ec a3 8b bd 63 f9 14 3e
       0.1677707 0.13831706 -0.06818375 0.14548258
0001b0 8e 49 7d 3d e0 b2 4a 3d 1e 66 d1 3b cd db 2c 3c
       0.061837725 0.049486995 0.006390347 0.010550451
0001c0 60 e0 13 3a a7 e4 f6 3d 00 7c 00 3e 4b ce a8 bd
       0.00056410395 0.12055331 0.12547302 -0.08242472
0001d0 db b3 9a 3d bf 33 f1 3b 39 d1 02 3d 5c e6 e6 3d
       0.07553836 0.007360905 0.03193781 0.11274406
0001e0 84 64 a2 bd 56 db 78 3d 4e fa 8a bd e5 de 06 3d
       -0.07929328 0.06075605 -0.06786023 0.032927413
0001f0 4b 75 1a 3e d3 d7 ce 3c c3 22 56 bd 16 cc d3 3d
       0.15083806 0.025249397 -0.052279245 0.10341661
000200 8a 5d 52 3d 0f 58 c1 bc 3d a7 e8 3b ba 3e 9a 3c
       0.051358737 -0.02360156 0.0071000145 0.018828738
000210 ac 6e 2d bd b2 9a f5 3d ce 36 a1 3d 60 16 18 3e
       -0.042341873 0.119923964 0.07871781 0.14852285
000220 6c 56 12 3e 79 64 2d 3e 08 fe 4f 3d 4e 39 60 3d
       0.1429078 0.16932859 0.050779372 0.05474215
000230 e9 1a 15 bd 9a 66 1d 3e 1e cb bf 3d a2 61 b1 3d
       -0.036402617 0.1537117 0.093649134 0.086612
000240 7c 90 12 3e e6 96 83 bd b3 a9 d6 3d 32 61 49 bd
       0.14312929 -0.06425266 0.10481586 -0.04916496
000250 25 b3 bf bc 8b 4d 17 bd 0d 24 02 3e 78 1c 8e bd
       -0.023400852 -0.036939185 0.12709065 -0.06939024
000260 05 12 59 3c 24 64 80 3d a1 48 1d 3e e9 c5 01 3c
       0.013248925 0.062691 0.15359737 0.007920721
000270 46 34 9c bd 26 30 05 bd 0e e5 0d 3e 1f f6 83 3d
       -0.07627158 -0.03251662 0.13856909 0.06443428
000280 68 44 a8 bd a8 c4 04 bd 51 44 f6 3b 67 67 da bb
       -0.082161725 -0.03241411 0.007515468 -0.0066651586
000290 be 88 b8 3a 70 1c 82 3d 56 ab 7f 3d 5c 2f 4c 3d
       0.0014078838 0.0635308 0.062419258 0.049849853
0002a0 eb f3 a7 3d 66 64 13 bd da 49 27 3e c1 76 86 3d
       0.082008205 -0.03598442 0.16336766 0.06565619
0002b0 02 ed 20 3e 83 15 17 3e 35 9c 9c 3b 1a 83 0d 3e
       0.15715411 0.147543 0.0047793635 0.13819543
0002c0 f4 40 d0 3c 48 fd 8b bd 12 fe 46 bd ed a4 ea bb
       0.025421597 -0.06835419 -0.048582144 -0.007160774
0002d0 a0 23 7a 3d a0 bb 0f 3c b4 b5 05 bd ce 85 bc bb
       0.06106913 0.008772761 -0.03264399 -0.0057532554
0002e0 58 35 26 3e 31 57 8f 3d 29 b5 8a 3d ba 35 af bb
       0.16231287 0.06999052 0.06772835 -0.005346981
0002f0 bc 87 3d 3d 5f d5 9f 3d 56 ed d8 3b 29 43 9f 3d
       0.046272025 0.07804369 0.0066200895 0.07776482
000300 4b e0 80 3d 22 4e 7c 3d e6 d8 2f 3e cc 96 2c 3e
       0.062927805 0.06159795 0.17172584 0.168544
000310 d0 72 8b 3b b3 82 21 3e 40 31 83 3d ac f0 2e bd
       0.00425563 0.15772514 0.06405878 -0.04270999
000320 69 77 eb 3c b4 22 03 bd e5 d3 b3 bd 38 16 0b 3e
       0.028743463 -0.032015517 -0.0878065 0.13582695
000330 35 e8 07 bd 95 04 30 3e 48 d0 58 3d 54 ad 9f bd
       -0.033180434 0.17189248 0.052933007 -0.077967316
000340 df b5 fc 3d ea d2 83 3d e1 85 04 3d 75 5a 32 bd
       0.12339377 0.06436713 0.03235424 -0.043543298
000350 23 58 b4 3d 3a 97 10 3d 39 05 2f bd 17 9f 4c bd
       0.08805873 0.03530047 -0.04272959 -0.049956407
000360 d5 94 2c 3d 27 b9 1f 3e 71 89 7f bd c2 d4 a3 bd
       0.042134125 0.15597974 -0.062386934 -0.07999565
000370 53 82 e8 bc 22 f6 4d 3d 3f cf 66 3d a0 f3 f0 3d
       -0.028382456 0.05028356 0.05634999 0.11765218
000380 1f aa 01 3e 01 62 ae bd 51 ca fa 3d 13 41 97 3d
       0.12662552 -0.085147865 0.1224562 0.07385459
000390 83 80 00 3e 4c 3e 0f 3e 1a e0 5e bd e4 72 59 3c
       0.12549023 0.13988608 -0.05441294 0.013272021
0003a0 3c 36 bf 3d 89 e4 19 3e e9 3d 9f bc d9 8d 92 3d
       0.09336516 0.15028585 -0.0194387 0.071559615
0003b0 bb 00 9a bc 30 6c 37 3d b6 f7 9b 3d 7e b8 89 bd
       -0.018799176 0.04478091 0.076156065 -0.06724642
0003c0 03 c6 a2 bd ad 58 04 3e 53 fe d3 3d 81 4a 97 bd
       -0.07947924 0.12924452 0.10351243 -0.07387257
0003d0 23 75 a4 bc 85 77 9b bd 43 e2 01 3c bb c1 19 3c
       -0.020075386 -0.07591156 0.00792748 0.009384568
0003e0 f0 87 6a bd 5f 95 5d bd ee 3b 42 bd 11 c9 10 3d
       -0.057258546 -0.05409753 -0.047420435 0.035348002
0003f0 3d 82 1f 3d 08 36 5e 3c 4d 2f a2 bd f7 f8 28 3e
       0.038942564 0.013562687 -0.07919178 0.16501223

bias f4 [5]
000000 55 2c 9b 3d 0b d6 d9 3c f8 95 60 bc 91 8e 6d 3c
       0.07576815 0.026591321 -0.01370763 0.0144993225
000010 38 90 c2 3d
       0.09500164
