cnn_models/cnn_model_ver6.pth (torch, 383720 bytes, 8 tensors)

weight f4 [32, 4, 8, 8]
000000 60 42 47 bc 3a b2 1e 3d 08 ac 50 3d e2 0e 66 3d
       -0.012161821 0.03874419 0.05094531 0.056166537
000010 e0 ee 66 3b ec 06 56 bd 00 c6 5f b9 7a 90 73 3d
       0.0035237595 -0.052252695 -0.00021340698 0.059463955
000020 06 2b 26 3d 88 75 01 bc 20 63 8a 3b 3c 2d 6f bd
       0.040568374 -0.007901557 0.0042232424 -0.05839275
000030 04 ea 4e 3d 96 cb 01 3d 7a 36 37 3d 30 d5 f4 bc
       0.050516143 0.031688295 0.044729687 -0.029886812
000040 ec 48 df bc 7a 15 19 bd 08 06 38 3d a8 34 63 3c
       -0.027256452 -0.037373997 0.044927627 0.013867535
000050 fc ba 60 bd cc ad 94 bc 00 69 b4 3b ec 6a 7d 3d
       -0.054865822 -0.018149279 0.005505681 0.061869547
000060 60 0c 04 bc 9a de 38 3d c8 38 b9 bc 0c 2d db bc
       -0.008059591 0.045134164 -0.022610083 -0.026754878
000070 b0 ee f7 3b e0 dd 98 bc 82 e2 07 3d 30 65 87 3b
       0.0075662956 -0.018660486 0.033175 0.0041319355
000080 20 46 ad bb b6 0a 23 bd 60 b9 6c bc e8 84 d9 bc
       -0.0052879006 -0.039805137 -0.014448494 -0.026552632
000090 54 d3 44 3d 80 73 44 3a 06 17 6b bd d6 1c 11 bd
       0.0480531 0.00074940175 -0.057395004 -0.03542789
0000a0 7e 34 36 3d 88 e9 86 bc 24 5d d9 bc 00 85 d8 bc
       0.044483654 -0.016468778 -0.02653367 -0.026430607
0000b0 30 b8 74 3c 82 04 03 bd 16 a4 07 bd e0 d9 37 bb
       0.014936492 -0.03198672 -0.03311547 -0.0028053448
0000c0 ea 87 45 bd 3c f3 09 3d 48 e3 72 bc 42 74 06 bd
       -0.04822532 0.033679232 -0.014824696 -0.032825716
0000d0 70 03 95 bc 48 84 76 bd 9a 21 11 3d 32 f1 72 bd
       -0.018190116 -0.060184747 0.035432436 -0.059312053
0000e0 58 bf 51 bc 8e 98 79 3d 30 f7 8a 3b d6 b0 49 3d
       -0.012801968 0.060936503 0.004240893 0.04924091
0000f0 de c3 29 bd d8 f9 56 bd 20 08 5b bd 24 b8 21 bd
       -0.04144656 -0.052484363 -0.053474545 -0.03948225
000100 e6 1b 0c bd 10 3f 4b bd 14 f1 7d bd da e5 4f 3d
       -0.034206294 -0.049620688 -0.06199749 0.050756313
000110 a8 b7 c2 bc 60 f9 2b 3d 82 90 68 3d 50 c2 f7 bb
       -0.023769215 0.04198587 0.05677844 -0.0075610057
000120 b8 a2 24 3c 10 0d 25 3d dc 7f 9a 3c c8 9f 53 bc
       0.010048561 0.04029566 0.018859796 -0.012916513
000130 a2 ce 14 bd f8 03 81 bc 6e 83 26 3d c8 69 13 3c
       -0.036329873 -0.015748963 0.040652685 0.008997388
000140 fe 05 32 3d d0 35 55 bd 00 0f a6 3c 0e fb 0f bd
       0.043462746 -0.052053273 0.020270824 -0.035151534
000150 14 d0 54 3d b4 d6 23 3d e0 e0 15 3b 0e 56 32 bd
       0.05195625 0.03999968 0.0022869632 -0.0435391
000160 ac 6f 64 bd 00 39 2d 3a b0 df 67 3c bc 46 ec 3c
       -0.05577056 0.000660792 0.014152452 0.028842323
000170 a4 01 86 3c ee ef 41 bd 50 a1 62 3d ac 9e b7 bc
       0.016358204 -0.047347955 0.05532962 -0.022414528
000180 1c c3 65 3d 96 7b 53 bd 82 8b 4d bd 5c c6 05 bd
       0.056094274 -0.051631533 -0.050181873 -0.032659873
000190 8e 19 23 3d c2 73 3f bd b0 91 7f bc 88 01 8a 3c
       0.039819293 -0.046741255 -0.015598699 0.016846433
0001a0 3c 63 af 3c 4c bd 55 bd 60 a3 7b bc 14 81 40 3d
       0.021409623 -0.05218248 -0.015358776 0.0469981
0001b0 b4 c6 53 bd f2 c6 61 bd a4 49 8c bc aa bb 0e bd
       -0.05170317 -0.05512137 -0.017124958 -0.03484694
0001c0 08 65 77 3d 78 ed 27 3c e0 53 56 3c 3e c7 4e bd
       0.060399085 0.010249488 0.013081521 -0.05048298
0001d0 04 47 13 3d 24 14 c5 3c 06 bb 2c bd 44 32 08 bd
       0.035956398 0.024057455 -0.042170547 -0.033251062
0001e0 00 98 e6 ba 98 e8 4e bc 20 f1 3b 3c 5c 62 8f 3c
       -0.0017592907 -0.012628697 0.011471063 0.017502956
0001f0 a0 32 d6 bb 30 73 28 bc 60 bd 39 3b 5e 42 1b 3d
       -0.0065367967 -0.010281369 0.0028341636 0.03790509
000200 a0 bf 08 bb 6a ef 0d bd 10 f6 0d bc 44 73 d1 bc
       -0.002086617 -0.03465215 -0.008664623 -0.025567658
000210 ea c4 46 bd f0 85 76 3c 1c 2c c6 bc bc c4 bc bc
       -0.048527636 0.015046582 -0.024190955 -0.023043029
000220 40 f3 d9 bb 8c 12 a9 bc 18 10 cb bc 98 b1 ff bc
       -0.006651312 -0.020638727 -0.024787948 -0.031212613
000230 c0 55 69 bd 2a 49 15 bd dc db 12 3d a2 8e 33 3d
       -0.056966543 -0.036446728 0.035854205 0.043837197
000240 a0 24 2b bb b8 5b 04 3c 40 ec c3 3a 40 c2 93 3a
       -0.002611436 0.008078508 0.0014947727 0.0011273101
000250 be ba 69 3d 58 5a 1b bc 7a f7 7f bd ca c3 24 bd
       0.057062857 -0.009481989 -0.06249187 -0.04022578
000260 38 20 b1 bc 08 90 7f bc 56 38 1f 3d 80 09 eb 3a
       -0.021621808 -0.015598305 0.038872086 0.0017931908
000270 44 53 ea 3c 7a 7d 19 3d 00 9b 53 3c 86 f5 00 bd
       0.028604157 0.03747318 0.012915373 -0.03148415
000280 1c d5 59 3d f0 77 74 bc 48 9f 22 bd 32 33 16 3d
       0.053181753 -0.014921173 -0.039702684 0.036669917
000290 e8 83 02 bd 0a 70 5f bd 48 36 3a 3d f0 2d 76 bc
       -0.031864077 -0.05455021 0.045461923 -0.015025601
0002a0 26 2b 4f bd 7c 85 47 3d 04 df e5 3c b4 62 3a bd
       -0.05057826 0.048711285 0.028060444 -0.045504287
0002b0 00 b3 65 3b a0 ba ea 3b 36 36 0d 3d 60 09 40 bd
       0.003504932 0.0071633607 0.034475528 -0.04688394
0002c0 d0 35 17 bd ea 55 2b bd f4 0b d8 3c c0 84 fa bb
       -0.036916554 -0.04182998 0.026372887 -0.0076452196
0002d0 b8 bc fa bc e8 2a 1b 3c d0 d5 38 bc 88 89 da 3c
       -0.030607566 0.009470679 -0.011281446 0.026676908
0002e0 50 68 2f 3c 2a 8b 0c bd 12 90 3c 3d 14 76 cc bc
       0.010706022 -0.034312405 0.046035834 -0.024958648
0002f0 94 73 2e 3d b8 a9 c4 bc 88 42 49 3c 1c be 22 bd
       0.042590693 -0.02400671 0.012283929 -0.039732084
000300 28 6d c9 3c f8 c9 23 bd 20 c6 46 3c c0 f9 e2 3a
       0.024588183 -0.039987534 0.012132198 0.0017316863
000310 7e 8b 1e bd d0 a2 fe 3c 44 50 64 3d 58 46 52 bc
       -0.03870725 0.031083494 0.05574061 -0.012834154
000320 b8 46 7f bd 3e 8f 10 3d 10 f4 a2 3c 26 16 75 bd
       -0.062323302 0.035292856 0.019891769 -0.059835576
000330 f0 7d 6a 3d c8 0a 40 3c ac a6 eb bc 9a ce 72 3d
       0.05724901 0.01172132 -0.028765999 0.05927906
000340 9c a2 a1 bc e8 40 56 bc 70 0e ff 3c 50 26 3e 3d
       -0.019730859 -0.013076998 0.031134814 0.046423256
000350 24 dc 16 3d e6 25 1c bd a8 d4 56 3d 54 51 5c 3d
       0.036831036 -0.03812208 0.0524489 0.053788498
000360 f4 06 83 3c a0 ca 56 3b cc da ea bc 80 cb 52 3c
       0.015994526 0.0032774583 -0.028668784 0.012865901
000370 62 3f 49 bd f8 1f 82 bc 34 11 c2 3c 38 7a de bc
       -0.049132712 -0.015884385 0.023689844 -0.027157888
000380 58 eb ad 3c 38 0d 6c bd 66 f3 3c bd 14 1e c7 bc
       0.021230385 -0.057629794 -0.04613056 -0.024306335
000390 be b1 7f bd b8 2b af bc 16 5b 74 3d 4e bc 58 3d
       -0.062425368 -0.021383151 0.05965718 0.052913956
0003a0 68 c5 29 3d ec f5 9f bc c2 a3 64 bd b0 ea 9b bb
       0.041448027 -0.019526444 -0.055820234 -0.0047582015
0003b0 3c 38 af 3c ee 43 0c 3d be 2e 1d 3d 20 b9 ff 3c
       0.02138912 0.03424447 0.038374655 0.031216204
0003c0 70 18 0d bd 48 bd 18 3d 8c 93 d8 bc b0 5b e6 3b
       -0.034447134 0.037289888 -0.026437543 0.007029973
0003d0 ce ca 4c 3d ea df 03 bd 10 5c 92 3c f4 3e 8e 3c
       0.049998097 -0.032195963 0.017866164 0.017364003
0003e0 6e db 32 3d 60 31 7c bc da 66 47 bd 0a da 2d bd
       0.043666296 -0.015392631 -0.04868207 -0.042444266
0003f0 04 40 e7 3c c0 6d ff bc 1c 1c dc bc c0 63 79 bd
       0.028228767 -0.031180263 -0.026868872 -0.060886145

bias f4 [32]
000000 00 44 2b 3a 40 d6 9b 3b 66 2b 2a bd a0 d2 ee bb
       0.0006533265 0.004755765 -0.041545294 -0.007288292
000010 9a 48 21 3d 60 ed 09 bc 70 55 fb bc 30 9f f1 3b
       0.03937588 -0.008418411 -0.030680388 0.007373713
000020 18 d5 5f 3c a4 9a 68 3d d4 7e ba 3c 08 0a 85 3c
       0.013661645 0.0567881 0.022765554 0.016240135
000030 04 4c 03 3d 58 97 fc bc 02 ff 57 bd 4c 60 10 bd
       0.032054916 -0.030833885 -0.05273343 -0.035248086
000040 10 be 30 bc 50 a6 5c 3d da 64 61 bd 12 0f 7f bd
       -0.010787502 0.053869545 -0.05502782 -0.06227023
000050 e0 e0 9b bc a6 33 3f bd 90 72 e8 3b 30 c6 86 3b
       -0.019028127 -0.046680115 0.007093735 0.0041129813
000060 e8 34 2b 3d 76 c7 0d bd 50 6a 07 bd a0 36 35 bd
       0.041798502 -0.03461405 -0.033060372 -0.044241548
000070 58 f8 aa 3c 9e ed 79 bd d6 40 7f bd 1a 65 1b 3d
       0.020870373 -0.061017625 -0.06231769 0.037938215

weight f4 [64, 32, 4, 4]
000000 00 a2 d3 3c bd a3 1e 3d d8 a6 20 3d d9 fe d0 3c
       0.025834084 0.03873037 0.039221615 0.025512146
000010 e7 d2 2f 3d 15 1f 0a bd 29 1e 09 3d 66 32 4b 3b
       0.04292574 -0.03372105 0.03347603 0.0031005382
000020 ca 01 06 3d 41 df 2b bc f4 eb 20 3c f7 83 0b bd
       0.03271655 -0.01049024 0.009821881 -0.0340614
000030 ef e0 1c bd 47 c8 a2 bb c1 bd 23 bc 99 d9 cf bc
       -0.03830045 -0.0049677226 -0.009993971 -0.025372313
000040 6a 4b 14 bb 6e e5 2d bc ba 72 31 3d f2 40 18 3d
       -0.0022627958 -0.010613782 0.043322302 0.03717131
000050 31 0a e2 bc e2 25 81 3c 07 5b 1d 3d 14 ea 8a 3c
       -0.02759275 0.015765134 0.03841689 0.01695732
000060 9c 7c c1 3c 26 20 ab bc 8c 1a af 3b 88 ca 5d 3c
       0.023618989 -0.020889353 0.005343741 0.013537057
000070 0c 4d b6 38 9c 27 bf bc c4 9e c6 bb f6 da f4 3c
       8.6927874e-05 -0.023334317 -0.006061407 0.029889565
000080 4e 81 bf 3c 04 c4 2a 3c bd d4 dd bc 3f f6 f5 bc
       0.023377087 0.01042271 -0.02707898 -0.030024646
000090 11 7a 84 bc 33 1a 33 bd e7 34 2a bd fb 3a 32 3d
       -0.016171487 -0.043726157 -0.041554358 0.04351328
0000a0 9d 76 90 bc ba 0c 35 ba f6 ea 86 3c 92 fa 09 3d
       -0.017634684 -0.00069064985 0.01646946 0.033686228
0000b0 9f c4 0e bd 20 a8 9e 3c 7f 98 30 bd 79 54 a5 bc
       -0.03485548 0.019367278 -0.04311418 -0.020181881
0000c0 59 89 a8 3c c4 57 98 bb 5f 7a c2 bb 99 c2 26 bc
       0.020573305 -0.0046491344 -0.005934998 -0.010178232
0000d0 94 1d 22 3d c0 e3 83 3c 2c 02 90 3c 82 68 6e 3b
       0.03957899 0.01609981 0.01757916 0.003637821
0000e0 11 40 1a bc f1 07 48 bc 2f d3 39 3c 41 1f a7 bc
       -0.009414689 -0.012208925 0.011341854 -0.020400645
0000f0 33 5d 26 3d 93 33 13 bd 34 4e 23 3d 25 27 c4 3b
       0.040616225 -0.035937857 0.039869502 0.0059861117
000100 08 ac e0 bc ec fd 1f 3b c2 7d fc 3c fd 91 e0 bb
       -0.02742578 0.0024412824 0.030821685 -0.0068533407
000110 b4 9c 1b 3d 3d b4 31 bd ea 83 21 3d 82 5d 03 3d
       0.03799124 -0.04338478 0.039432444 0.032071598
000120 56 96 cc 3a 4d 42 ea bc fa d5 ec bc ef 22 01 3d
       0.0015608768 -0.028596068 -0.028910626 0.031527456
000130 81 8a 09 3d 1e cd bb 3b 58 8a 25 3d aa e4 0b bd
       0.033579353 0.005731239 0.040415138 -0.034153618
000140 2d 73 34 bd ff 70 ce bc 70 75 99 bc cb 3e f1 3c
       -0.044055153 -0.025200365 -0.018732756 0.029448887
000150 ec 8a 1c bd 68 0a 20 3d c9 fe e2 bb 29 a2 18 3d
       -0.038218424 0.039072424 -0.0069273454 0.037264023
000160 70 65 23 3d 4b 8b d8 3c ff eb cc bc 93 ed e6 3b
       0.03989166 0.026433608 -0.025014875 0.007047364
000170 1e 57 32 3d 79 4f 9e 3a e6 39 de 3c 4b 9c b9 3c
       0.043540113 0.0012078128 0.027127218 0.022657534
000180 22 01 b2 3c 9d 85 c3 3b e6 9b 0a bd 7e bf a0 3b
       0.021729056 0.0059668557 -0.033840083 0.00490564
000190 0b d8 5b 3c 8b 21 bb 3c f7 6f 91 bc 68 53 34 bd
       0.013418208 0.022843143 -0.017753584 -0.044024855
0001a0 be 20 25 3d b5 23 a9 bc 26 64 8e bb 42 c1 06 bd
       0.04031443 -0.02064691 -0.0043454347 -0.03289915
0001b0 f9 52 1c bd 0a a5 fd 3b 29 00 49 3c df f6 30 bc
       -0.038165066 0.0077406215 0.012268105 -0.010801046
0001c0 cc d8 1e bd 17 48 2c 3d 07 1e 28 bd 11 29 87 bc
       -0.038780972 0.042060938 -0.04104426 -0.016499074
0001d0 67 fa dd bc ed 03 da bc 48 96 20 3d 17 62 63 3a
       -0.02709694 -0.0266132 0.03920582 0.00086739793
0001e0 13 2a f8 bc 3f 82 16 bd ed 0b 75 3c 13 d7 34 bc
       -0.0302935 -0.036745306 0.014956457 -0.011037606
0001f0 fe 7e 0f bb eb 56 22 bc 52 36 23 3c b4 22 91 bc
       -0.0021895762 -0.009908418 0.009961681 -0.017716743
000200 f6 96 8e 3c 4c d9 ba bb b7 44 aa 3c 81 52 e9 3c
       0.017405968 -0.0057021733 0.020784719 0.028481724
000210 42 c7 ad 3c 84 e7 f7 3c 10 a9 17 3d e2 e2 37 3c
       0.021213178 0.030261762 0.037026465 0.011223527
000220 cd c1 b7 bc ca 90 1d 3d 37 5a 21 bc 1f 86 f1 bc
       -0.022431279 0.03846816 -0.009848169 -0.0294829
000230 14 de 95 bc 75 f7 d8 bc da 02 97 3c 32 63 13 3d
       -0.018294372 -0.026485184 0.018433977 0.035983272
000240 8b 7d c8 bc 95 6e 51 bc a1 2f ec 3c 7f e2 17 bd
       -0.024473926 -0.0127827125 0.028831305 -0.037081238
000250 f3 e9 7b 3c 69 74 2b 3d 4a a7 8c bc 57 13 31 bd
       0.015375602 0.041859064 -0.017169613 -0.043231335
000260 fc 9f 05 bd fa dc c5 bc 16 13 86 bc 38 3e ae bc
       -0.032623276 -0.024153221 -0.016366523 -0.021269903
000270 2e d2 de 3c 42 d6 e2 bb b1 63 0f bd 03 d7 17 bd
       0.02719983 -0.006922514 -0.035007183 -0.037070286
000280 cf 75 d9 bb 72 18 20 bd f4 41 34 bd e9 2c d5 ba
       -0.0066363583 -0.039085813 -0.04400821 -0.0016263995
000290 56 81 3d bc 89 ef e9 3c 93 ab 01 3d 90 5b 20 bd
       -0.011566481 0.028556602 0.031657767 -0.03914982
0002a0 6a c1 87 3b 4b da ea 3c 7d cd d1 bb 98 07 bf bc
       0.00414293 0.028668543 -0.00640267 -0.02331905
0002b0 d4 14 82 3c 16 9a a8 3c 18 ed dc bc b5 10 bd bb
       0.015879072 0.020581286 -0.026968524 -0.005769814
0002c0 c6 64 89 3b 47 91 31 bd 16 8d 13 bd e9 fe 04 bd
       0.0041929213 -0.043351438 -0.036023222 -0.032469664
0002d0 1d a5 2d 3d 83 fc 06 bd 37 c5 08 3d e5 e0 fe bb
       0.042393792 -0.032955658 0.033391204 -0.0077782744
0002e0 4a 77 ab 3b 2e 11 8d bb 1f 7a 26 3d 19 da 1e bd
       0.005232726 -0.0043050265 0.040643808 -0.038782213
0002f0 d8 a6 a6 3c f0 a4 21 3d 68 ab a4 bb e3 95 02 3d
       0.02034323 0.039463937 -0.005025316 0.031881224
000300 30 b4 07 3d 26 d3 89 bc 97 fa 81 3c af 8c bb bc
       0.033130825 -0.016824316 0.01586656 -0.022894232
000310 3e bd 82 bc 26 76 28 3d 11 1d 59 ba 29 cb 9e bc
       -0.015959378 0.0411283 -0.00082822243 -0.019383984
000320 cb 4f 22 3d 43 67 d6 bc 4b fc 23 3d a6 2e 56 bb
       0.039626878 -0.026172286 0.040035527 -0.0032681613
000330 39 63 cd 3b b0 f7 03 bd 1e 4f 20 3d be 26 26 bd
       0.006267932 -0.032218635 0.039137952 -0.04056429
000340 1b 69 0e bd ce e6 35 bc 8b 54 13 3d a3 84 d7 3c
       -0.034768205 -0.011102391 0.0359693 0.026308363
000350 7b 14 d5 3c 5b 61 36 bc e7 d8 f9 bb 87 4c a7 3b
       0.026010742 -0.01113161 -0.0076247337 0.0051055583
000360 b9 88 27 bd 15 e1 52 3c 87 67 1e 3d ee 48 ca bc
       -0.040901873 0.012871047 0.03867295 -0.024692979
000370 e1 27 cf 3c 4a 94 53 bb 49 9d ab bc fd 7d e1 bc
       0.02528757 -0.0032284432 -0.020949023 -0.027525896
000380 39 10 32 3d e7 08 1f 3d 84 6b 30 3d cb 6c 01 3d
       0.043472502 0.03882685 0.043071285 0.031597894
000390 ec e2 ea bc 2d b4 18 bd 67 dd 00 3c 84 6b 00 3b
       -0.028672658 -0.037281204 0.007865286 0.0019595334
0003a0 35 8c 0f bc bc cf 23 3d 54 3d 2d bd 3e e2 97 3c
       -0.008761455 0.039993033 -0.042294815 0.018540498
0003b0 84 ad 83 3c f5 b6 b2 3c 47 f9 23 3d 41 16 95 bc
       0.01607395 0.021815756 0.04003265 -0.018199088
0003c0 ee 9f ed 3c 05 b9 a4 3b 97 87 30 3c 88 0e e9 3b
       0.029006924 0.005026939 0.010774515 0.007112328
0003d0 0c fa 16 bd 11 2a dc 3c 0d b1 f2 bc e7 3d d9 bb
       -0.036859557 0.026875528 -0.02962544 -0.006629694
0003e0 cf 17 20 3d e4 1d dc bc 3d 60 1e bd 7d 34 1b bd
       0.039085206 -0.026869722 -0.038666 -0.037891854
0003f0 97 03 8d bc 38 7a 9e 3c 91 1f 03 3d 9e 89 04 3d
       -0.017213626 0.019345388 0.032012526 0.032357804

bias f4 [64]
000000 33 3e 26 bd 09 48 1c 3d 88 5a 1c 3d fc 72 54 bc
       -0.04058666 0.038154636 0.038172275 -0.012966868
000010 7d b2 9a 3c 03 ab ac 3a ba 24 df 3c 89 d9 ca 3c
       0.018883938 0.0013173524 0.027239192 0.024761932
000020 cc 4f 73 3c a9 1a 89 bc a4 26 84 ba 41 52 c0 bb
       0.014850568 -0.016736345 -0.0010082317 -0.0058691804
000030 d0 64 11 3d 3c b0 22 bc e9 62 2e bd 85 ce 10 3d
       0.035496533 -0.009929713 -0.042574797 0.035353202
000040 8c 1b 15 3c a7 2b b1 bc a0 df 07 bd 8d 0f 5c bc
       0.009100806 -0.02162726 -0.03317225 -0.013431442
000050 16 0a 72 3c 69 bd 21 bc 44 2f 20 3c d6 37 e2 bc
       0.0147729125 -0.009871819 0.009776894 -0.027614515
000060 8d dc f0 bb 98 ad 8b bb d8 49 1f bd c5 8c 12 3d
       -0.0073505105 -0.0042626373 -0.038888782 0.03577878
000070 26 31 0a bc 68 95 2a bd 5a 54 19 bd 41 73 e4 3b
       -0.008434569 -0.04164639 -0.03743396 0.006971747
000080 82 1f 03 bb a9 c8 d3 bb b5 ec 52 bc 64 97 ef bc
       -0.0020007794 -0.0064631295 -0.012873818 -0.029246993
000090 d1 7a 41 3c b9 31 19 bd ee af 69 bc 84 15 17 3d
       0.011809067 -0.037400935 -0.014263136 0.036885753
0000a0 3d ea e6 bc 13 2c ae 3b ee 5c e3 3c 11 1e 16 bd
       -0.028187865 0.0053153127 0.027754273 -0.036649767
0000b0 22 83 e6 bc bf 90 07 3d d1 8a c5 3c aa db be 3b
       -0.0281387 0.033097025 0.024114044 0.005824526
0000c0 ac fb db bc c9 bb 33 3d c8 7a 2f 3c d4 10 2d 3d
       -0.026853405 0.043880258 0.010710426 0.042252377
0000d0 41 04 e5 bc 9e 9b b1 3c 89 74 20 3d e7 ea 33 3c
       -0.02795613 0.02168065 0.039173637 0.010981298
0000e0 41 5a 8b 3c 43 7c 2c bd 27 4f 35 3c 97 36 c2 3c
       0.01701081 -0.042110693 0.011066235 0.023707671
0000f0 53 e5 0e bd 91 fd ac 3a bb ac 33 3d 6f 5f 9c 39
       -0.03488667 0.0013198127 0.0438659 0.00029825742

weight f4 [64, 64, 3, 3]
000000 b8 49 9c bc 68 b2 00 bd fe 8f 1c bd 8b d2 41 3c
       -0.01907812 -0.03142014 -0.03822326 0.0118299825
000010 c3 61 ca 3c 90 1b cc bc e0 43 89 3b 14 2d 0f bd
       0.02470482 -0.024915487 0.0041889995 -0.0349551
000020 eb 4f a3 3b cb da 31 bc 52 48 16 3d b6 cc 0b 3d
       0.004983892 -0.010855387 0.036690064 0.034130774
000030 04 d1 26 3d 73 5c b8 bc 9b 3d 8e bc a8 1d d1 bc
       0.040726677 -0.02250502 -0.01736336 -0.025526837
000040 f6 7d 05 bc 36 75 0e 3d 20 e2 cf 3b be 2f 17 3d
       -0.008147707 0.03477975 0.006344095 0.036910765
000050 a3 5c 20 3d d6 58 79 bb c0 d0 19 3c fb 90 2c bc
       0.039150845 -0.0038047335 0.009388149 -0.010532613
000060 ab 8d 79 3a d6 8b 0d bc bb 3b c3 bc 60 8f a2 3c
       0.00095197064 -0.0086392965 -0.023832193 0.019843757
000070 5e 8f a4 bc 08 0f d0 bc b6 9f fc bc 80 cb 59 bb
       -0.020087894 -0.025397792 -0.030837875 -0.0033232868
000080 27 b7 1d bd c3 eb bb 3c 90 ff fb bc 00 f4 52 b9
       -0.038504746 0.022939568 -0.03076151 -0.00020118058
000090 e6 b7 0c 3d f0 68 87 3c 56 c5 3c ba 80 bb 5e bb
       0.034355067 0.01652953 -0.0007201036 -0.003398627
0000a0 a2 46 05 3d fb 11 86 bc 03 2e e6 bc 56 00 5a bc
       0.032538064 -0.016365996 -0.028098112 -0.013305744
0000b0 56 63 4d bb 00 47 b6 ba f0 91 98 3c b2 df 17 bd
       -0.0031339726 -0.0013906658 0.018624276 -0.037078567
0000c0 00 1c 68 b9 2e 80 8d 3c 1b f8 d0 bc 9f 2c 21 3d
       -0.00022135675 0.017273035 -0.02550893 0.039349195
0000d0 e3 67 11 3d 96 19 1d bb 2b 6d 04 bc b0 53 c4 bc
       0.035499465 -0.002397155 -0.008082668 -0.023965687
0000e0 63 ae d9 bc 80 d2 18 3b 40 f0 3b 3b 16 9f 9b bb
       -0.026572412 0.0023318827 0.0028677136 -0.004749189
0000f0 0b 60 c9 3b 76 1e b2 3b e0 54 b3 3b bf e0 26 bd
       0.0061454824 0.00543576 0.0054727644 -0.04074168
000100 1f 0f 04 3d 03 a0 eb bc 98 5d 27 3d 92 4c 19 bd
       0.032240983 -0.028762823 0.040860742 -0.03742654
000110 18 38 8e 3c ab 34 7d 3b 58 2e c5 3c 7b cb 27 bd
       0.017360732 0.003863613 0.02406995 -0.04096554
000120 20 61 fc 3b ab ee e6 ba 3c 7a 03 3d 88 8e 97 3c
       0.007702008 -0.0017618736 0.032098994 0.018500581
000130 1b d4 37 3c 80 ba b9 3c 6b 1f 2a bc 78 9e db bc
       0.0112200035 0.022671938 -0.010383467 -0.026808962
000140 0b e3 bb 3c ae 68 07 3d 1a 81 20 bd 96 c2 41 3c
       0.022935411 0.033058815 -0.03918562 0.011826178
000150 4b 85 46 3c d6 42 0e bc 3a 36 11 bd 73 1e 14 3d
       0.01211674 -0.008682927 -0.035452105 0.03616185
000160 ec 61 2a bd ab cd de bc f6 ea 6a 3c 13 e9 22 bd
       -0.04159729 -0.02719768 0.014338246 -0.03977306
000170 1e 1f b7 3c 70 64 64 3c 82 63 09 3d ac 83 24 bd
       0.022353705 0.013939962 0.033542164 -0.040164635
000180 af 74 10 bd e0 13 1c bd 8b f9 ea 3b 7b 9d 99 bc
       -0.03526753 -0.03810489 0.007170861 -0.01875185
000190 ce fc 19 3d a6 53 22 3d 9b 6c 09 3d c3 77 9c bc
       0.03759461 0.039630555 0.03355084 -0.019100076
0001a0 00 a1 11 bd 0b fe 6c bc 80 e0 6f 3b bc 37 29 3d
       -0.035553932 -0.014464865 0.0036602318 0.041312918
0001b0 76 9e b1 3c 2b b6 0c bb 43 7b 13 3d 66 3c 1d bc
       0.021682005 -0.0021470885 0.036006223 -0.00959692
0001c0 f8 8c 03 bd 77 91 0a bd 80 19 c0 bb ab 3e 99 b9
       -0.03211686 -0.033830132 -0.005862415 -0.00029229125
0001d0 70 0f e6 bc f3 1e b5 3c 16 39 40 bc 62 33 17 bd
       -0.028083533 0.022109484 -0.01173236 -0.036914237
0001e0 40 bc 77 3c 06 d2 63 3c 7b 4d 19 bd cb 5b 11 3d
       0.015120566 0.013905054 -0.037427407 0.03548793
0001f0 d6 2d de 3a 38 9d a9 bc 56 cc 00 3d 96 31 30 3c
       0.0016950916 -0.02070485 0.03144487 0.01075401
000200 f0 3c 09 bc 30 28 fa 3c 2b 76 59 3b 06 2e 2d 3c
       -0.008376345 0.030536741 0.0033182006 0.010570055
000210 5b 59 9a bc 1b fa bd bc a6 c2 4d bc db b6 a8 3c
       -0.018841436 -0.023190549 -0.012558615 0.020595005
000220 cb 5c 8b 3c 0e dc 81 bc 76 07 69 bc 36 6b dc bb
       0.01701202 -0.015852 -0.01422297 -0.0067266477
000230 d3 1d d5 bc 90 08 14 3d d3 68 eb 3c 36 cc eb 3b
       -0.026015198 0.03614098 0.028736508 0.0071959747
000240 60 5d f5 3b 80 e9 96 3a 00 e0 a8 b7 3b e3 b6 3c
       0.007487938 0.001151368 -2.0131469e-05 0.022325149
000250 54 7c 20 bd 60 46 6d bc 70 2e 3a bc 68 41 94 3c
       -0.03918107 -0.014482111 -0.011363611 0.018097594
000260 93 74 e9 bc 16 f9 7d bb 20 04 e9 3c 20 db 24 3d
       -0.02849797 -0.0038753203 0.02844435 0.040248036
000270 00 30 86 39 b6 52 b6 bb 66 ca 60 bc 24 42 08 3d
       0.00025594234 -0.005564059 -0.013720131 0.0332662
000280 34 b6 0c bd e0 40 2a 3d 8f b1 0b 3d 94 91 0b 3d
       -0.03435345 0.041565776 0.03410488 0.03407438
000290 88 5e 80 3c 6b 1f cd bc 58 87 24 3d 0b e2 08 3d
       0.015670076 -0.025039395 0.040168136 0.033418696
0002a0 e6 da de 3c 4b d9 f0 3b d6 bf bf bc 3b 13 a7 bc
       0.027203988 0.007350122 -0.023406904 -0.020394912
0002b0 eb 6a fe bb 78 2d c5 bc ab d2 ea 3a 00 b2 29 3a
       -0.0077642105 -0.024069533 0.0017915567 0.00064733624
0002c0 da a3 21 bd 3b 20 aa bc b6 82 86 bc 40 94 d9 3c
       -0.0394629 -0.020767322 -0.01641975 0.026559949
0002d0 fc 3b 06 bd 88 68 f4 3c f8 1e d5 bc eb 7e 58 3c
       -0.03277205 0.029835 -0.026015744 0.013213853
0002e0 d3 6e 03 bd 83 1b 83 3c 9e e6 8d 3c 50 9f 1b bc
       -0.032088112 0.01600433 0.01732188 -0.009498432
0002f0 83 df 83 bc ae 7f 17 bd 60 68 a6 3c f0 48 b7 bc
       -0.01609779 -0.036987 0.020313442 -0.022373646
000300 03 08 03 3d 16 b0 30 bb 26 24 4a bc 8b 54 a0 bc
       0.031990062 -0.0026960424 -0.01233772 -0.019571563
000310 d0 05 01 bc 6b d9 b6 3c 9b 27 a7 bc 2b 5d f0 bc
       -0.007874921 0.02232047 -0.020404628 -0.029341301
000320 2b 55 eb bc a8 eb fe bc dc 22 12 bd 96 0a a2 3c
       -0.028727135 -0.031118229 -0.035677776 0.019780438
000330 f0 bd 4f bc 38 48 b2 bc 76 46 7d 3c 0a 84 26 3d
       -0.012679562 -0.021762952 0.015458694 0.040653266
000340 e0 e2 b7 3c e6 38 8e 3c 27 b5 05 3d a0 1c f7 bb
       0.02244705 0.017361116 0.032643463 -0.007541254
000350 46 33 26 3c ae ed 1a bd f6 96 cd 3b fe 85 f8 3c
       0.0101440605 -0.037824325 0.0062740995 0.03033733
000360 eb ef 42 bc 3b d5 cf 3c b0 8f 7b 3c 4b f5 70 bc
       -0.011898021 0.02537023 0.015354082 -0.01470692
000370 a3 88 9e 3c 56 6f 8a b9 20 97 89 3b d0 c9 22 bd
       0.019352263 -0.00026404363 0.0041989237 -0.039743245
000380 67 9a 22 bd 07 c9 06 3d 16 6b a9 bb db 70 f6 3c
       -0.03969803 0.03290656 -0.0051702363 0.03008311
000390 c0 03 2a bd 56 6f 29 bc 53 e5 c5 bc 16 4a b0 bb
       -0.041507483 -0.010341486 -0.024157202 -0.0053799255
0003a0 1b 69 c0 bc 8e 36 84 bc fe 0f 29 bd 40 25 8d 3c
       -0.023487618 -0.016139295 -0.041275017 0.017229676
0003b0 8c 49 00 bd b6 06 f2 3c 2b d1 ae bc f3 c5 f2 3c
       -0.03132014 0.029544216 -0.021339973 0.029635405
0003c0 56 19 b1 bb 46 20 c1 3c d4 2e 23 bd 60 a6 d3 bb
       -0.0054046316 0.02357496 -0.03983958 -0.0064590424
0003d0 a3 44 94 bc 2b f8 a3 3b 40 b7 00 3b 88 fa e8 bc
       -0.018099135 0.005003949 0.0019640476 -0.028439775
0003e0 f3 5f 18 3d 76 43 c2 bc 50 0f 20 bc d0 cc 07 bc
       0.03720088 -0.023713809 -0.009769276 -0.008288577
0003f0 ab 5f 19 3a 26 1d 27 3d 96 bd e1 bc ab a2 50 bb
       0.00058507425 0.040799282 -0.027556222 -0.003183524

bias f4 [64]
000000 e6 9b 77 3c b6 37 83 bc 66 e3 e5 3c f6 5c e1 bc
       0.015112853 -0.016017776 0.028062534 -0.027510148
000010 80 01 8b 3b 98 e3 07 3d 6b 7f 0a bd 76 80 d9 3b
       0.004242122 0.033176035 -0.03381292 0.006637628
000020 00 ac 7d 39 82 ec 0a bd 90 ee 0c bd ac db 0a 3d
       0.00024192035 -0.033916958 -0.0344072 0.0339009
000030 26 fe 0c 3d 06 42 32 3c 86 12 24 3d 17 88 10 bd
       0.034422062 0.010879999 0.040056728 -0.035286035
000040 0b bd e9 3b 66 fe 69 3c 56 95 5f 3a 7e 3f 28 3d
       0.0071331314 0.014281845 0.00085290277 0.041076176
000050 8b c1 0b 3c 90 ca 5a bc a0 a7 bb 3b 90 7f 21 3d
       0.008530031 -0.013353959 0.0057267696 0.039428294
000060 56 d9 fc 39 6b 62 45 3b 24 8d 1a bd a4 45 02 3d
       0.00048227113 0.0030118476 -0.03773226 0.031804696
000070 60 c1 c6 bc e0 7f 57 3c 56 39 8c 3c c3 43 fe bc
       -0.02426213 0.013153046 0.017117184 -0.03103817
000080 66 18 4b 3c ab e2 67 3a 76 f5 57 3c aa 1e 00 bd
       0.012395954 0.0008845727 0.013181081 -0.031279244
000090 32 54 06 bd fe 0f 0a 3d 26 25 24 bd a0 fb 0e 3c
       -0.03279514 0.033706658 -0.04007449 0.008726984
0000a0 be 5f a3 bc 0a 0a 29 bd f7 8a 14 bd 56 3d 86 bc
       -0.019943114 -0.04126934 -0.03626534 -0.01638667
0000b0 97 70 22 3d d6 14 3b bc c0 c5 a6 3b cb b1 65 3c
       0.039658155 -0.011418542 0.0050894916 0.01401944
0000c0 4b c7 df 3c 36 d4 e3 3c 26 6b 1b 3c 60 ba 13 3d
       0.02731671 0.027811151 0.009485995 0.036066413
0000d0 f6 d9 77 bc b6 29 92 bc e4 b7 07 3d e3 8c 8d bc
       -0.0151276495 -0.017842155 0.033134356 -0.017279094
0000e0 d0 8f 10 bd cb f9 5c 3c b6 58 f4 3b 20 a7 f9 bc
       -0.0352934 0.01348729 0.007456864 -0.0304752
0000f0 48 77 f8 bc 70 97 23 bd 6b 58 5c 3b 56 d7 71 3a
       -0.030330315 -0.039939344 0.0033622037 0.0009225508

weight f4 [256, 64]
000000 3a cd d3 bd 54 01 f8 bd dc 78 55 bd 98 58 b0 bd
       -0.10341878 -0.12109628 -0.052117214 -0.08610648
000010 7e 3c 8c 3d 7a 80 c0 3d f4 91 f8 bd c0 9d ed 3c
       0.068474755 0.09399505 -0.12137213 0.029005885
000020 b0 0e e9 3d c8 49 89 bd d2 d0 ef 3d 14 42 af bd
       0.113797545 -0.06703526 0.11709751 -0.08557525
000030 d0 09 44 3c 58 38 10 bd 1e 15 e0 3d be 88 e0 3d
       0.01196523 -0.035209984 0.10941528 0.109635815
000040 de 0d bd bd 20 d5 4f 3d 50 43 ed 3d a4 f8 3a 3d
       -0.092311606 0.05074036 0.115851045 0.04564728
000050 12 53 f4 bd 7c 17 46 3d 02 b3 f1 3d f8 bf 3b 3d
       -0.11929907 0.04836224 0.11801721 0.045837373
000060 da 37 a1 3d 20 2e 6d bd 14 8e a4 bd d6 f5 dd 3d
       0.07871981 -0.057905316 -0.08034912 0.10837905
000070 a4 30 50 bd a8 88 f0 bc 94 6f 81 3d e0 22 00 3c
       -0.050827637 -0.029362038 0.0632011 0.007820815
000080 ac aa 0f bd 80 d6 48 bb 50 49 2c bc e8 94 c7 bd
       -0.035074875 -0.003064543 -0.010515526 -0.097451985
000090 40 cc 10 3b a4 73 60 3d ac af cf bd 16 b2 ed bd
       0.0022094399 0.054797783 -0.101409286 -0.11606233
0000a0 f8 07 fc 3d d8 09 b7 3c c6 f9 9a bd c0 03 8b bc
       0.123062074 0.022343561 -0.07567172 -0.016969562
0000b0 80 68 71 3d 00 9b 9a ba 8a 96 a3 bd cc d0 ef 3d
       0.05893755 -0.0011795461 -0.079876974 0.11709747
0000c0 30 3c 15 3c 40 5d 08 bc 9c d1 d0 bd 58 07 ec bc
       0.009108588 -0.008323014 -0.1019623 -0.028812096
0000d0 a0 70 fc bd aa a3 9d 3d c4 cd b1 bd e4 0b 82 3d
       -0.12326169 0.07697232 -0.08681825 0.06349924
0000e0 9a 08 e3 bd a0 5e 9d 3d a0 f1 04 bc e2 c1 d1 bd
       -0.11085625 0.07684064 -0.0081142485 -0.10242058
0000f0 30 6b 5c bc 48 a9 de bc 90 2d c5 3c 30 ac 3c bc
       -0.01345329 -0.027180329 0.024069577 -0.011515662
000100 1e 31 e4 3d 8e af b4 bd 30 2c fe 3d 4c f6 51 bd
       0.11142181 -0.08822547 0.12410772 -0.051260278
000110 b4 8d 74 bd 28 5d b9 bd e4 6f da 3d a8 db 82 3d
       -0.05970545 -0.09050971 0.10665873 0.06389552
000120 6c 0b 9b 3d 30 55 66 bd 00 ec c8 bd ae ce ae bd
       0.07570538 -0.056233585 -0.098106384 -0.08535515
000130 60 1a 9e 3c 8c c1 b2 3d 78 38 ca bc f4 b5 a9 3d
       0.019299686 0.087283224 -0.02468513 0.08286658
000140 d0 76 99 bc 00 b5 65 bd 48 9c a1 3d de 41 ed bd
       -0.018733412 -0.05608082 0.078911364 -0.11584829
000150 b8 2c e2 3d de ee 81 bd 36 78 e8 3d 4c 42 61 3d
       0.11043686 -0.063443884 0.113510534 0.054994866
000160 d6 e8 da bd 02 50 d6 3d 70 d8 c1 bd 40 06 69 3c
       -0.10688941 0.10464479 -0.0946511 0.0142226815
000170 a4 7e 44 bd 50 35 9a bd d0 b7 b0 3d aa 7f cf bd
       -0.047972336 -0.075297 0.086288095 -0.10131772
000180 d8 d1 db 3d 78 73 a0 bc 88 93 5d 3d 88 8d 4b 3d
       0.10733384 -0.01958631 0.054095775 0.04969552
000190 b6 c3 97 bd 3a 77 d6 bd bc 90 9f 3d c0 48 84 bc
       -0.07410376 -0.104719594 0.07791278 -0.016147971
0001a0 96 37 e0 bd c2 81 f4 3d 78 29 46 bd a4 17 ef 3d
       -0.10948102 0.11938812 -0.04837939 0.11674431
0001b0 e8 85 e3 3c 8c 11 73 3d 10 6b c8 3c 34 ba 58 3d
       0.027773812 0.059342906 0.024465114 0.052911952
0001c0 46 72 fa bd 78 13 9c 3d 80 d2 90 3b f8 80 9c bd
       -0.12228827 0.07620901 0.004419625 -0.07641786
0001d0 c0 33 09 bd 68 ea c7 bc 80 ec f4 bc ea b4 c9 3d
       -0.03349662 -0.024403766 -0.029897928 0.0984896
0001e0 44 30 78 bd 2c ff fb 3d 6a e5 9c bd 28 0d 2f bd
       -0.060592905 0.123045295 -0.07660945 -0.042737156
0001f0 46 90 e2 3d cc 25 b2 3d f8 02 0c 3d ac 27 de 3d
       0.11062674 0.086986154 0.03418252 0.108474106
000200 ce 40 a7 3d 60 60 5d bd f0 45 1a bc 5e ea c9 bd
       0.081666574 -0.05404699 -0.009416088 -0.09859155
000210 68 73 27 bd 42 d0 83 bd 2c 72 a4 bd 50 78 a7 bd
       -0.040881544 -0.064362064 -0.08029589 -0.08177245
000220 e0 4d 44 bd 96 c6 da 3d 40 90 76 bb 90 84 1c 3c
       -0.04792583 0.106824085 -0.00376226 0.00955309
000230 64 4e b4 3d 38 74 da bc 58 fd b8 3d 24 42 18 bd
       0.08804014 -0.026666746 0.090326965 -0.03717245
000240 6a 13 db 3d 98 df 0e bd 78 4c 59 bd 22 57 a0 3d
       0.10697062 -0.034881204 -0.053051442 0.07829119
000250 5a 07 fc bd 6e ac 93 3d 74 06 ca 3d e0 d9 09 bc
       -0.1230609 0.07210623 0.09864512 -0.008413762
000260 e0 d1 61 3d 54 4f 55 3d d0 58 ba 3c da 67 83 bd
       0.055131793 0.052077606 0.022747427 -0.064162925
000270 f0 84 20 3d 12 4c 97 3d 86 5f de 3d 80 66 97 3d
       0.03918928 0.07387556 0.108580634 0.07392597
000280 50 1b b0 3c f4 88 aa 3d 90 ec 7e 3c 82 75 e4 3d
       0.021497399 0.08326903 0.015559331 0.11155225
000290 88 22 ba 3c b4 d8 9f 3d 20 84 eb 3c a0 f5 be bc
       0.022721544 0.07805005 0.028749526 -0.023310483
0002a0 d0 fc b1 3d c0 a0 b2 3c f2 41 ef bd 60 db ac 3b
       0.08690798 0.021805167 -0.116825 0.005275175
0002b0 90 46 d9 bd 50 d4 75 bc d2 dc f1 bd 38 68 c1 bd
       -0.10609162 -0.0150042325 -0.11809696 -0.09443706
0002c0 70 38 8e 3d 1c 42 ee 3d 42 ed e3 bd 88 90 2c bd
       0.06944358 0.11633703 -0.11129238 -0.042130023
0002d0 0c 9a a0 bd 74 cf 2f bd b0 23 d7 3c e8 7d a4 bc
       -0.07841882 -0.042922452 0.026262134 -0.020079568
0002e0 f8 8f f5 3c b8 11 b1 3d dc 5f 0c bd 08 d4 db bd
       0.029975876 0.08645958 -0.034271106 -0.10733801
0002f0 58 7e ba bd 60 5b 26 3d 50 47 a8 bc d4 60 1f 3d
       -0.091061294 0.040614486 -0.020541817 0.038910702
000300 0a 3b 9e bd 98 19 09 3d 20 81 50 3d 84 70 31 bd
       -0.077261046 0.033471674 0.050904393 -0.043320194
000310 04 cf cb bd c8 0b a3 bd 5c a9 18 bd 76 07 f1 bd
       -0.099515945 -0.079612315 -0.03727089 -0.11769001
000320 40 66 9c bc 98 67 08 3d 80 f1 0f 3c ae 59 89 3d
       -0.019091725 0.03330192 0.008785605 0.06706558
000330 68 73 0b 3d 00 ac 24 b9 a0 a7 fe bd d0 6c bd bc
       0.034045607 -0.00015704334 -0.12434316 -0.023123175
000340 54 70 b3 bd b8 8c 31 3d d0 37 4c 3d 1a a1 83 bd
       -0.08761659 0.04334709 0.049857914 -0.06427212
000350 88 42 d0 3d 04 2a 5b bd bc f6 3b 3d dc a9 d2 3d
       0.1016894 -0.053506866 0.0458896 0.10286304
000360 42 70 b7 bd 50 82 6f bd 98 04 a1 bd e0 69 a2 bd
       -0.08956958 -0.058473885 -0.07862204 -0.0793035
000370 9e bb d2 bd 40 3c d2 bc 00 b7 ac ba 22 d9 cc 3d
       -0.102896914 -0.025663495 -0.0013177097 0.10002352
000380 30 ce 74 bd 4e 0e cf bd f0 24 6e bc bc c9 64 bd
       -0.05976695 -0.1011015 -0.014535174 -0.05585645
000390 8a 30 aa bd c0 26 a7 bc 40 b5 0b bd 78 d2 dd 3d
       -0.08310039 -0.02040422 -0.0341084 0.10831159
0003a0 18 c4 21 3d 0e 59 8e 3d 22 80 89 bd ec 39 aa bd
       0.03949365 0.069505796 -0.067138925 -0.08311829
0003b0 8c 60 96 3d 60 77 c8 3d 40 90 a0 3d a0 43 9a bc
       0.073426336 0.09788394 0.078400135 -0.018831074
0003c0 3a b9 bb bd c4 e0 ca 3d bc 08 1c bd 80 67 3b 3b
       -0.091661885 0.09906152 -0.038094267 0.0028595626
0003d0 16 40 b4 3d d0 82 95 3c 08 6e b1 3d 96 c1 e9 bd
       0.08801286 0.018250853 0.08663565 -0.11413877
0003e0 98 b8 27 bd 32 6f d2 3d 60 ff 71 3c 86 c6 93 bd
       -0.040947527 0.10275115 0.014770359 -0.072156
0003f0 e0 8f c9 bd 78 e4 85 bc da 19 d2 3d 00 9d 9d 3c
       -0.09841895 -0.016344294 0.10258837 0.019239902

bias f4 [256]
000000 04 62 61 3d 80 3c 8e 3b f6 f4 af 3d 72 a5 c3 bd
       0.055025116 0.0043407083 0.085916445 -0.095530406
000010 0e ea 82 3d d0 c5 3d 3d a8 b6 bf 3d 88 3c 2c 3d
       0.06392299 0.046331227 0.09361011 0.042049915
000020 9c 67 78 bd 34 1f af 3d 90 cc fe bd 08 2d 9d bd
       -0.060645685 0.085508734 -0.12441361 -0.07674605
000030 62 83 9c bd 28 79 3c 3d 88 2e 0d 3d 50 94 2b bd
       -0.07642247 0.04601398 0.034468204 -0.04188949
000040 00 f3 86 ba ac 6a 46 bd 32 2c af bd c0 6f f4 3d
       -0.0010295808 -0.048441574 -0.085533515 0.11935377
000050 f0 cc 5b 3c 5e 46 eb 3d b0 b9 02 3c 42 6d ad 3d
       0.01341556 0.11488031 0.007978842 0.08468105
000060 0c 16 59 bd 38 5f b9 3c 10 0d 92 3d 20 80 c1 bb
       -0.05299954 0.022628412 0.07131398 -0.0059051663
000070 3e cd 9d 3d 84 44 3d 3d 90 41 b3 bc 00 40 28 bc
       0.077051625 0.04620792 -0.021881849 -0.010269165
000080 66 c5 c9 bd 5a f4 ee bd 56 2e 83 bd d0 a9 ff 3c
       -0.09852104 -0.116677 -0.06405322 0.031208903
000090 5e bb cc 3d 7a 52 ac 3d 02 8e b3 bd 2e 37 98 3d
       0.09996675 0.08414169 -0.0876732 0.074324
0000a0 78 12 cf bd f8 a4 09 3d 20 f1 5e bd 4c ac 6c bd
       -0.101109445 0.033604592 -0.054429173 -0.057781503
0000b0 2c 64 6a 3d 48 52 29 3d 1c a3 09 bd a8 7f 4c 3d
       0.057224438 0.041338235 -0.03360282 0.04992643
0000c0 60 2e aa 3d 72 e1 cb bd c0 68 e2 3d 74 97 c8 bd
       0.083096266 -0.0995511 0.11055136 -0.097945124
0000d0 4c 95 29 3d 06 c5 9c 3d 1c 74 b5 3d a0 53 81 bd
       0.041402146 0.07654767 0.08860037 -0.06314778
0000e0 10 ec 3f 3d 48 3d 14 bd 28 a8 50 bd 20 c5 be bc
       0.046855986 -0.036191255 -0.050941616 -0.023287356
0000f0 1c ff 59 3d e0 0e 56 bc d0 8b a4 3c 48 f3 17 3d
       0.053221807 -0.01306507 0.020086199 0.037097245
000100 06 87 d9 3d d4 5f a1 bd 2c 0d 15 bd 60 b0 2e 3d
       0.10621457 -0.07879606 -0.036389515 0.042648673
000110 f4 bb 95 3d 02 49 94 3d 58 1f e4 bc 90 06 53 3c
       0.0731124 0.07240488 -0.027846977 0.012879983
000120 c2 02 e4 3d 90 aa b0 bc ba 57 95 bd bc 04 db bd
       0.111333385 -0.021565706 -0.07292123 -0.106942624
000130 4a 51 87 bd 00 fc a1 ba 32 e7 da 3d 7c d7 c2 3d
       -0.066073015 -0.0012358427 0.10688628 0.09513757
000140 18 4f e6 3c 00 ab 21 bb 20 f9 b9 3c 20 0d 11 3c
       0.028113887 -0.0024668574 0.0227018 0.008853227
000150 3c 34 17 3d 14 c6 be 3d a8 80 d4 bd 1e 47 c9 bd
       0.03691505 0.09315124 -0.10376102 -0.09828018
000160 00 4b f0 3d a8 77 ae 3c c4 1a 62 bd 44 42 fe 3d
       0.11733055 0.02129729 -0.055201307 0.12414983
000170 10 1f fe 3c fc 8d b7 3d 10 56 ef bc 9c 88 60 3d
       0.031020671 0.08962628 -0.029215842 0.05481778
000180 e8 a8 25 bd de 15 b6 bd 54 a0 ad bd d8 35 84 bc
       -0.040444285 -0.088908896 -0.08477846 -0.016138956
000190 d8 b7 cc bc b4 85 1d bd 90 58 66 bd 2c b1 8f 3d
       -0.024990007 -0.038457587 -0.056236804 0.07016215
0001a0 84 60 67 bd ba fe d6 3d 38 83 94 bc ea 97 95 bd
       -0.05648853 0.10497804 -0.018128976 -0.07304366
0001b0 12 3f b7 bd e0 d3 d5 bd 94 e6 23 3d 60 96 f8 bc
       -0.089475766 -0.104408026 0.04001482 -0.030345142
0001c0 98 b5 c5 3c ea be fb 3d fa d2 d7 bd ba 56 8b bd
       0.024134442 0.12292273 -0.105382875 -0.06803651
0001d0 00 81 69 3d 78 93 0a 3d 74 ca 4c 3d 5c 4a a6 bd
       0.05700779 0.033832043 0.04999776 -0.08119652
0001e0 74 a7 92 3d e0 68 c2 3c 80 41 b8 bd 70 89 06 3d
       0.071608454 0.023731649 -0.08996868 0.032845914
0001f0 90 d4 9d 3d 2a b5 ff 3d 80 3a 73 bb 98 c2 dc 3d
       0.07706559 0.12485726 -0.0037113726 0.10779303
000200 aa ac a2 bd 3e 49 9a 3d 00 40 a3 39 20 8a 21 bd
       -0.07943089 0.07533501 0.00031137466 -0.039438367
000210 c0 e0 e6 3d dc 5b 83 bd 30 f9 33 3c 28 ab a5 3d
       0.112733364 -0.06414005 0.010984704 0.08089286
000220 cc 51 3a bd c4 8c 46 bd f8 59 aa 3c 7e 89 b1 bd
       -0.045488164 -0.04847409 0.020794854 -0.08668803
000230 b0 a2 5e bd f4 00 0b 3d ee 2c a2 bd 3c bb 29 bd
       -0.05435437 0.033936456 -0.07918726 -0.041438326
000240 20 b1 74 3d 80 8b 19 bb b8 20 bb bd 04 b0 5c bd
       0.059739232 -0.0023429096 -0.091371 -0.0538788
000250 7e e4 82 bd c8 92 f8 bd e0 68 b0 3d 26 a0 e4 3d
       -0.06391238 -0.12137371 0.08613753 0.111633584
000260 5c d4 b3 3d 60 42 af bb 2c 5f 52 bd 74 c9 98 bd
       0.08780739 -0.0053484887 -0.051360294 -0.07460299
000270 fe 7c af bd d4 fd 71 3d 44 eb e6 bd c0 58 43 bb
       -0.08568762 0.05907996 -0.11275342 -0.0029807538
000280 00 0a 7a 3d 90 e9 39 3c 20 98 ba 3d ec c5 73 3d
       0.061044693 0.01134719 0.09111047 0.059514925
000290 24 49 77 3d 40 6d 27 3d ca f6 ed 3d 38 62 99 3d
       0.060372487 0.040875673 0.11619337 0.07489437
0002a0 32 87 f0 bd d2 ee 87 3d 28 a1 b3 bc b6 cc cb bd
       -0.117445365 0.06637348 -0.021927431 -0.09951155
0002b0 26 44 c7 3d 76 f2 f9 3d 14 3e ca 3d cc c4 c2 bd
       0.09729795 0.12204449 0.09875122 -0.09510192
0002c0 c0 e5 f3 3c 00 2b 88 bb b4 f5 ca bd e2 66 e4 bd
       0.02977264 -0.0041555166 -0.099101454 -0.11152436
0002d0 e8 a7 d0 bc a8 2f c9 bc e6 83 87 3d 04 2d ae bd
       -0.025470689 -0.024558857 0.066169545 -0.0850468
0002e0 e4 f0 62 3d d4 e3 c1 3d 0c aa 6f bd de 47 d7 bd
       0.055405512 0.09467283 -0.05851178 -0.105117545
0002f0 30 80 35 3d 2c 1e 0d bd 00 09 46 bb f4 5e 0d bd
       0.044311702 -0.034452602 -0.0030217767 -0.034514382
000300 5e 39 93 bd f2 aa ce bd a0 ec 8f bc 00 a0 7f b8
       -0.07188676 -0.10091199 -0.017568886 -6.094575e-05
000310 80 0e 83 3a 90 fe 09 bc b0 62 26 3c f0 dc c3 bd
       0.0009998828 -0.008422509 0.010155365 -0.09563625
000320 f0 a2 d9 3d 40 98 c4 3c 56 1d d6 bd 7c ea a7 3d
       0.10626781 0.02399838 -0.10454814 0.08199021
000330 38 f1 e3 bd 8c 00 3c 3d e0 f5 f7 bc 1e 96 c4 bd
       -0.11129993 0.04589896 -0.03026861 -0.09598945
000340 bc 6a 00 bd 14 2b ad bd b4 cf 07 3d c0 8b a2 3b
       -0.03135179 -0.08455482 0.033157066 0.004960507
000350 ee af 99 3d 40 58 7b 3c 10 15 40 3c 90 e5 29 bd
       0.07504259 0.015340865 0.011723772 -0.041478693
000360 d8 da 83 3c 56 61 c3 3d 18 1b 9e bd e8 2d a2 bd
       0.016095564 0.0954005 -0.077200115 -0.07918912
000370 30 d7 9d 3c 08 0b ff 3c 30 47 71 3c f0 41 f5 3d
       0.019267648 0.03113319 0.014726445 0.11975467
000380 cc 85 4a bd ee e3 8d bd de 46 90 3d bc a3 05 3d
       -0.049444005 -0.0692824 0.07044767 0.032626852
000390 14 12 33 3d d8 2f c5 3d b4 ee 70 3d 00 fe c4 3a
       0.043718413 0.09628266 0.058821395 0.0015029311
0003a0 9c 1e 59 3d b8 49 83 3c ae a9 f0 3d c0 36 64 bc
       0.053007707 0.016026363 0.11751114 -0.013929069
0003b0 bc b3 46 bd e8 02 dd bc 4c 25 3c 3d 74 e1 e8 3d
       -0.04851125 -0.026978925 0.045934007 0.11371127
0003c0 e4 3a 1e 3d 16 81 d2 bd 54 0d 6f bd 7c 18 e6 bd
       0.03863038 -0.102785274 -0.05836232 -0.11235139
0003d0 da ec e0 3d 0e 42 ef bd c6 09 91 bd be 9e e0 bd
       0.10982676 -0.11682521 -0.07081942 -0.10967778
0003e0 48 d7 5a 3d d0 6b 1d bc 82 c3 ca bd be d6 85 bd
       0.053427964 -0.009608224 -0.099005714 -0.065350994
0003f0 d6 59 ad bd 80 4b 75 3d 96 85 bb 3d 78 e7 44 3d
       -0.084644005 0.059886456 0.09156339 0.04807231
