cnn_models/cnn_model_ver8_adv.pth (torch, 383796 bytes, 8 tensors)

weight f4 [32, 4, 8, 8]
0	0xbd4c3718	-0.04985723
1	0x3c08bc78	0.008345716
2	0x3b8be170	0.0042688176
3	0xb9a16800	-0.000307858
4	0x3cfb0c84	0.030645616
5	0x3d057552	0.03258259
6	0x3d40fcec	0.047116205
7	0xbd3a5c18	-0.045497984
8	0x3d216ff2	0.0394134
9	0x3bbe2ce0	0.0058036894
10	0x3d629ab0	0.055323303
11	0x3ca5cc64	0.020239063
12	0x3d3702d6	0.04468044
13	0xbb55c400	-0.0032618046
14	0xbc7d7c98	-0.0154716
15	0xbcdc2144	-0.026871331
16	0xbd3c4bcc	-0.045970723
17	0xbd3c6a30	-0.045999706
18	0xbcd4a4b8	-0.02595745
19	0xbc552c50	-0.013011053
20	0xbd7f724c	-0.06236486
21	0xbcbb70ec	-0.022880994
22	0xbd70d722	-0.058798917
23	0x3d212f92	0.039352007
24	0xbcf23ff4	-0.02957151
25	0x3d2edd2a	0.042691387
26	0xbcb0de48	-0.021590367
27	0x3aa6e6c0	0.0012733564
28	0xbd2f463c	-0.04279159
29	0x3c61dde0	0.013785809
30	0xbcc2575c	-0.023723297
31	0x3d32a37a	0.043612935
32	0xbb37c800	-0.0028042793
33	0xbc0cbcf0	-0.008589968
34	0xbd53c04a	-0.051697053
35	0x3d41bf4a	0.047301568
36	0x3d4f46a8	0.050604492
37	0xbc7bc2c0	-0.015366256
38	0x3bbc2b00	0.0057424307
39	0xbd5be736	-0.053687297
40	0xbd29d7e8	-0.04146567
41	0x3cce8c40	0.02521336
42	0xbca0b904	-0.019619472
43	0xbcc8c90c	-0.02450993
44	0xbc2677a0	-0.010160357
45	0xbc2d5220	-0.010578662
46	0x3cdda118	0.027054355
47	0xbd2a730a	-0.041613616
48	0x3d7cc394	0.061709955
49	0x3cbf0b08	0.02332069
50	0xbb68b460	-0.0035507903
51	0x3d7985f8	0.06091878
52	0x3d19501a	0.037429906
53	0x3d45696c	0.04819624
54	0xbcb18870	-0.021671504
55	0xbb9c0690	-0.0047615245
56	0x3ce3d7b0	0.027812809
57	0xbd75c4a2	-0.060001977
58	0x3cf739a4	0.030178852
59	0x3d78b820	0.06072247
60	0xbd0c13d0	-0.034198582
61	0x3d4affee	0.04956048
62	0xbcc81f48	-0.024428979
63	0xbca9858c	-0.020693563
64	0x3d0414c2	0.03224636
65	0x3d5f3a98	0.05449924
66	0xbba93020	-0.0051632077
67	0xbc4f0b78	-0.012637012
68	0xbbcd2cf0	-0.0062614605
69	0xbc2b8c00	-0.01047039
70	0xbbdb7270	-0.0066969916
71	0xbc8f4f4c	-0.017493866
72	0xbd6a7676	-0.05724188
73	0xbd38c130	-0.045106113
74	0x3d5740c6	0.052552007
75	0xbd77a524	-0.060460225
76	0xbc4519b0	-0.01203005
77	0xbc04e628	-0.008111514
78	0xbd078166	-0.03308239
79	0x3d6020a4	0.05471863
80	0x3b9061a0	0.004406169
81	0x3d17bfbc	0.037048087
82	0x3c037be0	0.00802514
83	0x3d5dab1e	0.05411827
84	0x3d3684aa	0.044560112
85	0xbc028d28	-0.007968225
86	0x3d60d8ac	0.054894134
87	0x3b318300	0.0027086139
88	0xbd2df632	-0.04247112
89	0x3d7e0426	0.062015675
90	0xbcb2a14c	-0.021805428
91	0x3cda6348	0.02665867
92	0x3cf7a7b4	0.030231334
93	0x3cee3808	0.029079452
94	0xbd5fe44c	-0.05466108
95	0x3d587162	0.052842505
96	0xbd5a3bd6	-0.05327972
97	0x3d6f7d28	0.058468968
98	0xbd1d8d90	-0.038465083
99	0xbbd1d0e0	-0.0064030737
100	0x3d3179f8	0.04332921
101	0xbd146a5a	-0.036234237
102	0x3c0b2a28	0.008493938
103	0x3cfb28d4	0.030659117
104	0xbd5a4dee	-0.053296976
105	0xbceb8f9c	-0.028755002
106	0xbd4ded20	-0.05027497
107	0x3d5c9df4	0.053861573
108	0x3a90d280	0.0011049062
109	0xbcf18f74	-0.02948735
110	0xbd246de0	-0.040143847
111	0xbd6722ae	-0.056429558
112	0x3cc55298	0.024087235
113	0x3d0fc554	0.035100296
114	0x3d22d60a	0.039754905
115	0xbd43ddd4	-0.047818974
116	0xbd7d5854	-0.061851814
117	0xbcf97974	-0.030453421
118	0x3c9889c4	0.01862038
119	0x3d25d9dc	0.04049097
120	0xbd59ff0e	-0.053221755
121	0x3c02e8d0	0.007990077
122	0xbd3241b0	-0.043519676
123	0x3cadbd98	0.02120857
124	0x3d079f2a	0.033110775
125	0xbd4c5f84	-0.04989578
126	0xbcaddc1c	-0.02122312
127	0xbc7e7b38	-0.015532307
128	0x3b1ee5c0	0.0024245828
129	0xbd6e7fe2	-0.058227427
130	0xbbb2ee70	-0.005460553
131	0xbb5896c0	-0.0033048838
132	0xbcaae104	-0.020859249
133	0x3d4eff6e	0.050536565
134	0x3cfd4914	0.030918635
135	0xbcf0c084	-0.029388674
136	0x3d045db4	0.032315925
137	0x3d2ffcba	0.04296563
138	0x3d1f76f6	0.03893181
139	0x3bdd6870	0.0067568347
140	0x3cbb06cc	0.02283039
141	0x3d4247b6	0.04743167
142	0xbcca87dc	-0.024722986
143	0x3d023fc4	0.031799093
144	0xbceae434	-0.028673269
145	0x3d00c412	0.031436987
146	0xbcfeaed8	-0.031089231
147	0x3c200768	0.009767391
148	0xbd4facc8	-0.050701886
149	0xbd79670c	-0.06088929
150	0x3c8c9ec4	0.01716555
151	0xbd44b416	-0.048023306
152	0x3d60aa56	0.054849945
153	0x3d0779fa	0.03307531
154	0x3be86200	0.0070917606
155	0xbc5881e8	-0.013214566
156	0xbbfa14d0	-0.0076318756
157	0x3d1de8fe	0.038552277
158	0xbd00e782	-0.031470783
159	0x39b6ac00	0.00034841895
160	0x3d62b4da	0.055348255
161	0xbd3a06e2	-0.04541672
162	0x3d275df6	0.040861093
163	0xbd40525e	-0.04695355
164	0x3d3b2d68	0.0456976
165	0x3d030db2	0.031995483
166	0xbd3762ec	-0.044772074
167	0xbc7c6678	-0.01540529
168	0x3cc089d8	0.023503229
169	0xbc75cf18	-0.015002988
170	0xbd4cfd58	-0.050046295
171	0xbb878720	-0.004135981
172	0x3cf5d188	0.030007139
173	0x3c496ee0	0.012294501
174	0x3c43d5d0	0.011952832
175	0xbd2cfc58	-0.04223284
176	0x3d7e6188	0.06210473
177	0x3bb955e0	0.005655989
178	0xbd2c9e3a	-0.042143084
179	0xbd127e86	-0.035765193
180	0x3d50e044	0.050995126
181	0xbd2fac76	-0.04288908
182	0x3d728b86	0.05921509
183	0xbd1f3ef6	-0.038878404
184	0xb90f2c00	-0.00013653934
185	0xbd1eb63a	-0.038748004
186	0xbc016978	-0.007898681
187	0x3cf281d8	0.02960293
188	0x3b669540	0.0035184175
189	0x3d266b04	0.0406294
190	0xbca88264	-0.020569988
191	0xbcf42628	-0.02980335
192	0xbcaba1b4	-0.02095113
193	0xbc9dd6a8	-0.019267395
194	0xbd142b98	-0.036174387
195	0xbd2ac4a2	-0.04169143
196	0xbbc1ad90	-0.005910583
197	0xbaea81c0	-0.0017891452
198	0xbd6bb78a	-0.057548083
199	0x3cc53974	0.024075247
200	0xbd6efec4	-0.058348432
201	0xbcaadbec	-0.02085682
202	0x3ca5245c	0.020158939
203	0x3d62944e	0.055317216
204	0x3d27c58a	0.040959872
205	0x3cce30f0	0.02516982
206	0xbd60a774	-0.054847196
207	0x3b5d3180	0.0033751428
208	0xbb77b1c0	-0.0037795156
209	0xbd66c794	-0.056342676
210	0x3d313372	0.043261953
211	0x3b1d25a0	0.0023978725
212	0xbd2d1f66	-0.042266272
213	0xbd34f8c2	-0.044182546
214	0xbc56a970	-0.0131019205
215	0x3d1633c2	0.036670454
216	0xbd006aec	-0.03135197
217	0xbcd12154	-0.025528587
218	0x3bbd1b50	0.005771078
219	0xbd16bd7e	-0.036801808
220	0xbd476c7c	-0.048687443
221	0xbd1128c8	-0.035439283
222	0xbc986344	-0.018602021
223	0xbc9a9398	-0.018869206
224	0x3c9eb984	0.01937557
225	0x3d0a2e2c	0.03373544
226	0x3d06117a	0.03273151
227	0xbd34f78c	-0.04418139
228	0x3d4140f8	0.0471811
229	0xbca21f74	-0.019790389
230	0xbc21c728	-0.009874143
231	0xbd2c0912	-0.042000838
232	0xbce46d30	-0.027884096
233	0xbc8cb5d0	-0.017176539
234	0x3c6683c8	0.014069505
235	0xbc60c6c8	-0.013719268
236	0xbd406210	-0.04696852
237	0x3cb6c550	0.022310883
238	0xbcfa3c14	-0.030546226
239	0xbce38e58	-0.027777836
240	0x3d49d73e	0.049277537
241	0x3c37f978	0.011228912
242	0xbcde890c	-0.027164958
243	0xbd4128b0	-0.047157943
244	0x3bb919c0	0.0056488216
245	0xbcefee6c	-0.029288493
246	0x3cf45014	0.02982334
247	0xbc80255c	-0.015642814
248	0x3d38d0b0	0.045120895
249	0xbb96bc80	-0.0046001077
250	0xbd74151a	-0.059590437
251	0xbd2e51cc	-0.042558476
252	0x3b41fe00	0.0029600859
253	0xbcab3d04	-0.020903118
254	0x3cfa4274	0.030549265
255	0xbd39a56e	-0.04532378

bias f4 [32]
0	0xbc397aa8	-0.011320747
1	0x3d2e5e20	0.042570233
2	0xbc59fa08	-0.013304241
3	0x3d65abc6	0.05607202
4	0xbcd5a898	-0.026081368
5	0x3a6b0d80	0.000896655
6	0xbc770bf0	-0.01507853
7	0x3cd1705c	0.025566272
8	0x3d0ac370	0.03387779
9	0x3ad3bec0	0.001615487
10	0x3d693e74	0.056944326
11	0xbc8246a0	-0.015902817
12	0xbc8b6038	-0.017013654
13	0x3c5e9440	0.01358515
14	0xbd540472	-0.051762052
15	0xbcb51550	-0.02210489
16	0x3d2f86fc	0.04285334
17	0xbd4cfc96	-0.050045572
18	0xbd21c9dc	-0.03949915
19	0x3cbd9508	0.023142353
20	0xbcd3b84c	-0.025844716
21	0x3c653798	0.013990305
22	0xbd307552	-0.043080635
23	0xbd07b538	-0.033131808
24	0x3c39e718	0.011346601
25	0x3d2f5cb4	0.042813018
26	0xbb1e3e60	-0.0024146065
27	0x3cbd6778	0.023120627
28	0xbbab5ab0	-0.0052293167
29	0x3a894700	0.001047343
30	0x3d32ed1a	0.04368315
31	0x3d5457d2	0.051841564

weight f4 [64, 32, 4, 4]
0	0x3d1e2855	0.038612682
1	0x392cac13	0.00016467301
2	0x3d0e3086	0.034714244
3	0x3c8d482b	0.017246326
4	0x3d104393	0.035220694
5	0xbd1468c4	-0.036232725
6	0x3c9d5a2c	0.019208036
7	0x3c0bb384	0.008526687
8	0xbbf5419a	-0.007484627
9	0xbc909f51	-0.017654093
10	0xbabd11d0	-0.0014424864
11	0xbcb8c4f2	-0.022554848
12	0xbd068295	-0.032839376
13	0x3ce19dff	0.027541159
14	0x3d052d30	0.032513797
15	0xbcc843df	-0.024446426
16	0xbcf5ef73	-0.030021405
17	0x3d321554	0.04347737
18	0x3bb74a69	0.005593587
19	0xbb8f685d	-0.0043764547
20	0xbd203ad1	-0.03911859
21	0x3cb27d7e	0.021788355
22	0xbc3a9f40	-0.011390507
23	0xbd15b3a8	-0.036548287
24	0xbcbf6894	-0.023365296
25	0x3d29623b	0.041353446
26	0xbc7d3dab	-0.015456597
27	0x3d07bf48	0.033141404
28	0x3d05181f	0.032493707
29	0xbd1f8f3d	-0.038954962
30	0x3d2e8ea8	0.042616516
31	0x3cea239e	0.028581437
32	0xbd233d85	-0.03985359
33	0x3a71ce3f	0.00092241535
34	0x3ca90b93	0.020635402
35	0x3a645c68	0.00087112794
36	0xbc3876b0	-0.011258766
37	0xbd185fba	-0.037200667
38	0x3ca6360d	0.020289445
39	0xbc328bf5	-0.010897626
40	0x3be712be	0.007051795
41	0x3c9a5b48	0.018842354
42	0x3bb9ff11	0.0056761582
43	0x3d16ffad	0.036864925
44	0xbd1db5e3	-0.03850354
45	0x3d0be9d5	0.034158546
46	0x3c0bd1ca	0.008533904
47	0xbc1817dd	-0.009283033
48	0xbd1ba6e0	-0.03800094
49	0x3d0f3ae6	0.03496828
50	0xbcd004d4	-0.025392927
51	0x3b5212d4	0.003205468
52	0xbd21251f	-0.039342042
53	0xbb086166	-0.0020810007
54	0x3c4cf993	0.012510675
55	0x3a1c6f58	0.0005967519
56	0x3d0affcb	0.03393535
57	0xbd2419ee	-0.04006379
58	0xbafcc92d	-0.0019286029
59	0xbd02f9d9	-0.031976555
60	0x3d02e9c9	0.031961236
61	0xbd2acbb7	-0.041698184
62	0x3d1eee06	0.038801216
63	0xbd25a956	-0.040444694
64	0x3aeec5d8	0.0018216921
65	0xbc88e535	-0.016710857
66	0xbccf2fef	-0.025291411
67	0x3c515e5d	0.012778846
68	0xbbf9aced	-0.0076194913
69	0xbaa8e466	-0.0012885451
70	0x3c9a7408	0.018854156
71	0xbc8575ff	-0.016291616
72	0xbd2ddf55	-0.042449314
73	0x3ca9ed27	0.020742966
74	0x3d288c98	0.041149706
75	0x3d0dae19	0.03458986
76	0x3a48895e	0.0007649864
77	0xbd05b160	-0.03263986
78	0xbd04bf63	-0.032409083
79	0x3cabbf0c	0.020965122
80	0xbd08ec99	-0.033428762
81	0x3c55c0b2	0.01304643
82	0xbca285e3	-0.019839233
83	0xbd1c4b7b	-0.03815792
84	0xbcaeed40	-0.021353364
85	0x3ce1ee68	0.027579501
86	0xbb4a15f7	-0.0030835846
87	0xbd0348f5	-0.032052
88	0xbcdb65d8	-0.026781961
89	0xbcb1d4d4	-0.02170793
90	0xbcbfb048	-0.023399487
91	0xbc96e911	-0.018421682
92	0x3c93df3a	0.018050779
93	0x3d0f247a	0.034946896
94	0x3cefeac6	0.029286753
95	0xbd1a4214	-0.037660673
96	0xbb9bca31	-0.0047543277
97	0xbbc85570	-0.0061137006
98	0x3d196bb8	0.037456244
99	0xbcf1da0f	-0.029522924
100	0xbd1c438a	-0.038150348
101	0x3ce3638f	0.027757434
102	0x3c843b4d	0.016141558
103	0xbcd527ce	-0.026019957
104	0xbcf27b61	-0.029599847
105	0x3caac1af	0.020844309
106	0xbd10b01d	-0.035324205
107	0x3c8b2ef5	0.016990164
108	0xbc67ab58	-0.014139973
109	0xbd031c6b	-0.032009523
110	0x3d280fd7	0.04103073
111	0xbc0ba79b	-0.008523847
112	0xbcf6b965	-0.0301177
113	0x3d129ba3	0.035792958
114	0xbcdf9a51	-0.027295263
115	0xbcde8c4d	-0.02716651
116	0xbd04133e	-0.032244913
117	0xbd14ef93	-0.03636129
118	0x3c845820	0.016155303
119	0x3d1569a2	0.036477692
120	0x3c1a0873	0.0094014285
121	0x3d0da2e3	0.03457917
122	0xbd11ab86	-0.035563968
123	0x3c3909a8	0.011293806
124	0xbb389480	-0.0028164685
125	0x3b80f627	0.0039355936
126	0xbce25d9c	-0.027632527
127	0xbb66ab5f	-0.003519736
128	0xbb8e41ae	-0.0043413257
129	0xbcd6784d	-0.02618041
130	0x3cd21cac	0.025648437
131	0x3c7df6ef	0.015500768
132	0xbb23582c	-0.002492438
133	0xbc2dbd97	-0.010604284
134	0x3ce132bc	0.027490012
135	0x3c2ca71a	0.010537887
136	0x3b02f695	0.00199834
137	0x3d0ea45e	0.03482472
138	0x3d11ecb3	0.035626125
139	0xbbad6890	-0.005292006
140	0x3ca84df9	0.020544993
141	0xbca69abf	-0.02033746
142	0x3cf16a0c	0.029469512
143	0x3cfb7476	0.030695181
144	0x3d0c65d4	0.0342768
145	0xbcba49d8	-0.02274029
146	0xbc39ff99	-0.011352443
147	0xbcf0c77e	-0.029392
148	0x3ac3bd1f	0.0014933682
149	0x3c223073	0.0098992465
150	0xbce65389	-0.028116005
151	0xbb2eb87b	-0.0026660252
152	0xbcb4ab8b	-0.022054454
153	0x3d1f61ae	0.038911514
154	0x3c4038c7	0.011732287
155	0xbcbca595	-0.023028174
156	0xbd043601	-0.032278065
157	0xbc6868a6	-0.014185106
158	0xbd2ed21c	-0.042680845
159	0x3d1c7c5b	0.038204532
160	0xbd182e24	-0.037153378
161	0x3bf4ea0d	0.00747419
162	0xbd03db5f	-0.03219163
163	0xbd0b076f	-0.033942636
164	0x3c9aaa6f	0.018880097
165	0x3d1c1892	0.03810937
166	0x3b0acedb	0.0021180424
167	0xbd2733dc	-0.04082094
168	0xbd1bd34a	-0.038043298
169	0xbca7c6c5	-0.020480523
170	0x3d284de6	0.041089915
171	0x3d1944e1	0.037419204
172	0x3d1bcdcb	0.038038056
173	0xbd11074b	-0.035407346
174	0x3a5a0286	0.0008316416
175	0xbd2eee83	-0.04270793
176	0x3d240b3e	0.040049784
177	0x3aad88de	0.0013239642
178	0xbc81054a	-0.015749592
179	0x3bc3759d	0.0059649483
180	0xbd0fd978	-0.035119504
181	0x3d142ef8	0.036177605
182	0xbd051cad	-0.03249805
183	0xbd0eddc3	-0.034879457
184	0xbcb24ca0	-0.021765053
185	0x3d1feb74	0.039042905
186	0x3d07687d	0.033058632
187	0xbcad5350	-0.02115789
188	0xbc2d8801	-0.010591508
189	0x3ba73d3d	0.0051037357
190	0x3d1943a4	0.037418023
191	0xbcc379ae	-0.023861732
192	0xbd13383a	-0.035942294
193	0x3a47a881	0.00076163566
194	0x3d06767b	0.032827836
195	0x3d14171d	0.036154855
196	0xbbe1a492	-0.0068860734
197	0x3d0d07b8	0.03443119
198	0xbce0b339	-0.02742921
199	0xbcaba502	-0.020952705
200	0x3cf85908	0.03031589
201	0x3d223747	0.039603498
202	0xbd0a3b6c	-0.033748075
203	0x3cc58389	0.024110572
204	0x3cc53282	0.024071936
205	0xbc9323f4	-0.01796148
206	0x3cf754ac	0.030191742
207	0x3c17c8f4	0.00926422
208	0x3ba56489	0.005047385
209	0x3cf5ba13	0.029995954
210	0x3c643787	0.013929254
211	0xb946f37d	-0.00018973458
212	0xbd003aad	-0.031305958
213	0xbbab038b	-0.005218928
214	0x3b967706	0.0045918254
215	0xbcc5f16a	-0.024162967
216	0xbc08e09c	-0.008354332
217	0x3d3316a3	0.04372276
218	0xbc6d764d	-0.014493537
219	0xbcf97d05	-0.030455122
220	0xbca559d5	-0.020184437
221	0xbbe8696c	-0.0070926454
222	0x3d1090fb	0.035294514
223	0x3afcba26	0.0019281551
224	0x3c99430e	0.018708732
225	0x3d33ebdd	0.04392611
226	0x3c0448ef	0.008074029
227	0x3c5e12b3	0.013554263
228	0xbc912ecb	-0.017722508
229	0xbc40e77f	-0.011773943
230	0xbd14a567	-0.036290552
231	0x3cfbd73c	0.03074228
232	0x3ca75715	0.020427266
233	0xbcd1c90c	-0.025608562
234	0x3cab4f04	0.020911701
235	0x396ab173	0.00022382084
236	0xbc5db74e	-0.013532473
237	0x39d31190	0.0004025814
238	0x3d0af56a	0.03392545
239	0xbc859472	-0.016306136
240	0x3c8eecc1	0.017446877
241	0xbb87e755	-0.00414745
242	0x3c39f295	0.01134934
243	0x3cfde9a4	0.030995198
244	0xbd2658ed	-0.04061215
245	0xbb8e24ff	-0.0043379064
246	0x3c5dc68d	0.013536108
247	0xbcf0f4bf	-0.029413579
248	0xbd287251	-0.041124646
249	0x3c9bdc0f	0.01902583
250	0xbd22436a	-0.039615072
251	0xbc5bfdb8	-0.0134271905
252	0xbce1b267	-0.02755089
253	0x3b7b3702	0.0038332348
254	0x3d15ca10	0.036569655
255	0xbc99c59b	-0.018770983

bias f4 [64]
0	0xbb717856	-0.0036845407
1	0xbc7ed628	-0.0155539885
2	0xbc972e81	-0.018454792
3	0xba87183d	-0.0010306906
4	0x3b8116db	0.003939492
5	0x3b875cb2	0.004130923
6	0x3d0bd37f	0.034137245
7	0x3bd24043	0.006416352
8	0xbcf61ee2	-0.030044023
9	0xbca99705	-0.020701895
10	0x3d140c00	0.036144257
11	0xbcd78875	-0.026310185
12	0x3ca2b823	0.019863194
13	0xbd2d4146	-0.042298578
14	0x3cbc8e0f	0.023016958
15	0x3bf40adf	0.007447585
16	0xbc89a204	-0.016800888
17	0x3d079f1d	0.033110727
18	0xbcfb640d	-0.030687356
19	0xbd1eefd2	-0.03880293
20	0x3c819927	0.015820099
21	0x3d1f06e8	0.038824946
22	0x3d2a87d4	0.041633442
23	0xbae1923a	-0.0017209717
24	0x3caeb714	0.021327533
25	0xb8af3daf	-8.35614e-05
26	0x3d0ab039	0.033859465
27	0xbbe166a7	-0.006878692
28	0xbb40c748	-0.0029415656
29	0x3c178fca	0.009250591
30	0xbaf3c77a	-0.0018598877
31	0xba8bc203	-0.0010662678
32	0xbcca5dd9	-0.024702953
33	0xbcf5e8b0	-0.03001818
34	0xbb3feaaa	-0.0029284158
35	0x3be1c929	0.0068904352
36	0x3ca8749e	0.02056342
37	0xbd10cea1	-0.035353307
38	0x3c774159	0.015091264
39	0x3cca7901	0.024715902
40	0x3d15bafe	0.036555283
41	0x3d1feeee	0.03904622
42	0xbcda46d0	-0.026645094
43	0xbb811d16	-0.003940235
44	0xbcda0549	-0.026613848
45	0xbca2f382	-0.019891504
46	0x3d2b694e	0.041848473
47	0x3d2f6d90	0.042829096
48	0x3d0f7da5	0.035031933
49	0xbd212d07	-0.039349582
50	0x3c28206b	0.010261635
51	0xbd0c63de	-0.03427493
52	0x3c9adc05	0.018903742
53	0x3c6a9343	0.0143173365
54	0x3c9b1bb7	0.018934114
55	0xbb708e1b	-0.0036705795
56	0xbc897972	-0.016781542
57	0xbbd0f73c	-0.006377129
58	0x3cf3624e	0.029709961
59	0xbcdd3147	-0.027001036
60	0xbc44eb14	-0.012018938
61	0xbd20e55a	-0.039281227
62	0x3cc8fcdb	0.024534633
63	0x3cf70c97	0.03015737

weight f4 [64, 64, 3, 3]
0	0xbc1f3dd6	-0.009719333
1	0x3cdb084b	0.026737353
2	0x3b572480	0.0032828152
3	0xbca0a6f0	-0.019610852
4	0xbcba5626	-0.022746157
5	0xba81a200	-0.0009890199
6	0x3b346e80	0.0027531683
7	0xba1bf200	-0.00059488416
8	0xbc9b3138	-0.018944368
9	0x3c859f26	0.01631124
10	0x3ce55aee	0.02799746
11	0x3d236b84	0.039897457
12	0xbcc7204e	-0.024307396
13	0xbc064126	-0.008194244
14	0xbb5a3fd6	-0.003330221
15	0xbc986613	-0.01860336
16	0x3d1cfcfe	0.03832721
17	0x3d27cbe4	0.04096593
18	0x3c70bcfb	0.014693494
19	0xbc9297db	-0.017894676
20	0x3d02e6f7	0.031958546
21	0xbc5c09b0	-0.013430044
22	0xb95f3400	-0.00021286309
23	0xbbe07916	-0.006850372
24	0x3d2a99f6	0.041650735
25	0x3cdcadf6	0.02693842
26	0x3b3a0feb	0.0028390836
27	0x3c72f066	0.014827823
28	0x3d10a1e3	0.035310637
29	0xbc0dd3a6	-0.008656418
30	0xbd06fd93	-0.03295667
31	0xbc4ea61b	-0.012612845
32	0xbcbc4cab	-0.022985777
33	0x3adcc600	0.0016843677
34	0x3ce7dff8	0.028305039
35	0xbb8f2240	-0.0043680966
36	0xbd18f5d4	-0.037343815
37	0xbc95e83e	-0.018299218
38	0xbbdd0be0	-0.0067458004
39	0xbd109223	-0.035295617
40	0xbc02e246	-0.007988518
41	0x3d1b2974	0.03788133
42	0xbc169f20	-0.009193212
43	0x3d0105fe	0.031499855
44	0x3cd144b6	0.02554546
45	0x3c2de366	0.010613298
46	0xbbf1c520	-0.0073782355
47	0xbcad55a0	-0.021158993
48	0x3bf7c68b	0.00756151
49	0x3ce48fcb	0.027900597
50	0x3c30b350	0.010784939
51	0xbd129ee6	-0.03579607
52	0xbb419e6b	-0.0029543887
53	0xbc858696	-0.016299527
54	0x3c90e966	0.017689418
55	0xbb5dc96b	-0.0033841978
56	0xbc064856	-0.008195957
57	0xbce63143	-0.028099662
58	0x3d0ad250	0.033891976
59	0xbd14b4db	-0.03630529
60	0xbd046f10	-0.03233248
61	0xbd0ea2ec	-0.034823343
62	0x3b82eceb	0.003995528
63	0xbd14eddf	-0.036359664
64	0x3b9a00f6	0.0046998216
65	0x3b575c80	0.003286153
66	0x3ce03ca8	0.027372673
67	0x3cb5db46	0.022199284
68	0xbc8d60db	-0.017258098
69	0x3cf90c6b	0.03040143
70	0xbc12b9eb	-0.008955459
71	0x3c45ae96	0.01206555
72	0xbb89f7c0	-0.0042104423
73	0x3d0af71f	0.03392708
74	0xbd063958	-0.03276953
75	0xbcb167e3	-0.021655982
76	0x3cccb543	0.024988776
77	0x3d10deb3	0.035368633
78	0x3c05277b	0.008127089
79	0xbd017a4f	-0.031610783
80	0xbcbe0d76	-0.023199778
81	0xbc70fd5b	-0.014708842
82	0x3d280b5f	0.04102647
83	0xbd105666	-0.035238646
84	0x3c8208eb	0.015873393
85	0xbc33a4d6	-0.010964593
86	0x3c916f3b	0.017753234
87	0xbd275edb	-0.040861946
88	0xbba7fd80	-0.005126655
89	0xbbb4ef16	-0.0055216653
90	0x3b82b0d6	0.0039883656
91	0xba805356	-0.0009790461
92	0xb81d3aab	-3.7486356e-05
93	0xbcc76953	-0.024342215
94	0x3b337196	0.0027380935
95	0x3d05d4f4	0.03267379
96	0xbce2c13b	-0.02768003
97	0x3c8eb2b3	0.017419195
98	0x3cbbf998	0.022946164
99	0xbd2a6028	-0.041595608
100	0x3c9ddad6	0.019269388
101	0x3cbbc7cb	0.022922417
102	0x3d0e71d6	0.03477653
103	0xbca5b6eb	-0.020228824
104	0x3b6d78c0	0.0036235303
105	0xbd0a4046	-0.033752702
106	0x3cd9ba78	0.026578173
107	0x3d186723	0.037207734
108	0xbd0e559e	-0.03474962
109	0x3cd99fde	0.026565488
110	0xbce59ca0	-0.028028786
111	0xbd23cc30	-0.03998965
112	0x3bcd97eb	0.0062742135
113	0x3d250666	0.040289305
114	0xbcf300fb	-0.029663553
115	0xbd24f6d6	-0.040274464
116	0xbd2a50e3	-0.041581046
117	0x3cdfcbde	0.027318891
118	0xbd2892e3	-0.041155707
119	0x3cafad80	0.021445036
120	0x3cbecdf0	0.023291558
121	0x3cd897b3	0.026439523
122	0xbd0e4c82	-0.034740932
123	0xbcb835d3	-0.022486603
124	0x3d208708	0.039191276
125	0x3d13a40e	0.036045127
126	0x3b880576	0.0041510416
127	0x3cf22dc0	0.02956283
128	0xbc6a79f0	-0.014311299
129	0x3cd28d46	0.02570213
130	0x3d0371f2	0.03209109
131	0xbd1aacbb	-0.037762385
132	0xbcaf848e	-0.021425512
133	0xbba05880	-0.0048933625
134	0x3c3bbca6	0.0114585515
135	0xbb0531ab	-0.0020323794
136	0xbcbb4396	-0.022859376
137	0x3c8d1dc0	0.0172261
138	0xbd1650ba	-0.03669808
139	0xbb4902ab	-0.0030671756
140	0x3d21d5d2	0.039510556
141	0x3b0c2096	0.0021381727
142	0x3cd03003	0.025413519
143	0x3c5897a6	0.01321975
144	0x3cfce606	0.030871402
145	0x3bc6ccb6	0.006066884
146	0x3d14eae8	0.036356837
147	0xbd0885ce	-0.03333073
148	0xbcf88cee	-0.030340638
149	0x3cba24a8	0.022722557
150	0x3c7ca5eb	0.015420417
151	0xbd18d8d3	-0.037316155
152	0xbb8d3176	-0.0043088747
153	0xbc8cca66	-0.017186355
154	0x3cd3151b	0.0257669
155	0xbcb2bb90	-0.021817952
156	0xbc88d6f6	-0.016704064
157	0x3ccf68f3	0.025318598
158	0x3ac2e480	0.0014869124
159	0x3caabf43	0.020843154
160	0xbb96d560	-0.004603073
161	0x3c87cd0b	0.016577264
162	0x3d1a7950	0.03771335
163	0x3c46b21b	0.012127425
164	0xbc6739ab	-0.01411287
165	0x3ba6512b	0.005075594
166	0xbc6e97f6	-0.0145625975
167	0x3b5ce516	0.0033705882
168	0xbd0e5fa8	-0.034759194
169	0x3d04862a	0.03235451
170	0xbcff4e86	-0.031165373
171	0x3b8495d6	0.004046182
172	0x3d01d7d4	0.03169997
173	0x3ad8ed56	0.0016550224
174	0x3c580f90	0.013187304
175	0xbb7e24eb	-0.003877933
176	0xbd277014	-0.04087837
177	0x3b13146b	0.002244259
178	0xbc61d7e0	-0.013784379
179	0x3c2762eb	0.010216455
180	0xbc1b9f8b	-0.009498487
181	0xbc236646	-0.009973114
182	0x3ccb751e	0.02483612
183	0xbb26f156	-0.0025473437
184	0x3c2ca960	0.010538429
185	0xbb166300	-0.0022947192
186	0x3bcfd916	0.0063430173
187	0xbcb9a608	-0.022662178
188	0x3d141f46	0.036162637
189	0x3cb58d33	0.022162056
190	0x3c85b740	0.016322732
191	0x3c8ef69b	0.017451575
192	0xbbf712eb	-0.007540097
193	0xbd015a10	-0.03158003
194	0x3b7de740	0.0038742572
195	0x3d09ce92	0.033644266
196	0x3b7afa56	0.0038296185
197	0xbd251d0f	-0.040310916
198	0x3ca62590	0.020281583
199	0x3caaa313	0.020829713
200	0xbd0fdf2a	-0.035124935
201	0xbd1211d6	-0.03566154
202	0x3d1eeada	0.03879819
203	0x3c898f9b	0.01679211
204	0x3d02d38f	0.03194004
205	0x3cec6063	0.028854555
206	0x3c7c239b	0.015389348
207	0x3d25bf0a	0.040465392
208	0x3d040b8b	0.03223757
209	0x3c7a78e0	0.015287608
210	0xbd0716c7	-0.032980707
211	0x3cd32808	0.025775924
212	0xbc8889bb	-0.016667238
213	0x3cf58693	0.029971397
214	0xbcf067e6	-0.029346418
215	0x3d0cc95a	0.03437171
216	0xbc873b88	-0.016507879
217	0xbd0600a4	-0.032715455
218	0xbc1ebf40	-0.009689152
219	0xb9b692ab	-0.0003482302
220	0xbd1130b7	-0.03544685
221	0xbcaec930	-0.021336168
222	0xbca8812b	-0.020569405
223	0xbcc3c8c8	-0.02389945
224	0x3d00d9ec	0.031457826
225	0xbc306110	-0.010765329
226	0xbc7066ab	-0.014672915
227	0x3d25ab28	0.04044643
228	0xbd02ea12	-0.031961508
229	0xbd07d64c	-0.033163354
230	0xbd10a6df	-0.03531539
231	0x3d2a2ea8	0.0415484
232	0x3cf6e3b8	0.030137882
233	0x3c751060	0.014957517
234	0xbbc15356	-0.005899827
235	0xbce9dc90	-0.028547555
236	0xbc8b0ab8	-0.016972885
237	0xbcda799e	-0.02666932
238	0x3b9d1c0b	0.0047946027
239	0xbc7c8cd6	-0.015414437
240	0xbd169644	-0.0367644
241	0x3d08e63b	0.03342269
242	0xbc8b5506	-0.017008316
243	0x3d282898	0.04105434
244	0x3c20f636	0.009824326
245	0x3c0e13db	0.008671726
246	0xbd22a357	-0.039706554
247	0x3be243c0	0.006905049
248	0xbcdd5413	-0.027017629
249	0xbc222350	-0.0098961145
250	0x3c8d6c36	0.017263513
251	0xbcccd918	-0.025005862
252	0xbb58c7d6	-0.0033078096
253	0xbc691d56	-0.014228186
254	0x3b973716	0.004614721
255	0x3cf78a56	0.03021733

bias f4 [64]
0	0x3b8e8040	0.0043487847
1	0x3d1fb12a	0.038987316
2	0xbcd50af6	-0.026006203
3	0xbc839840	-0.01606381
4	0x3d1f7890	0.038933337
5	0x3aa4faab	0.0012586912
6	0xbc1f54db	-0.009724821
7	0x3d192a0b	0.03739361
8	0xbc7cb0ab	-0.01542298
9	0xbd057c2b	-0.03258912
10	0xbd292e83	-0.041304123
11	0x3cd04c8b	0.025427124
12	0xbcd6a2e6	-0.026200723
13	0xbb677800	-0.0035319328
14	0xbd08eacc	-0.033427045
15	0xbcf6e3d3	-0.030137932
16	0x3c971c5b	0.018446138
17	0x3c6c1540	0.014409363
18	0xbd13082b	-0.03589646
19	0x3c0bbb20	0.008528501
20	0x3bab2d00	0.0052238703
21	0xbb6ed22b	-0.0036441188
22	0xbcf5d948	-0.030010834
23	0xbd049fcf	-0.032378968
24	0xbcd37d70	-0.02581665
25	0x3cbd987b	0.023143997
26	0x3c653d3b	0.013991649
27	0x3cc68216	0.024231952
28	0x3c2e781b	0.010648753
29	0xbc2b6dcb	-0.010463188
30	0x3cd47ef8	0.02593945
31	0xbd033728	-0.032035023
32	0xbc6909d0	-0.014223531
33	0x3c2bba1b	0.010481383
34	0x3cd65e56	0.02616803
35	0x3ca4db1e	0.020124014
36	0x3863caab	5.4309767e-05
37	0xbcf8c283	-0.030366188
38	0x3c16e1bb	0.009209092
39	0x3d11a0bb	0.035553675
40	0x3b62a056	0.003458043
41	0x3c9adb28	0.01890333
42	0xbcc841c6	-0.024445426
43	0x3ca1e828	0.019764021
44	0x3b525ad6	0.00320976
45	0x3ad79756	0.00164483
46	0x3d1f102c	0.038833782
47	0x3c67fd2b	0.014159481
48	0xbcdc9596	-0.026926797
49	0xbd10bcfa	-0.035336472
50	0x3aa37700	0.0012471378
51	0x3c469026	0.012119329
52	0xbc86b628	-0.01644428
53	0xbcd7f07b	-0.026359787
54	0xbc3b79a0	-0.011442572
55	0x3cb83323	0.022485321
56	0xbbc4e7cb	-0.006009077
57	0x3d201ce6	0.03909006
58	0xbb287f00	-0.0025710464
59	0xbbb575ab	-0.0055377088
60	0x3ca43a2b	0.020047268
61	0x3c80819e	0.015686806
62	0x3c5a06a6	0.013307249
63	0xbc90d378	-0.017678961

weight f4 [256, 64]
0	0x3d9e3274	0.07724467
1	0x3d50409c	0.050842866
2	0x3d653b04	0.055964485
3	0x3de3c6d4	0.11121908
4	0xbd4f75b4	-0.05064936
5	0xbd9d3412	-0.07675947
6	0xbc9a0e50	-0.018805653
7	0xbd1d5658	-0.038412422
8	0xbd898688	-0.06715113
9	0xbda9e0c8	-0.08294827
10	0x3d247c1c	0.040157422
11	0xbd897df0	-0.06713474
12	0xbd2de788	-0.042457134
13	0x3dd89fa4	0.10577324
14	0xbb95dd60	-0.004573509
15	0xbdb62364	-0.08893469
16	0x3ce00280	0.027344942
17	0x3dcec91e	0.10096954
18	0x3ce1fc00	0.027585983
19	0xbd89de0c	-0.06731805
20	0xbd9a5d66	-0.075373456
21	0x3cf700c0	0.030151725
22	0x3d2b6f54	0.041854218
23	0x3d49d75c	0.04927765
24	0x3db42bf2	0.087974444
25	0xbd1c99e8	-0.038232714
26	0xbc033d60	-0.008010238
27	0x3df9e010	0.1220094
28	0xbbf121e0	-0.0073587745
29	0xbce3b7a8	-0.027797535
30	0xbd222048	-0.039581567
31	0x3d65405c	0.05596958
32	0x3ccd7260	0.025078952
33	0x3da6be18	0.08141726
34	0xbd3cf358	-0.04613051
35	0x3d055b10	0.032557547
36	0x3da19afe	0.078908905
37	0x3d99b242	0.07504703
38	0x3d947df2	0.07250585
39	0xbd838db8	-0.06423515
40	0xbd23d728	-0.04000011
41	0x3d8a6836	0.06758158
42	0xbd95f1ea	-0.07321532
43	0x3d386280	0.045015812
44	0x3cea5be8	0.028608277
45	0x3dae0b78	0.08498281
46	0x3d473be8	0.048641115
47	0x3da39c14	0.07988754
48	0xbd76bb98	-0.060237497
49	0x3dbb5038	0.0914616
50	0x3daade04	0.08343127
51	0x3d4e1654	0.050314263
52	0xbdbaa1aa	-0.09112866
53	0xbd129098	-0.035782427
54	0xbdb43e14	-0.08800903
55	0x3da566ce	0.08076249
56	0x3dfc7cb6	0.12328474
57	0xbd499904	-0.049218193
58	0xbc78c050	-0.01518257
59	0xbcb353f0	-0.02189061
60	0x3d4d0c8c	0.050060794
61	0x3d25dcd4	0.0404938
62	0xbda04c48	-0.078270495
63	0xbd8f2c9e	-0.06990932
64	0xbcf5ef68	-0.030021384
65	0x3cbf78c8	0.023373023
66	0x3cd9f670	0.026606768
67	0x3d88f5ec	0.06687531
68	0x3da95b70	0.082693934
69	0xbdc38096	-0.0954601
70	0x3c1f3500	0.009717226
71	0xbdf1a838	-0.11799663
72	0x3de6eb52	0.112753525
73	0xbdb7fa4a	-0.08983286
74	0x3dbb93e0	0.09159064
75	0xbd231b40	-0.03982091
76	0x3d6f1098	0.058365434
77	0xbb87b0c0	-0.0041409433
78	0xbd908f72	-0.0705861
79	0x3dee76c0	0.116437435
80	0xbd884bc0	-0.06655073
81	0xbd120440	-0.035648584
82	0x3d1c2e6c	0.03813021
83	0xbd3e8b48	-0.046519548
84	0x3d09a5b0	0.033605278
85	0x3de779b8	0.11302513
86	0xbc9e3bf8	-0.019315705
87	0x3c1356c0	0.008992851
88	0x3d470c64	0.0485958
89	0x3dba2c22	0.09090449
90	0x3dd647e0	0.10462928
91	0xbd098a28	-0.03357902
92	0x3ce51558	0.027964279
93	0x3cd54440	0.02603352
94	0x3d98a5bc	0.07453486
95	0x3de48436	0.1115803
96	0xbd668e70	-0.056288183
97	0x3cc4a798	0.024005696
98	0xbd945e6c	-0.07244572
99	0x3cd6e3e8	0.026231721
100	0xbd65e294	-0.056124285
101	0x3d28d798	0.04122123
102	0x3dbc797c	0.09202859
103	0xbda377b6	-0.079818174
104	0xbd927840	-0.07151842
105	0xbbcfedc0	-0.0063454807
106	0xbd88ce56	-0.066799805
107	0x3d0038e4	0.031304255
108	0xbc10d520	-0.008839875
109	0xbd96821e	-0.07349037
110	0xbd615254	-0.055010155
111	0xbcc204e8	-0.02368398
112	0xbd87bfc0	-0.0662837
113	0xbbe7cbc0	-0.0070738494
114	0xbd89fa80	-0.06737232
115	0xbcbc32f0	-0.022973508
116	0xbdb07f8e	-0.08618079
117	0xbd425234	-0.047441676
118	0xbc596e80	-0.013270974
119	0x3cd45640	0.025920033
120	0x3da8121c	0.08206579
121	0xbdabc822	-0.08387782
122	0xbc9e1b90	-0.019300252
123	0xbc336480	-0.010949254
124	0x3cb16230	0.021653265
125	0xbd7ae55c	-0.06125389
126	0xbde843fc	-0.11341092
127	0xbd8c343a	-0.06845899
128	0xbd7a4810	-0.06110388
129	0x3c9ff258	0.019524738
130	0x3d8ede16	0.06975953
131	0x3d8b325e	0.06796716
132	0xbd92c508	-0.07166487
133	0xbdd2e078	-0.1029672
134	0x3c873308	0.016503826
135	0xbd96e21c	-0.07367346
136	0x3dac5fc2	0.08416702
137	0x3de55df2	0.11199559
138	0xbd66a9d0	-0.05631429
139	0xbdda97de	-0.106734976
140	0x3dedbad2	0.11607899
141	0x3da8c394	0.082404286
142	0x3dd71c7e	0.10503481
143	0x3c86dc28	0.0164624
144	0xbd9c61b0	-0.0763582
145	0x3d6d48b0	0.05793065
146	0x3d7e8630	0.06213969
147	0x3dde4658	0.10853261
148	0x3deed13e	0.116610035
149	0x3d4fb7bc	0.050712332
150	0x3ca4d5e0	0.020121515
151	0xbdc97122	-0.098360315
152	0x3d32e024	0.04367079
153	0xbd072884	-0.032997623
154	0xbdcdffd0	-0.10058558
155	0x3df5317a	0.119723275
156	0xbbdfcc80	-0.006829798
157	0xbdca5d06	-0.09881024
158	0xbc561770	-0.013067111
159	0x3dd9f2d0	0.10642016
160	0x3d7117a4	0.058860436
161	0x3dc7ff7e	0.09765528
162	0xbde0c692	-0.10975374
163	0xbd12043c	-0.03564857
164	0xbde11818	-0.10990924
165	0xbdf8e17e	-0.12152384
166	0x3d94aea8	0.072598755
167	0x3da6e430	0.08148992
168	0xbdcf2038	-0.10113567
169	0xbd5e43b8	-0.0542638
170	0xbd90b366	-0.070654675
171	0xbb3ad7c0	-0.0028509945
172	0x3dae7fc0	0.0852046
173	0xbd4ef464	-0.050526038
174	0x3d0dde38	0.034635752
175	0x3c8951f8	0.016762719
176	0xbd1187c0	-0.035529852
177	0xbdbe2d7c	-0.09286019
178	0x3ddcea42	0.10786869
179	0x3d542c00	0.051799774
180	0x3da17212	0.07883085
181	0x3c13d520	0.009022981
182	0x3db7581e	0.08952354
183	0x3da7f324	0.08200672
184	0xbd07f944	-0.033196703
185	0x3c3187f0	0.010835633
186	0x3d43dd90	0.04781872
187	0xbdf97b6e	-0.121817455
188	0x3d229c64	0.039699927
189	0x3c99e9e0	0.018788278
190	0xbd58fad8	-0.0529736
191	0x3dcb0bc4	0.099143535
192	0xbd5c9220	-0.053850293
193	0x3dec0450	0.1152426
194	0xbc656d30	-0.014003083
195	0x3dfab674	0.122418314
196	0x3da5dbb2	0.08098544
197	0x3d6861c8	0.056733876
198	0x3dadab0e	0.08479892
199	0xbd871198	-0.065951526
200	0x3d93efa4	0.07223442
201	0x3dc18510	0.09449208
202	0xbd94f214	-0.07272735
203	0x3da22676	0.07917492
204	0x3dd79846	0.10527091
205	0x3cc97e20	0.024596274
206	0xbdff9796	-0.124800846
207	0xbdcf3fae	-0.10119568
208	0x3df88c60	0.121361494
209	0xbbc61400	-0.0060448647
210	0x3d9c6636	0.07636683
211	0xbdcbf7de	-0.09959386
212	0xbbf51e60	-0.0074804276
213	0xbdfe0d14	-0.12404838
214	0x3cc86b60	0.024465263
215	0xbdbe4a18	-0.09291476
216	0x3dc2f282	0.09518911
217	0xbdd18080	-0.102295876
218	0xbd86c6ea	-0.065809086
219	0x3d4e1b58	0.050319046
220	0xbc336570	-0.010949478
221	0x3d64a5b0	0.055822074
222	0x3ccd7350	0.0250794
223	0x3d665aa8	0.0562388
224	0x3da557ce	0.08073388
225	0xbd9a5c86	-0.07537179
226	0x3d7ac898	0.061226457
227	0xbd915678	-0.07096571
228	0xbd5f1b74	-0.05446954
229	0x3d1cef60	0.038314223
230	0xbdacfaec	-0.08446297
231	0x3de08030	0.1096195
232	0xbd863a3a	-0.065540746
233	0xbda1732e	-0.07883297
234	0xbde026b2	-0.109448805
235	0x3cd63cc8	0.02615203
236	0xbd82cef8	-0.063871324
237	0xbd34410c	-0.044007346
238	0x3cfcc790	0.030856878
239	0xbdd04b96	-0.10170667
240	0x3d8b3dd0	0.06798899
241	0x3d9bc01c	0.07605001
242	0xbdf86288	-0.12128168
243	0xbcb879b8	-0.022518978
244	0x3d1788dc	0.036995754
245	0xbd50f04c	-0.051010415
246	0x3dbea442	0.093086734
247	0xbddb0006	-0.10693364
248	0xbd95a2a6	-0.07306413
249	0xbde8c67c	-0.11365983
250	0x3d7fa4e8	0.062413126
251	0xbdc9be56	-0.09850757
252	0x3cdf2440	0.027238965
253	0x3da5d55e	0.08097337
254	0xbcc5be00	-0.02413845
255	0xbc055ff0	-0.008140549

bias f4 [256]
0	0xbdd3e188	-0.10345751
1	0x3d9e9190	0.077426076
2	0xbd257e9c	-0.040403947
3	0x3d298c24	0.041393414
4	0x3d626348	0.055270463
5	0xbc123340	-0.008923352
6	0xbd65c6b0	-0.056097686
7	0x3d6d9a90	0.05800873
8	0xbd839a36	-0.06425898
9	0xbdb93290	-0.09042847
10	0xbcb28c98	-0.021795556
11	0x3b4a3d40	0.0030859262
12	0xbdb08bae	-0.08620392
13	0x3d875fb4	0.06610051
14	0x3ded8ac8	0.11598736
15	0xbd862366	-0.065497205
16	0x3de07994	0.10960689
17	0x3d4d8538	0.050175875
18	0xbc7ce6c0	-0.015435874
19	0xbd87dc76	-0.066338465
20	0x3d0df49c	0.034657106
21	0xbaa75e00	-0.0012769103
22	0x3d30e0cc	0.043183133
23	0x3d9d5c2c	0.07683596
24	0x3bac5640	0.0052593052
25	0x3d1d7e38	0.03845045
26	0x3d186f94	0.037215784
27	0xbdce7778	-0.100813806
28	0xbda8d07a	-0.08242889
29	0x3dc56c1e	0.09639762
30	0x3b4f4fc0	0.0031633228
31	0x3da0bf74	0.07849017
32	0xbde8854a	-0.11353548
33	0x3defbd20	0.117059946
34	0x3dee5440	0.11637163
35	0xbd188e9c	-0.037245378
36	0x3d3b0018	0.045654386
37	0xbd502e28	-0.050825268
38	0xbdf7d00a	-0.12100227
39	0xbd761c8c	-0.06008582
40	0xbdef6a58	-0.11690205
41	0x3cd141c0	0.025544047
42	0xbda71e02	-0.081600204
43	0x3df6523a	0.12027402
44	0xbd6ddbc0	-0.058070898
45	0xbd903f92	-0.07043375
46	0x3da1c902	0.07899667
47	0xbd807a54	-0.06273332
48	0xbd79ea6c	-0.061014578
49	0xbd6f1354	-0.058368042
50	0xbdae605e	-0.08514474
51	0x3d0cfc88	0.03442052
52	0x3ce081b0	0.02740559
53	0xbda4247e	-0.08014773
54	0xbdd3cffe	-0.10342406
55	0x3da2ad7c	0.07943246
56	0xbdc137dc	-0.094344825
57	0x3d945aee	0.07243906
58	0xb9c7f000	-0.00038135052
59	0x3d8a30f0	0.06747615
60	0xbdda6db2	-0.10665454
61	0xbd544204	-0.05182077
62	0xbd429fcc	-0.047515675
63	0xbdc01ae2	-0.093801275
64	0xbdadb4cc	-0.0848175
65	0x3c2f9c10	0.010718361
66	0xbd998e90	-0.07497895
67	0xbd1763d4	-0.036960438
68	0x3daf9854	0.08573976
69	0xbd09f6f4	-0.03368278
70	0x3c91f660	0.017817676
71	0xbd840086	-0.06445412
72	0xbcf363a0	-0.02971059
73	0xbd5a4da4	-0.0532967
74	0x3cb57450	0.022150189
75	0x3d2fbe5c	0.04290615
76	0x3d0a8570	0.033818662
77	0x3dc10c4a	0.09426172
78	0x3de63426	0.11240415
79	0xbdc6b8e4	-0.09703234
80	0xbdfaa39a	-0.12238236
81	0xbdda5512	-0.10660757
82	0x3d9edd96	0.07757108
83	0x3daa1bd6	0.083060905
84	0x3da60d86	0.08108048
85	0x3d3c5134	0.04597588
86	0xbd96491c	-0.07338163
87	0xbdbae6b6	-0.09126036
88	0xbd7e8ea8	-0.062147766
89	0x3d7a5930	0.061120212
90	0xbdbaa08e	-0.091126546
91	0x3d44ca34	0.0480444
92	0xbd409e98	-0.047026247
93	0x3d90c080	0.070679665
94	0x3d318bdc	0.04334627
95	0xbc9d1040	-0.019172788
96	0xbcbcd3b0	-0.02305016
97	0xbbbe2d80	-0.005803764
98	0x3d5b3330	0.053515613
99	0xbd869c60	-0.06572795
100	0xbd438070	-0.04772991
101	0xbbb511e0	-0.0055258125
102	0xbca14230	-0.019684881
103	0x3da2865e	0.07935785
104	0x3c9d1ec0	0.019179702
105	0x3dabf144	0.08395627
106	0xbcea0dd0	-0.02857104
107	0xbc2d0180	-0.01055944
108	0x3d359294	0.04432924
109	0xbd035b94	-0.032069758
110	0xbd001574	-0.03127046
111	0x3d61a894	0.05509241
112	0xbdbaa1c0	-0.091128826
113	0xbddbf4a0	-0.10740018
114	0xbd5479ec	-0.051874086
115	0xbdfd7c6c	-0.12377247
116	0x3d274748	0.040839463
117	0x3cc71840	0.024303555
118	0xbdee9fa2	-0.11651541
119	0x3dc562b2	0.09637965
120	0x3d60ef5c	0.05491577
121	0x3dd47302	0.103734985
122	0xbbe4af20	-0.0069788843
123	0xbdb70e50	-0.08938277
124	0xbd8f96d4	-0.0701119
125	0x3dd1cf4a	0.102446154
126	0x3dca2cca	0.09871824
127	0xbd802f8a	-0.06259067
128	0x3d03c304	0.032168403
129	0xbdadb960	-0.08482623
130	0xbccd3588	-0.02504994
131	0x3decf440	0.115700245
132	0xbdcdd224	-0.10049847
133	0x3df98498	0.121834934
134	0x3d05fe80	0.032713413
135	0xbd3c6de4	-0.046003237
136	0x3d478b5c	0.048716888
137	0xbde3236a	-0.11090739
138	0x3d1f6a68	0.038919836
139	0xbd042b08	-0.0322676
140	0x3d24b8b0	0.040215194
141	0xbd8da5e2	-0.06916405
142	0x3d7845b8	0.060613364
143	0xbdaea74e	-0.085280046
144	0xbc990208	-0.018677726
145	0x3c331120	0.010929376
146	0xbdfa42fc	-0.122198075
147	0x3df11016	0.11770646
148	0x3b582ac0	0.0032984465
149	0x3da59448	0.08084923
150	0x3db47f10	0.08813298
151	0xbbf2f780	-0.007414758
152	0x3c40ef00	0.011775732
153	0x3da88198	0.08227843
154	0xbd9c0362	-0.07617833
155	0x3dceb108	0.1009236
156	0xbdb13c0c	-0.08654031
157	0x3bc91b40	0.0061372817
158	0xbd2c90d0	-0.04213029
159	0xbdfc1b3c	-0.12309882
160	0x3bae9dc0	0.005328864
161	0x3d0a67e8	0.0337905
162	0xbdaae9e2	-0.08345391
163	0xbc450b00	-0.012026548
164	0xbd131f88	-0.035918742
165	0xbdc45b62	-0.095877424
166	0x3d876002	0.06610109
167	0xbdf85c92	-0.121270314
168	0x3d676c28	0.05649963
169	0x3dce68c0	0.10078573
170	0x3d1b7318	0.03795156
171	0x3d930400	0.07178497
172	0x3d5c2150	0.053742707
173	0xbd265264	-0.040605918
174	0xbcd8fba0	-0.026487172
175	0x3d9d6a4c	0.0768629
176	0x3dcdbe3c	0.1004605
177	0x3dbf5058	0.09341496
178	0xbdd5764c	-0.10422954
179	0x3c91d230	0.01780042
180	0x3db72274	0.08942118
181	0x3cfc8368	0.030824378
182	0x3af25580	0.0018488616
183	0xbdf5e820	-0.12007165
184	0xbd1fd764	-0.039023772
185	0x3c87f3a8	0.016595677
186	0x3df85532	0.12125625
187	0x3de3d566	0.11124687
188	0xbca1f538	-0.01977025
189	0x3d7f2218	0.062288374
190	0x3d2a3710	0.041556418
191	0xbd638a48	-0.055551797
192	0xbdad7d04	-0.084711105
193	0xbd875392	-0.06607737
194	0xbcbee638	-0.023303136
195	0x3c970758	0.018436119
196	0xbd60da50	-0.0548957
197	0x3de806b0	0.113294005
198	0x3cecf790	0.02892664
199	0xbdce89b2	-0.10084857
200	0xbdd5bbcc	-0.1043621
201	0x3d0ebedc	0.034849986
202	0x3dfd1892	0.12358202
203	0x3db2eaaa	0.08736165
204	0x3d8c3734	0.06846467
205	0xbbccd400	-0.0062508583
206	0x3d8f1e86	0.06988244
207	0x3d487434	0.048938945
208	0xbccdb970	-0.025112838
209	0xbc693730	-0.014234349
210	0xbdfb1098	-0.122590244
211	0xbd85a27e	-0.065251336
212	0x3d480744	0.048835054
213	0x3dffa6d8	0.12482995
214	0xbdec77da	-0.11546297
215	0x3bd62a00	0.0065357685
216	0xbdfbc50c	-0.12293443
217	0x3de6f822	0.11277796
218	0xbd9a8ec0	-0.07546759
219	0xbb740940	-0.0037236959
220	0xbbcd05c0	-0.006256789
221	0xbc03b680	-0.008039117
222	0x3d4e0b68	0.050303847
223	0x3de33b8c	0.11095342
224	0x3dfcdcc2	0.12346794
225	0x3d5f55ec	0.0545253
226	0xbd846bc6	-0.06465869
227	0x3da0f152	0.07858528
228	0xbdd0fff4	-0.10205069
229	0xbccbace8	-0.024862722
230	0xbd7c29ec	-0.061563417
231	0x3dfbd91a	0.12297268
232	0xbdc9a026	-0.09844999
233	0x3dd254d0	0.10270083
234	0x39f78e00	0.0004721731
235	0xbda0d048	-0.078522265
236	0x3b8a6e00	0.004224539
237	0x3bbd3780	0.0057744384
238	0x3c9bf790	0.019038945
239	0x39b79e00	0.000350222
240	0xbbf30220	-0.007416025
241	0xbdc35d72	-0.09539308
242	0x3dc4e762	0.09614445
243	0x3c029620	0.007970363
244	0xbbb1d400	-0.0054268837
245	0xbc05fa60	-0.00817737
246	0xbd8566e0	-0.065137625
247	0x3cd76fe0	0.026298463
248	0xbd0261e4	-0.031831637
249	0xbbad4ae0	-0.005288467
250	0x3c5e4230	0.013565585
251	0x3dcf273a	0.10114904
252	0xbd85a7a2	-0.06526114
253	0xbdd6531c	-0.104650706
254	0x3da1dc2e	0.07903324
255	0x3d5e9bc4	0.05434777
