cnn_models/cnn_model_episode_500.pth (torch, 383848 bytes, 8 tensors)

weight f4 [32, 4, 8, 8]
00000000: 48ce 623c f8d2 a23c a85e 2dbc f60f 21bd
00000010: bcc8 bb3c 9cf3 ab3c fa74 5fbd 9413 933c
00000020: 7873 41bd 609c 5abc 1cd6 07bd da5d 743d
00000030: 0cfd 033d 3a7b 3a3d 26b4 6f3d 38cc 6ebd
00000040: 6ca7 dfbc a0c9 49bd 4a5b 533d a0ec 8fbb
00000050: 4485 7e3d 203c 4abc e8fc 2dbd ea2a 50bd
00000060: c6da 1bbd 9282 293d dcde 753d a089 293d
00000070: bc12 d13c 880f 283c 820b 3ebd ac49 a6bc
00000080: d677 61bd 48e1 45bd 50f2 e53c 5031 b6bb
00000090: 10cd e83b a0b3 573b 7ab3 68bd 0041 d8ba
000000a0: a016 023c f090 77bc 808c 6bbd 40a1 e6bb
000000b0: 8c6a 993c 1248 2d3d 8a49 58bd f0ad 9c3c
000000c0: 30de 663d 7470 27bd 2030 173b 0823 20bd
000000d0: 8224 2b3d 9826 0bbc 4805 2cbd 9847 58bd
000000e0: 28c9 133d 1413 b93c 943c f13c 7a9c 15bd
000000f0: 8c5d 0cbd 94c5 0fbd 3a55 76bd 3a8c 31bd
00000100: fcf8 ae3c 28ec 4bbd 5445 4a3d a2f5 2abd
00000110: aaa6 253d 66f8 65bd 2019 79bb b0f4 8abb
00000120: 8087 893c 5441 e73c f0bf 0bbd 1e5d 40bd
00000130: 30f0 6abd a8c9 003c 0c65 d9bc 667f 0f3d
00000140: d09e d9bc b8e3 033c c835 37bc 52c1 3b3d
00000150: 086d c9bc 5895 d73c 1444 453d 884f 15bd
00000160: b8cf 1f3c 888e 64bc 101a b73c cc2b 1c3d
00000170: e00b 443b c066 b5ba 6054 d1bb a057 8c3b
00000180: 0061 d9bb 00dc 8cb9 7421 8e3c 6054 5c3c
00000190: 90dc e83b d867 523c 7ee2 45bd f086 813c
000001a0: ec1b 45bd 2405 9ebc c44d 803c 807f 8f3a
000001b0: a8bc 6e3d 5081 613c 6e34 4c3d f84c d2bc
000001c0: f08b d53c 48ba f9bc 26ab 573d 84db ccbc
000001d0: f0c7 7abd f08b c63b e0ee 123c d0a8 b43c
000001e0: ba11 63bd 4097 7b3d d406 5d3d 7a51 7dbd
000001f0: 20a1 3e3b d099 fc3b e0f4 eb3c 1809 193d
00000200: 04ef 12bd 12bb 3d3d 3aa0 0ebd 1041 ae3b
00000210: c249 79bd 8cbe cebc ccf2 c3bc 0048 003a
00000220: 3ab9 18bd 0846 05bd a8fc 3c3d 1c44 903c
00000230: 7ca5 ba3c f43e 3c3d acf3 20bd 6216 633d
00000240: 70a3 d2bb a21a 4d3d 68f2 b0bc 0269 123d
00000250: 8892 f2bc 90f5 6cbc fe14 1b3d 9265 75bd
00000260: d0d8 d3bc 50f8 f53b fe5e 74bd 500e b43b
00000270: 28df 53bc d02a 13bd a0fd 413b 1cf9 a2bc
00000280: 8872 493c f097 703c b01a 183d 3c12 a53c
00000290: e0fe f13b fcbb 64bd 20db 4cbc ead6 353d
000002a0: 6247 37bd 08aa 1ebd 1c02 283d 000e 1dbc
000002b0: 5a36 5e3d e8f8 853c 8077 e9bb d012 5d3c
000002c0: d05f 78bd 2c3c e23c c0c1 fc3a 2c1e 733d
000002d0: a47a 99bc b8b2 7f3c 30aa 6abd ba2d 5c3d
000002e0: 4c6c b13c 2cd4 c93c bc9a 0d3d 38ae 40bd
000002f0: 7812 38bc 465c 763d e05d a3bc 30b3 4f3d
00000300: a048 433b 5cb8 22bd 4828 3fbd 10b5 dbbc
00000310: f05d 51bd b0d2 d63c 5435 e7bc 3a31 5b3d
00000320: c844 2f3d 6a74 3a3d 4607 113d 7e32 013d
00000330: 54b6 e53c 98b6 85bc e813 e5bc 688f 0abd
00000340: 0034 7cbb 5492 db3c 70cf 4f3c 5031 08bd
00000350: 00cc 4d3b 0c12 413d 4c28 04bd d0d5 863c
00000360: 0039 673b 2a4a 53bd 80b3 9b3c ec48 80bc
00000370: b096 7a3d e822 a9bc 0c96 c03c 5cd9 4dbd
00000380: 0c52 8fbc b459 7ebd 5e93 53bd 24d0 343d
00000390: 50e6 b73b ce0b 6cbd c0e8 d33b f2ad 503d
000003a0: a081 87bc 6cd2 ccbc d08d 69bd 18cd 6d3c
000003b0: 4c70 2abd f0db ee3b d293 5f3d 7c3f 29bd
000003c0: 38a0 bcbc b686 06bd 48b5 e33c 18ad bdbc
000003d0: 08f0 413d 049c 003d 08bd 663d 346a 043d
000003e0: 343b 5fbd 04e4 0a3d 5488 bdbc c837 293d
000003f0: f09d 293c 8688 2bbd 7896 2a3d f0af 71bc
0.013843127 0.019875988 -0.01058165 -0.039321862 0.022922866 0.020990185 -0.054554917 0.017953672
-0.04722926 -0.013342947 -0.033163175 0.059659816 0.032223746 0.045527674 0.058521412 -0.058300227
-0.027301513 -0.04926455 0.051600732 -0.0043922216 0.06213881 -0.0123434365 -0.04247752 -0.050822176
-0.038050435 0.041384287 0.06002699 0.041391015 0.025521629 0.010257609 -0.046397693 -0.020298801
-0.055045925 -0.048310548 0.028069645 -0.0055600777 0.0071045235 0.0032913461 -0.056811787 -0.0016498864
0.0079399645 -0.015110239 -0.057507038 -0.0070382655 0.018727563 0.04230506 -0.052804507 0.019125909
0.05636424 -0.040878728 0.0023069456 -0.03909591 0.041782863 -0.008493088 -0.041997224 -0.052802652
0.03608051 0.022592105 0.029447831 -0.03652618 -0.0342689 -0.035100535 -0.060139872 -0.04334662
0.02135896 -0.049785763 0.049382523 -0.04173816 0.040442146 -0.056145094 -0.003800936 -0.004240595
0.016788244 0.028229393 -0.034118593 -0.046963803 -0.057357967 0.007860579 -0.02653744 0.035033606
-0.026564986 0.008049898 -0.011182256 0.04583866 -0.024588123 0.02631633 0.048160627 -0.0364528
0.009754114 -0.013949998 0.022351295 0.038127705 0.0029914305 -0.0013839826 -0.006388232 0.0042829067
-0.0066338778 -0.00026866794 0.017349936 0.013447851 0.007106371 0.012842141 -0.048311703 0.015811414
-0.04812233 -0.01928956 0.015662082 0.0010948032 0.058285385 0.013763741 0.04985469 -0.025671467
0.026067704 -0.030484334 0.052653454 -0.025007017 -0.06122583 0.0060591623 0.008968085 0.022053152
-0.055436827 0.06142354 0.05396159 -0.06184528 0.0029087737 0.0077087656 0.028803289 0.037362188
-0.035872474 0.046320982 -0.034820773 0.0053178146 -0.060861357 -0.025237344 -0.023919486 0.00048935413
-0.03728602 -0.03253749 0.04613939 0.017610602 0.022783987 0.045958474 -0.039294884 0.055441268
-0.0064281747 0.050074227 -0.021599963 0.035744675 -0.029610887 -0.014462844 0.037861817 -0.059911318
-0.02586022 0.007506408 -0.059660904 0.0054948702 -0.012931623 -0.0359295 0.0029600635 -0.019894175
0.012295373 0.014684662 0.037134826 0.020150296 0.00738512 -0.05584334 -0.012503415 0.04439441
-0.04474581 -0.038736373 0.041017637 -0.009585857 0.054251052 0.01635404 -0.007124841 0.013493255
-0.06063825 0.027616583 0.0019283816 0.059354946 -0.018735237 0.015606575 -0.05729121 0.053754546
0.021658085 0.024637304 0.034571394 -0.047041148 -0.011234872 0.060146593 -0.019942224 0.050707996
0.0029797927 -0.0397266 -0.046669275 -0.026819736 -0.051114976 0.02622351 -0.028223671 0.053513743
0.042790204 0.045521177 0.035407327 0.031542294 0.028041042 -0.016322419 -0.027963594 -0.03382817
-0.0038483143 0.026803173 0.012683734 -0.033250153 0.003140211 0.04713635 -0.032264993 0.016459376
0.0035281777 -0.0515844 0.01900649 -0.015659772 0.061178863 -0.020646527 0.023509048 -0.05025612
-0.017495178 -0.062097266 -0.051654212 0.04414381 0.005612172 -0.057628445 0.006466955 0.050947137
-0.016541302 -0.02500268 -0.05702001 0.01451423 -0.041611 0.007289402 0.05458433 -0.04132031
-0.023025617 -0.032843314 0.027796403 -0.023153827 0.047348052 0.031398788 0.056332618 0.032327846
-0.05449982 0.03390886 -0.023136295 0.041312963 0.010352597 -0.041878246 0.041647404 -0.014751419

bias f4 [32]
00000000: fcdf aebc 2830 69bc acdd 99bc bc7b 9b3c
00000010: e6d9 1e3d f0b7 8a3c 700f 333c 40f5 c33a
00000020: 2e0f 3ebd 3278 753d e0fd 2ebb 005e 7a39
00000030: 1a53 17bd 9a8b 6cbd a0e0 6e3b 0e5d 173d
00000040: a883 843c e019 32bd 20b2 77bb c065 5ebb
00000050: 704d 363d 90cd bdbc 240b 483d 349c d73c
00000060: 7c54 5f3d d273 04bd c47b ad3c e046 873b
00000070: 605f adbb 9005 86bb d492 43bd 08f0 073d
-0.021347038 -0.014232673 -0.01878246 0.0189799 0.038782023 0.016933411 0.010928974 0.001495041
-0.046401195 0.05992908 -0.0026701614 0.00023876876 -0.036944486 -0.057750322 0.0036449805 0.03695398
0.01617606 -0.043481708 -0.003779538 -0.003393516 0.044507444 -0.023169309 0.04883875 0.0263196
0.05452393 -0.032337017 0.02117718 0.004128322 -0.0052909106 -0.0040900186 -0.047747448 0.033187896

weight f4 [64, 32, 4, 4]
00000000: 9035 6c3c 18a5 efbc a032 abbb 033e 223d
00000010: 88b1 8b3b 980e 2fbd 767f e03c 0802 aa3b
00000020: e8ce 22bd 5da4 23bd c7cb 89bc 5683 e03c
00000030: 6ca6 933c e0e1 963a f73a 163d 51d7 343d
00000040: f42c 833c 92f1 86bc 30ae efbb b9c6 b0bc
00000050: 7405 2c3c 4832 98bb 95a3 0f3d 79ac 2f3d
00000060: ba23 fe3c eabd 23bd 5af1 c63c e0ac 873a
00000070: b4b7 40bc 4878 883c 0090 01bb d4af 04bd
00000080: 15f7 2dbd bf47 333d cc7a 5abc f8f1 8a3c
00000090: 08a1 cfbb c484 763c 209f 33bc 4877 b5bc
000000a0: 393f 0d3d 37ef 07bd 5ec7 16bd 601b 313c
000000b0: d7f1 1f3d b603 b03c 6f26 8cbc e081 bf3a
000000c0: b067 cb3b 602e 643b 0aeb b43c 72e2 30bd
000000d0: 23cf 2dbd 514e 1b3d e0cb b2ba f40f 313c
000000e0: 809a dd39 ab24 98bc c62e c53c f2e1 b0bc
000000f0: 42ae e63c 62df d63c 1233 9d3c eded abbc
00000100: 949b 1ebc b1dd 173d 30b8 51bc 28b0 bcbb
00000110: c43f 4cbc d609 84bc b455 0cbc 3368 213d
00000120: 25bd 023d 4aa6 9b3c 3219 aa3c 5ed3 ba3c
00000130: a19f 0ebd 8e66 24bd ce26 e5bc 8c45 abbc
00000140: d851 f33b 6ce6 a5bc 4c36 203c 9e2a c63c
00000150: e66e f43c e064 7e3b d0b6 043b e500 183d
00000160: 26d6 9d3c 4a1e 22bd 76a4 9a3c 8023 f639
00000170: 8ee8 a63c bc13 1a3c 20e3 29bb 02d9 f53c
00000180: c0b5 dbba 0191 33bd 01e2 323d 7771 073d
00000190: 2540 c2bc 3032 d7bb 43b1 153d 981c f2bb
000001a0: 1c26 1ebc 00c6 14b9 e1c4 debc 889d b43b
000001b0: 280e 81bb c097 17ba a0f3 8d3b 3050 5ebb
000001c0: 00c6 00bc fdc6 253d 2057 43bc e81d be3b
000001d0: 9ccd 783c b280 993c 58ae 423c 157b 1e3d
000001e0: dc9d 173c 2ca7 0ebd b625 8f3c a71a 043d
000001f0: 16ff 5cbc 14bd 07bd ec9b 5e3c 8bcc 043d
00000200: a043 7f3c ef6a 12bd 09f0 163d 6e51 9b3c
00000210: b050 553c 1451 4d3c b08c 063b 4e33 903c
00000220: 3438 24bd 6d29 133d bcb2 213c 6489 473c
00000230: aee3 d93c c0d9 4c3a 30f4 3a3b 1cc1 643c
00000240: acb1 5c3c bc9c 13bd 297e 85bc dbcb 123d
00000250: c0de 82bc d5fe 29bd b418 5b3c 614b f3bc
00000260: 066a a13c c67f e63c e45c 90bc 7989 183d
00000270: 58af c63b becf bebc f6ca eabc 7471 6abc
00000280: c8dd 86bc ed7b 09bd ee85 32bd 42a6 ffbc
00000290: 22b5 9f3c 1668 f13c 28de 723c c04b 423b
000002a0: 5cf1 2ebc 8001 bb3b 215a a3bc 5099 133b
000002b0: 68f8 acbb 48d8 aa3b 0622 f7bc a09a 293b
000002c0: e0d9 d33a 702c f53b 4022 f8ba e0ee dbbb
000002d0: 3bd0 07bd 98c6 c6bb c8ef 373c 4ad7 81bc
000002e0: 80c4 873b 598c 283d 09cd 083d 802c ebba
000002f0: fddc 113d 6b9a 233d eb2e b4bc 9030 99bc
00000300: 88d9 50bc 926d 07bd f6b8 9b3c 8fe5 e5bc
00000310: 81d9 04bd 4083 4b3c 10fe 32bc 9045 b5bc
00000320: 106a 39bc e61f 0cbd ea34 fc3c 129a dbbc
00000330: d819 29bc ce0b 923c 5166 063d b23d fa3c
00000340: dc8c 883c 6c40 c8bc 3636 6bbc 0089 b53a
00000350: 8042 9cbb 1319 343d ba95 74bc 101a a93b
00000360: 519a e1bc f025 e23b 3c1d 03bc c4d6 403c
00000370: db5b 283d a7dc 05bd e8a7 87bb 1883 cd3b
00000380: 9be7 343d ecc4 58bc 106d 32bb 763a 79bc
00000390: 677e 2dbd edb1 28bd 7159 20bd 64d5 49bc
000003a0: 10ee 05bd 0c3f 093c 24c6 203c 3ab7 c73c
000003b0: a61f a43c 8d37 033d 6cfe 5c3c c88e fcbb
000003c0: d01e 2c3b 00f4 8439 178d 053d 20bf 28bd
000003d0: 005e 8ab9 78f9 80bb 68ae c3bb d8a5 ae3b
000003e0: c010 8cbb ea7a cb3c 1308 0a3d 96cc 913c
000003f0: 053b 273d 6fd1 d5bc 8028 723b 1e81 9bbc
0.014417067 -0.029253528 -0.005224541 0.03960992 0.0042631067 -0.042738527 0.027404528 0.0051882304
-0.039748102 -0.03995167 -0.016820801 0.027406376 0.018023692 0.0011511408 0.036677327 0.044150654
0.016012646 -0.016472612 -0.007314466 -0.021579133 0.010499347 -0.004644666 0.035068113 0.042889092
0.031022895 -0.039976038 0.024285007 0.0010351203 -0.011762548 0.016658917 -0.0019769669 -0.032394245
-0.042471964 0.043769594 -0.013334941 0.016961083 -0.006336335 0.015046302 -0.010963231 -0.022151604
0.034484122 -0.033187117 -0.036811225 0.010809749 0.039048996 0.021486145 -0.01710817 0.0014610849
0.006207429 0.003481768 0.022084732 -0.043184705 -0.04243387 0.037916485 -0.0013641082 0.010807026
0.00042267516 -0.018572172 0.024070155 -0.021592114 0.028159264 0.026229564 0.019189391 -0.020987475
-0.009680647 0.037076656 -0.012800261 -0.005758304 -0.012466375 -0.016117971 -0.008565355 0.039406013
0.031918664 0.019000191 0.020763967 0.022805866 -0.034820203 -0.040136866 -0.027972605 -0.020907186
0.007425528 -0.020251475 0.00977857 0.024190243 0.029838037 0.003881745 0.0020250566 0.037110228
0.019267153 -0.039579667 0.01887725 0.00046947226 0.020374563 0.009404119 -0.002592273 0.030010704
-0.001676254 -0.04383946 0.043672565 0.033067193 -0.023712227 -0.006567262 0.036546003 -0.0073886625
-0.009652641 -0.0001418814 -0.027193489 0.0055119433 -0.003938455 -0.00057828054 0.004332021 -0.0033922307
-0.007859707 0.040472973 -0.011922628 0.005801905 0.01518574 0.018738125 0.011882387 0.0386916
0.009253945 -0.034827396 0.017474037 0.03225198 -0.013488552 -0.033139303 0.013586979 0.03242163
0.015580088 -0.03574651 0.03685001 0.018959727 0.013019726 0.012531538 0.0020530634 0.017602589
-0.040092662 0.03592818 0.009869274 0.012178753 0.026597824 0.00078144297 0.0028526895 0.0139620565
0.013470095 -0.036038145 -0.01629551 0.035838943 -0.015975356 -0.041502792 0.013372589 -0.02969903
0.019703876 0.028137099 -0.017622419 0.03724048 0.006063383 -0.023292419 -0.028661232 -0.014309276
-0.016463175 -0.03356545 -0.043584757 -0.031207208 0.01949555 0.029468577 0.014823474 0.0029647201
-0.010677662 0.005706966 -0.019940438 0.0022521801 -0.005278636 0.005213771 -0.03016759 0.0025879517
0.0016162954 0.007482104 -0.0018931106 -0.0067118257 -0.03315757 -0.0060661547 0.011226602 -0.015849728
0.0041432977 0.04114947 0.03339866 -0.0017942339 0.03561114 0.039942186 -0.021995028 -0.018699914
-0.012747176 -0.03306348 0.019009095 -0.028063564 -0.03243399 0.012421429 -0.010924831 -0.022127897
-0.011316791 -0.03421011 0.03078695 -0.026806865 -0.010321103 0.017827895 0.03281242 0.030546997
0.01666873 -0.024444781 -0.014356187 0.0013850033 -0.0047686696 0.043969225 -0.014928276 0.0051605776
-0.027539404 0.006901495 -0.0080025755 0.011769954 0.041103225 -0.032681134 -0.004139889 0.006271731
0.04416619 -0.013230544 -0.002722565 -0.015211692 -0.042356875 -0.04118531 -0.039147798 -0.012318943
-0.032697737 0.008376848 0.009812865 0.024379361 0.020034622 0.0320354 0.013488393 -0.0077074505
0.0026263483 0.00025358796 0.032605257 -0.041197896 -0.00026391447 -0.003935989 -0.0059717186 0.0053298287
-0.0042744577 0.024838883 0.033699106 0.01779775 0.04082777 -0.026100842 0.003695041 -0.018982466

bias f4 [64]
00000000: 7af3 833c ac7d 493c 09d8 183d 8979 99bc
00000010: d0ae ccbb ecc0 473c 9ed4 1bbd 5d51 103d
00000020: 9b4c 223d fd5d 253d 705b f13b e91d 0a3d
00000030: 30b4 06bc 68cb 32bd c3f5 31bd 5a0b b33c
00000040: 0073 12b9 7861 d1bb 0c0c 703c b0ab a43b
00000050: 593e 2abd adc9 2f3d 0085 043c 38ce f93b
00000060: 7a9d e9bc bf16 29bd ada3 123d 88c3 b4bc
00000070: 3039 f93b cc4d 18bc fb92 91bc 6959 1c3d
00000080: 7c70 23bc 6c50 1dbd 2a10 93bc 2d26 193d
00000090: 1d7b 2fbd 7ea8 5abc 3f2c 2dbd 085d 42bc
000000a0: f8f9 50bc 85e1 253d bc7e 113c 8a29 f43c
000000b0: c399 033d a247 b53c 0e29 9a3c 270c 1f3d
000000c0: 6ec5 5cbc 52a8 e43c 8a63 913c 0c5e 533c
000000d0: 9490 25bc f036 27bc 608b d43b 2533 303d
000000e0: c8b6 f5bc 7e8a c6bc 0019 2239 3473 49bc
000000f0: 6895 393c f566 e6bc 6633 e43c fbad 9cbc
0.01610731 0.012298029 0.037315402 -0.01873471 -0.006246425 0.012191992 -0.038044564 0.035233844
0.039623838 0.040372837 0.0073656365 0.03371993 -0.008221671 -0.043651015 -0.043447267 0.021855999
-0.00013966486 -0.006389793 0.01465131 0.0050253496 -0.041563366 0.042916942 0.00808835 0.00762346
-0.028517473 -0.041281458 0.035800625 -0.022065893 0.0076056942 -0.009295892 -0.017770281 0.038171206
-0.009975549 -0.038406774 -0.017952044 0.037389923 -0.04284202 -0.013345836 -0.042278524 -0.011863001
-0.01275491 0.040498275 0.0088803135 0.029804964 0.03212906 0.022128884 0.018818405 0.03882995
-0.013474805 0.027912293 0.01774766 0.0129008405 -0.010105271 -0.010205969 0.0064863414 0.043017525
-0.029994383 -0.02423596 0.00015458837 -0.012295533 0.011327125 -0.028125266 0.02785654 -0.01912593

weight f4 [64, 64, 3, 3]
00000000: 1072 023b 0078 9ab8 3a77 14bd 68f2 f73b
00000010: 501c 0abb d46f 5b3c 4cb0 1abc 4e9b 0bbd
00000020: fd8b 013d 3b84 d9bc 745d 763c 4606 d4bc
00000030: 0a61 0cbd fc2e 7abc 5218 03bd 34d7 1ebc
00000040: 204d ca3b 3639 893c 2028 fcba 085f 9e3b
00000050: 865e 0fbd 0060 c2b7 021c 11bd 4da9 113d
00000060: 34d0 1dbc 1ebc 913c 7ec4 a33c f064 7d3c
00000070: 358e 183d 5a5a af3c 081a 8d3c bccb 6dbc
00000080: 23db 02bd 8079 5e3c 1662 953c 4609 22bd
00000090: 6849 babb 92f6 a53c 904e a53c ec45 223c
000000a0: d860 a13b c8df a03c c131 293d c008 21bb
000000b0: f4e2 003c bc8d 073c dc41 133c 8033 ccbb
000000c0: 13c7 273d cc35 2dbc e058 d43a c042 8c3c
000000d0: ffb0 09bd 82da 21bd 29b9 023d 0836 a9bb
000000e0: 06fb 43bc 1ea5 ddbc d6fe f8bc a0d5 b9ba
000000f0: a052 e03a 1c18 673c 9b31 b8bc d27f c93c
00000100: 12a5 f83c 9341 19bd e0ab ceba e09f 003c
00000110: 9027 2abc c036 7bbb 4030 273b 305a 79bc
00000120: fb78 0bbd e06d cfba 0190 083d 3054 4ebb
00000130: b6fa a23c 72ee 9e3c 206c c3ba ec7f 1c3c
00000140: f09b a3bc 5c98 6fbc 3fb6 043d 8909 033d
00000150: e8e4 a0bc 701e 313b 5d2d 293d 670b 20bd
00000160: 90ab a93c 8664 fabc 55ae 083d 2b56 a0bc
00000170: d44f 03bc 6601 88bc 8a45 d03c 28d7 a4bb
00000180: bf08 13bd a8c8 20bd 8ee9 b8bc c831 dabb
00000190: dc00 4a3c e604 c63c 506f 0b3c bb4d 25bd
000001a0: c83e f8bb a04b 8d3c 40a5 043a c430 463c
000001b0: 6ed8 9a3c 80d1 ba3b 81f7 073d baf1 1cbd
000001c0: bc8f 193c 287f 82bb 4a40 eb3c 75f1 243d
000001d0: 10fd 383c defc f73c ba36 a83c d1fa 133d
000001e0: b6c9 c43c 00e1 fe3b 4e67 02bd 3897 a1bc
000001f0: 758e 213d c815 96bb 20ae d0ba 107d 20bc
00000200: 2091 46bc 1c3c 61bc 693a 263d fcf1 14bc
00000210: 51b4 123d 06d3 f1bc 40d7 5abc b40b 24bc
00000220: f890 f1bc 96aa 82bc baf9 1cbd 183b b5bb
00000230: da3f 903c c757 0b3d cc20 7d3c 76d8 afbc
00000240: c002 24bc 705d 58bc 8ca6 793c 4ecd c53c
00000250: e23b b33c e432 15bd 345b 013c 4a02 dc3c
00000260: e020 f4ba f048 743c e3c2 0dbd 4630 b83c
00000270: 9b26 0dbd 6666 8e3c 56b9 cabc 21de 103d
00000280: a05e a9ba 7955 0b3d 89bb 223d ae74 e33c
00000290: 906d 45bc b818 edbb a4c5 1b3c 6beb 99bc
000002a0: f8d7 8fbb 7079 163c 0235 a63c 7a17 f23c
000002b0: 1073 1f3c c460 693c fced 78bc c6f8 f2bc
000002c0: 4877 f9bc 202c eebc 2781 0e3d da49 ba3c
000002d0: b81b babc 00e8 9539 b22d df3c f787 27bd
000002e0: 3e51 993c 7275 f73c 26a1 69bc 93b7 f8bc
000002f0: c60e 42bc b9ce 1a3d 11e8 123d 8a25 0bbd
00000300: e078 a83c 8ebd 953c 9c43 3abc c461 3b3c
00000310: c345 acbc 7a9c 1cbd 7050 763c c075 d0bb
00000320: 6386 c7bc 501d 283c e85b f13b 403a 3fbb
00000330: cccd 59bc 1279 bd3c 3935 1d3d 1f0a 00bd
00000340: efa5 06bd c4c9 5e3c 9221 973c 961b 29bd
00000350: bc8f 08bc 986b f93b 24a7 10bc 5875 9abc
00000360: f0e0 203c cda9 103d dcf4 3ebc 820d c33c
00000370: 160a 1abd f06b 523b 455f 0b3d ab72 8dbc
00000380: 71d9 053d 0985 193d 2842 adbb cb12 0abd
00000390: 5e94 19bd 8239 cf3c 011c 053d 6b20 1f3d
000003a0: a645 c1bc 01fb 123d 76e5 bf3c 7693 eabc
000003b0: bc2e 78bc b2c5 e03c 80f1 58bc b035 6f3b
000003c0: c0e4 67ba 6712 153d eedc 15bd 7c4c 4f3c
000003d0: 9437 453c 30fa 973c 823c ec3c 1061 aa3c
000003e0: 8005 5dbb ec09 4ebc c29f ab3c ee28 05bd
000003f0: 965b a8bc 7eeb bb3c 9582 133d b6eb babc
0.0019904412 -7.365644e-05 -0.036246516 0.007566739 -0.0021074004 0.013393361 -0.0094414465 -0.034083657
0.031627644 -0.02655231 0.015036929 -0.025881898 -0.03427223 -0.015269991 -0.032005616 -0.009694863
0.006173745 0.016750913 -0.0019238032 0.004833106 -0.035002254 -2.3171306e-05 -0.0354271 0.03556185
-0.009632159 0.017789897 0.019991156 0.01546596 0.037244994 0.021405388 0.017224327 -0.014513906
-0.031947266 0.013578773 0.018235248 -0.039559625 -0.0056850202 0.020259175 0.020179063 0.009904366
0.0049248748 0.019637957 0.041307215 -0.0024571866 0.00786661 0.008273538 0.00898787 -0.006231725
0.040961336 -0.010571908 0.0016200803 0.017121673 -0.033616062 -0.039515026 0.031914864 -0.0051639117
-0.011961704 -0.027056273 -0.030394953 -0.0014178045 0.0017114468 0.014104869 -0.022484591 0.024597082
0.03035215 -0.037416052 -0.0015767775 0.007850617 -0.010385409 -0.0038332194 0.0025510937 -0.015219256
-0.034050923 -0.0015825592 0.033340458 -0.0031483285 0.019894939 0.019400809 -0.0014909543 0.009551983
-0.019971818 -0.014623728 0.032400366 0.031991515 -0.019640401 0.0027026199 0.041303027 -0.039073374
0.02071169 -0.030565511 0.03336938 -0.019572338 -0.008014638 -0.01660223 0.025423784 -0.0050305314
-0.035897013 -0.03925386 -0.022572305 -0.0066587664 0.012329306 0.024172258 0.008510426 -0.040357333
-0.0075758435 0.017247975 0.00050600246 0.012096588 0.01890203 0.005701244 0.033195022 -0.038316466
0.009372648 -0.0039824434 0.028717179 0.040269334 0.011290804 0.030271944 0.020533908 0.03612787
0.024021965 0.007778287 -0.0318368 -0.019725427 0.0394425 -0.0045802332 -0.0015921034 -0.009795442
-0.012119561 -0.013747241 0.040583048 -0.009090897 0.035816494 -0.02951957 -0.013356984 -0.010012556
-0.029488072 -0.015950482 -0.038324095 -0.005530726 0.017608572 0.034019258 0.015449714 -0.021465521
-0.010010421 -0.013205871 0.015237462 0.024145748 0.02187914 -0.036425486 0.00789528 0.02685656
-0.001862552 0.014909968 -0.034609687 0.022483956 -0.034460645 0.017382812 -0.024746578 0.03536809
-0.0012921877 0.03401706 0.03972963 0.027765598 -0.0120500475 -0.0072356127 0.00950757 -0.018789014
-0.004389759 0.009184226 0.020288948 0.02955221 0.009732023 0.014244262 -0.015193459 -0.02965964
-0.030452386 -0.029073775 0.034791138 0.022740293 -0.022718295 0.00028592348 0.027243469 -0.04090115
0.018715497 0.03020737 -0.014259612 -0.030360973 -0.011844343 0.037794802 0.035865847 -0.033971347
0.02056545 0.018278863 -0.011368658 0.011436883 -0.021029359 -0.038235165 0.015033826 -0.006361693
-0.024356073 0.010260895 0.0073656924 -0.0029179007 -0.013293695 0.02312902 0.038380835 -0.031259652
-0.03287309 0.013597909 0.018448625 -0.041286074 -0.00833505 0.007611703 -0.008828912 -0.018854782
0.009819254 0.035318185 -0.011655059 0.023810152 -0.037607275 0.0032107793 0.034026403 -0.017266592
0.03267807 0.037480388 -0.0052874275 -0.03370933 -0.03749501 0.025295977 0.03249741 0.038849276
-0.023592781 0.035883907 0.023424845 -0.028634768 -0.015147861 0.027438018 -0.013241172 0.0036500506
-0.0008846037 0.036394503 -0.036587648 0.012652513 0.012037177 0.018551916 0.028837446 0.020798236
-0.0033725202 -0.012575608 0.020950202 -0.032509737 -0.020551484 0.02293944 0.036013205 -0.022817474

bias f4 [64]
00000000: ac5f 663c e2df d13c 0d2e 133d 5733 18bd
00000010: f651 863c 006c e4b9 28ca a13c a0dc b8bb
00000020: e944 2a3d 3263 d73c 34ae 5b3c feac 0ebd
00000030: 1c33 18bd d618 f13c 5e44 b93c a045 43bc
00000040: 6791 23bd 4084 de3b fceb 3d3c e6e9 c8bc
00000050: 108d d4bc a061 c5ba e40c 1bbd 007e fabb
00000060: 54fd 613c 91eb 073d 3b7d e4bc d2b3 ab3c
00000070: ee8f 8b3c 37cf 02bd ae2a e53c d08b 033c
00000080: 960e 17bd 1910 193d 3095 60bc 1289 c83c
00000090: 688b e0bb a4f3 793c b9bd 053d 81c4 1b3d
000000a0: 80f0 1cbd 9eff 0dbd e8a4 90bc 9095 23bb
000000b0: ee9a 81bc 00ff 153b a011 823b 80aa d8bc
000000c0: c7dd 0f3d c0e1 423c 6032 9fbc 40ca 9ebb
000000d0: 31a8 0a3d 8b8b 27bd fcdd 2fbc 8822 e1bb
000000e0: 7e69 febc 2081 00bc bc39 1d3c 5642 90bc
000000f0: aca2 3dbc 8231 e33c 103d 323c ca68 e53c
0.014060896 0.025619451 0.03593259 -0.037158336 0.016396504 -0.00043568015 0.019749716 -0.005641535
0.041569624 0.026292417 0.0134082325 -0.034832947 -0.037158117 0.029430788 0.022615608 -0.011918455
-0.03993359 0.006790668 0.011591908 -0.024525594 -0.02594617 -0.0015059002 -0.03785409 -0.007644415
0.013793308 0.033183638 -0.027891746 0.020959768 0.017036404 -0.031935897 0.027974453 0.008028939
-0.036879145 0.037368868 -0.013707444 0.024479423 -0.006852556 0.015255842 0.032651637 0.038029198
-0.038315296 -0.034667604 -0.017656758 -0.0024960972 -0.015820947 0.0022887588 0.003969386 -0.026448488
0.035123613 0.011894643 -0.0194332 -0.0048458874 0.033851806 -0.040904563 -0.010734078 -0.0068705715
-0.031056162 -0.007843286 0.0095962845 -0.017609756 -0.0115744285 0.027733568 0.010878816 0.028004069

weight f4 [256, 64]
00000000: f0d1 91bd 46f6 d13d c608 c93d e085 823d
00000010: 2ed4 d7bd eaa4 91bd 189a ecbd 70bb 263d
00000020: b060 11bc 50ac 5ebd 9e7b 8c3d 26be 82bd
00000030: 7073 2abc a8a5 dd3d 20e8 0fbc 4082 dbbd
00000040: 708d b7bc 528b d63d 2618 aabd 2807 f5bd
00000050: f45b 273d 5c6e eabd d055 063c d82d 863c
00000060: 6467 48bd d851 f93d 08be eb3d 281f 8cbd
00000070: a0bc f8bb 10a6 6c3d b095 c03c 56a9 e9bd
00000080: 6089 fcbd 1421 90bd 6677 8dbd e88c ac3c
00000090: e832 e43d da6d 84bd dec6 e4bd b838 5f3d
000000a0: 60d2 f1bd d8a3 803d 6643 83bd 300b 983c
000000b0: 14d7 d43d ee73 f53d 6caa 02bd 929b 973d
000000c0: 166b f1bd 8882 f83d 6086 2c3c 4a2d f53d
000000d0: 00c8 87bd f855 d9bd d07b cbbc 1cc5 39bd
000000e0: c246 f63d c4e9 91bd 3676 eb3d a065 e9bb
000000f0: 4855 123d 12f3 c23d 4032 0bbc 4c40 7b3d
00000100: 4086 653d 1c93 393d 005e f7bb 1a13 c1bd
00000110: 1848 5f3d 9898 d03d 78c1 5c3d 50b4 68bc
00000120: 20dc 233d 0c99 f0bd fe56 acbd 4834 963d
00000130: d819 55bd d245 e3bd 008c ba3d 06fe cf3d
00000140: 026b bdbd 4005 0c3b c473 ecbd 0c05 d8bd
00000150: 3829 97bd cc6f 40bd 0094 bdba 4004 7dbc
00000160: 2a45 ad3d bc15 e5bd ac6e 983d a009 78bd
00000170: 88fb 953c e488 79bd c031 b4bb 74e7 743d
00000180: 0228 f3bd 6819 fa3c 40b5 d03d 7091 5e3c
00000190: 34d0 c73d 20fd 51bc cc8f 8dbd 96d8 94bd
000001a0: e07c 123c b696 83bd b041 1cbd 5ee2 c6bd
000001b0: 00f9 903c d08e 433d d437 b7bd a84d 89bd
000001c0: c06e a5bb 2c8f 723d bc02 03bd 02bc a7bd
000001d0: 4829 723d 908a 5fbd 5c84 f8bd f817 e5bd
000001e0: c08d e9bc 305d 533c de31 c1bd f4bf 51bd
000001f0: 74f8 61bd 727f e93d c054 4c3c d831 edbc
00000200: 0012 2bbb 7071 253d 4007 843c 28f3 9b3c
00000210: 0aa4 f23d 94dc 613d 3022 3b3d b012 d3bd
00000220: 4a23 acbd 8233 cb3d 18e3 d03d a04a 23bc
00000230: 6c04 a0bd 3c15 a7bd 5ece 86bd aaf4 943d
00000240: ae72 ddbd 001d e6bc 6628 c0bd 7666 ba3d
00000250: 28f5 a93d 4421 183d 0e3f 84bd 80c1 79bc
00000260: 16fd d13d c21b b6bd 707a ef3c 4806 a03c
00000270: 98ab c7bc e02b c8bd e4c7 afbd e8ca d63d
00000280: eecb 9cbd 86fc cbbd 3ce2 81bd 2a78 9bbd
00000290: c873 00bd 407f d2bd a4d6 9a3d aeaf ee3d
000002a0: 88dc 44bd c062 45bc 0081 58bd 8a47 9c3d
000002b0: e8a0 cbbc 680c a8bd 1c3f 67bd b6ed e93d
000002c0: bc30 393d 203e 32bc a489 943d 0026 2ebc
000002d0: 18b6 653d 08fd 863d 7253 88bd 440f 3f3d
000002e0: f4ab 313d a0ed 203c 0016 c5bc 7c0b 80bd
000002f0: 7cdf e83d 80c8 ad3a a022 5fbd 3c49 ee3d
00000300: 926d f5bd 2060 f73b 5e71 89bd f811 f83c
00000310: e83a 6b3d cca4 0c3d b036 7d3d 6c99 143d
00000320: 0a14 86bd 022e 85bd a839 40bd c031 623d
00000330: d0e1 25bc b023 6c3d b094 95bc 0e17 b73d
00000340: d43a 2dbd d8cb 67bd 3890 61bd 18af fbbd
00000350: 10be 18bc 003a f3bb a271 c33d 400e 8cbd
00000360: a094 323c 9c5d 893d e038 b3bb eeba e8bd
00000370: 7c5e 5a3d 8ea0 b93d 8874 9b3d b27b e4bd
00000380: 7691 efbd cc21 9e3d 88f8 b9bd 3cd7 543d
00000390: 9089 a93d 1897 a63d 6820 61bd e41e 3e3d
000003a0: 3a8e b0bd e839 8dbd 986b 80bd f660 92bd
000003b0: a46d df3d ead7 f83d 800b 443b e001 c1bd
000003c0: 72b6 e1bd 1893 c63c 98a6 a53d 3029 e3bd
000003d0: 0c2c 253d a060 9e3d d6a4 b83d 0c93 36bd
000003e0: d8ef b8bc ce48 ff3d 6049 b43d d247 ef3d
000003f0: d4b0 5abd 0afc f13d e813 a4bc 18ce 79bd
-0.071201205 0.10252051 0.098161265 0.06373191 -0.10538517 -0.07111533 -0.115528286 0.040706098
-0.00887315 -0.05436355 0.068595156 -0.06383924 -0.010403499 0.10822612 -0.00878337 -0.107182026
-0.02240631 0.10475792 -0.08305387 -0.119642556 0.040859178 -0.11446831 0.00819917 0.016379282
-0.048926726 0.121738136 0.11510855 -0.0684188 -0.007590845 0.057775557 0.023508877 -0.114092514
-0.1233089 -0.07037559 -0.06907539 0.021063283 0.11142522 -0.06466265 -0.111707434 0.05449745
-0.11807704 0.06281251 -0.064093396 0.018560022 0.103925854 0.119850025 -0.03190081 0.074027196
-0.11788003 0.12134272 0.010530084 0.11971529 -0.06629944 -0.106121 -0.024839312 -0.045353994
0.12025215 -0.071246654 0.11497156 -0.0071227103 0.03572586 0.09519018 -0.008495867 0.061340615
0.056036234 0.04530631 -0.0075490475 -0.094274715 0.054512113 0.10185355 0.053895444 -0.014203146
0.04000485 -0.117479414 -0.0841503 0.073341906 -0.0520266 -0.110973015 0.09108734 0.10155873
-0.09248926 0.0021365434 -0.11545518 -0.105478376 -0.07380909 -0.046981618 -0.0014463663 -0.015442908
0.084604576 -0.11185786 0.07442984 -0.060556054 0.018308416 -0.060921565 -0.0054990947 0.059791043
-0.11872865 0.030529693 0.10190821 0.01358448 0.097565085 -0.012816697 -0.06912193 -0.07267873
0.008940905 -0.0642523 -0.038148582 -0.09711145 0.017696857 0.04774362 -0.08946195 -0.06704265
-0.005048603 0.05921857 -0.03198503 -0.081901565 0.0591214 -0.054575503 -0.121346205 -0.11186212
-0.028509974 0.012900636 -0.094333395 -0.05120845 -0.055168584 0.114012614 0.012471378 -0.028954431
-0.0026103258 0.040391386 0.016116738 0.019036844 0.11847694 0.055142 0.0456869 -0.10306299
-0.08405168 0.09921934 0.10199565 -0.009966522 -0.078133434 -0.08158347 -0.0658233 0.072732285
-0.10812889 -0.02809 -0.093827054 0.09101574 0.08298713 0.0371411 -0.06457339 -0.015243888
0.102533504 -0.08892013 0.029233187 0.019534245 -0.024373814 -0.097739935 -0.08583048 0.1048792
-0.07656084 -0.099602744 -0.06341979 -0.07591279 -0.031360418 -0.10278177 0.07560471 0.11654602
-0.048061877 -0.01204747 -0.0528574 0.076308325 -0.024857 -0.08205491 -0.05645667 0.11422293
0.045212492 -0.01087907 0.07252815 -0.010629177 0.05608186 0.06591231 -0.06656541 0.046645418
0.043376878 0.009822279 -0.024058342 -0.062521905 0.11370751 0.0013258606 -0.05447638 0.11635062
-0.119837895 0.007549301 -0.06711076 0.030282006 0.057429224 0.03433685 0.061819732 0.036279127
-0.06546791 -0.06502916 -0.046929985 0.055223227 -0.010124639 0.05765122 -0.018259376 0.08939944
-0.04229243 -0.056590885 -0.05506918 -0.12289256 -0.009322658 -0.0074226856 0.09543158 -0.068386555
0.010899693 0.06707308 -0.0054694265 -0.11363779 0.053312764 0.090638265 0.07590586 -0.111564055
-0.11697666 0.0772129 -0.09080607 0.051963076 0.08278191 0.081342876 -0.054962546 0.04641618
-0.086208776 -0.0689581 -0.06270522 -0.071474 0.10909584 0.12150557 0.002991408 -0.09424186
-0.11021127 0.024240062 0.08088416 -0.1109184 0.04032521 0.077332735 0.09015815 -0.04457383
-0.022575304 0.12465058 0.08803058 0.116836205 -0.053391293 0.11815651 -0.020029023 -0.060987562

bias f4 [256]
00000000: 002f de3c 7805 1abd 645e e63d 6492 d2bd
00000010: 206b de3b b81d d43c d085 ab3d d4fc 4ebd
00000020: e47b 1e3d 787f 4abd f083 9ebd b845 f7bd
00000030: d4e4 713d 003f 74bc 5062 4fbd 6e24 853d
00000040: b801 5c3d 2045 77bc b6e5 8cbd d6d4 ecbd
00000050: 7052 6dbc b8b7 49bd 5c23 44bd 04f7 d13d
00000060: 0246 9b3d 4083 423b 302b 3e3c 2023 2a3d
00000070: 824c a0bd 745a 40bd c0f0 e83c a0c1 34bc
00000080: fa3b 863d 402d ce3b 3a5e cbbd 1446 f1bd
00000090: 606e 55bc 3259 f4bd a608 ecbd 7ea2 bd3d
000000a0: 903e aabd 9ad5 ccbd 4074 8ebb 309e 2f3d
000000b0: 044a 7abd 9ab9 943d 963f bf3d 28cf 38bd
000000c0: 0457 693d 2096 823c 4269 83bd 5c69 c0bd
000000d0: 326a fe3d 64d8 cabd a02d f5bb 20f4 1abc
000000e0: a0a6 02bc e864 6fbd 286a 94bc ce3a b8bd
000000f0: c091 d53c 8865 8ebd c098 783c c62c b03d
00000100: e887 7fbd aef8 b93d 862b 8e3d 1c45 3f3d
00000110: e0bd 583d 26e3 83bd f810 cabd e03f 0bbc
00000120: 8243 dabd 9aba b2bd 344e 90bd feeb 8abd
00000130: 8033 17bc 389e 3c3d dad7 c8bd 388a ce3d
00000140: 70d6 723c d633 f6bd 7066 debc 707e b1bc
00000150: 3cd4 a13d 5a93 81bd 9077 f63d f8b0 f3bc
00000160: 5876 bb3d 48da 003d 60cf 1ebc 74fb f2bd
00000170: 0879 f5bc 78a1 34bd b406 803d c2c8 9f3d
00000180: 76d2 f4bd b001 64bd dce1 53bd 78d9 73bd
00000190: 4018 5f3c b645 e2bd a03c 91bd c017 dc3d
000001a0: 88c1 e23c 585c 573d 1025 923d 788b b43c
000001b0: 2c18 333d b619 913d dcdd a1bd c0e9 573b
000001c0: 20ba dbbd 00f5 73ba 0098 faba 3e55 e63d
000001d0: 001c 8f3a 94fc 67bd e8a2 bdbc 560f 923d
000001e0: dc0b 983d a043 b03c e06c d63c 9073 4b3c
000001f0: 5e36 993d 603c 8f3b d873 25bd 34d0 3bbd
00000200: b826 023d a07f bc3b ec99 3b3d b49e 97bd
00000210: 88e3 703d b0e8 78bd 94ba 79bd b027 c43c
00000220: 2c58 133d a4af 603d e0ae b33b 6c71 10bd
00000230: 2c92 5bbd c855 17bd 8022 013c 8c25 9f3d
00000240: 24d4 023d d8fb e7bd 96b4 bbbd 708d 87bc
00000250: 90e8 e63d 9e02 e8bd c234 8f3d 68d0 38bd
00000260: 4ca3 67bd 2ea2 e3bd 0ab1 82bd 04b9 74bd
00000270: 4850 bc3d c823 f73c 4ec2 cf3d 1c15 053d
00000280: 5e81 8bbd c0b0 8b3b c0e0 cd3b b4bc 3f3d
00000290: b0d2 513d 20f1 9ebb fcf0 273d 96af e9bd
000002a0: 281b c0bd 4081 363b 9ce0 f7bd f0f3 1a3c
000002b0: 0415 5a3d 1c7c 843d 5aee 9bbd 12d3 a33d
000002c0: 0050 aa3b a40d 553d 5c89 023d 58d0 ea3d
000002d0: 2a42 febd b879 3bbd 6866 24bd 00dd 1f3b
000002e0: a451 6e3d 84e3 383d 8a4b a4bd 3085 30bc
000002f0: 50ff a9bd 54a9 c03d 4499 183d c45a 69bd
00000300: 68c0 4bbd 70da 6c3c a8a2 a33d 90c3 cd3c
00000310: c6a6 c63d 9a86 c33d 6401 933d 2c08 acbd
00000320: b828 423d 207b c73c 202d fa3b a259 d1bd
00000330: 2810 93bd 80f1 f23d a8a5 18bd e0fb 5b3d
00000340: 285f ac3c f08f 053c 6c43 b53d e005 9ebb
00000350: 3007 863d 14e6 603d 90da 80bd 5c91 b53d
00000360: d0ee d03c d005 eabc f484 0c3d fcf9 7ebd
00000370: bedf b7bd 182e f6bc e027 0fbd d87f 423d
00000380: 3645 883d 1829 de3c 0cd3 a0bd 7423 613d
00000390: 5c52 33bd 6e77 c53d b8bc b6bc 0c84 2d3d
000003a0: 98d6 123d 60b9 933d ac5d afbd 204e cabd
000003b0: 4637 f3bd c2eb 8a3d 389f 34bd 4055 6ebb
000003c0: 888d d23d 2893 e23d b8ea 9bbc d070 ef3c
000003d0: 845d 75bd 48a4 61bd e4ef da3d 24c7 4bbd
000003e0: 26e1 893d 6028 adbd 40d7 613b 16d5 c13d
000003f0: b41e dc3d 0cb7 fd3d 7e09 f1bd e0f0 3cbc
0.02712202 -0.03760287 0.11248472 -0.10281828 0.0067876726 0.025893077 0.08375132 -0.050534084
0.03869237 -0.04943797 -0.07740009 -0.12073845 0.059056118 -0.0149075985 -0.050630867 0.06501089
0.053712577 -0.015092164 -0.068797514 -0.11564033 -0.014484987 -0.049247473 -0.047885284 0.102521926
0.07581712 0.0029680282 0.011606976 0.041537404 -0.07827093 -0.046961263 0.028435111 -0.011032492
0.06554408 0.0062920153 -0.09930082 -0.117809445 -0.013026804 -0.11931075 -0.11525087 0.092595086
-0.08312714 -0.10001679 -0.004347354 0.04287547 -0.061105743 0.07261963 0.093383 -0.045119435
0.05696775 0.015940726 -0.06416561 -0.09395096 0.12422599 -0.099045545 -0.0074822456 -0.009457618
-0.007974297 -0.05844584 -0.018117025 -0.08995591 0.026070476 -0.06952959 0.015173137 0.0860229
-0.06238547 0.09080635 0.06941895 0.046696767 0.052915454 -0.064398095 -0.09866518 -0.008499116
-0.10657407 -0.08726998 -0.07046166 -0.06783293 -0.009228587 0.046049327 -0.098067954 0.10084957
0.014821634 -0.12021606 -0.027148455 -0.021666735 0.079018086 -0.06326933 0.120345235 -0.029747471
0.09153432 0.03145817 -0.009692997 -0.11864367 -0.029964939 -0.0440993 0.062512785 0.078019634
-0.11954205 -0.05566567 -0.05172907 -0.059533566 0.0136166215 -0.110484526 -0.070916414 0.107467175
0.027680174 0.0525783 0.07135975 0.02203916 0.043724224 0.07084982 -0.079036444 0.0032945722
-0.1072886 -0.0009306222 -0.0019118786 0.112467274 0.0010918379 -0.05663736 -0.023148969 0.07131831
0.07424137 0.021516621 0.026174963 0.012417689 0.07481073 0.004371211 -0.04039368 -0.045852855
0.031775206 0.005752519 0.04580109 -0.07403317 0.05881074 -0.060768783 -0.06096895 0.023944706
0.03597276 0.054855004 0.005483493 -0.035264418 -0.053606197 -0.03694704 0.007881761 0.077708334
0.031940594 -0.11327332 -0.091653034 -0.016546935 0.112748265 -0.11328624 0.06992485 -0.045120627
-0.056552216 -0.11114918 -0.06381424 -0.059746757 0.09195 0.030168429 0.101444826 0.032490835
-0.06811784 0.0042630136 0.006282896 0.04681082 0.051226318 -0.0048505217 0.041001305 -0.114104435
-0.0938018 0.0027848035 -0.12103388 0.009457573 0.0532427 0.064689845 -0.07613821 0.07999243
0.005197525 0.05201496 0.031869277 0.1146552 -0.124149635 -0.045770377 -0.040136725 0.00243932
0.058183327 0.04513885 -0.080222204 -0.010773942 -0.0830065 0.09407297 0.03725554 -0.056971326
-0.04974404 0.014456376 0.079900086 0.025117666 0.09699778 0.095471576 0.071779996 -0.08399996
0.047402114 0.024350703 0.007634774 -0.10222174 -0.07180816 0.11862469 -0.037267357 0.053707004
0.021041468 0.008151993 0.0885075 -0.0048224777 0.0654434 0.05490692 -0.062916875 0.08865616
0.0255045 -0.028567225 0.03430648 -0.062250122 -0.08978222 -0.030051276 -0.034950137 0.047485203
0.06653826 0.027119204 -0.07852754 0.05496545 -0.043779716 0.0964192 -0.022306785 0.042362258
0.035849184 0.07213092 -0.08562788 -0.098781824 -0.11875777 0.067832485 -0.044097155 -0.003636673
0.10280901 0.11063224 -0.019032821 0.029228598 -0.059903637 -0.05508831 0.10690287 -0.049750462
0.06732397 -0.084549665 0.0034460574 0.09464471 0.10748044 0.12388429 -0.117693886 -0.011532038
