cnn_models/cnn_model_ver5.pth (torch, 383636 bytes, 8 tensors)

weight f4 [32, 4, 8, 8]
00000000: 6068 bebb f6fd 39bd d88d 07bd a065 05bb
00000010: 3ccb 30bd f0a5 9dbb 9274 043d 560c 193d
00000020: a459 443d 88d9 733c 4410 663d 261b 743d
00000030: c692 063d 0aac 513d 0431 c93c 30e2 9b3b
00000040: 865b 633d c069 353b e079 313d 14f5 d8bc
00000050: 98f4 1c3d b4d2 f33c a6bb 653d a448 c33c
00000060: 3463 ec3c 100b 0abc d016 ed3b d444 75bd
00000070: 18cc 5cbc 20b6 2cbc 6037 ee3b 4ea0 6abd
00000080: 7c0b d43c 082c f0bc e86a d5bc 10a8 8a3c
00000090: 58a2 61bd fc3e fb3c 66d7 08bd 1656 673d
000000a0: 983d 76bc eca3 8b3c 1afc 423d 58a2 d7bc
000000b0: 0828 5c3d acae e93c a027 d23b b2a8 46bd
000000c0: 5a09 03bd a4ee 80bc 900f 703c 0040 ffb6
000000d0: 6c8f 443d be72 293d d0ba 0cbc a66d 583d
000000e0: a8bc 06bd f847 a83c e84c f23c bad8 61bd
000000f0: 68a4 823c f06b 4cbc f2a1 673d 1448 2e3d
00000100: 10bb cc3c 32ff 37bd b68d 28bd 48c8 72bd
00000110: 5a69 723d 088f ad3c 1858 8f3c b812 ea3c
00000120: 108b 0bbd d852 013c d80c 05bc e08c bd3c
00000130: 3665 383d 6cbc 65bd 1833 3bbc 80c2 113c
00000140: f4eb f6bc b8ba d8bc 981a 453d 20c8 f93b
00000150: 30cc eb3b 7040 29bd 14cd 403d b05d 87bb
00000160: b0fe fc3b 5ca3 febc e03b 1bbc bc65 123d
00000170: b23b 30bd c4c6 173d 5cbf fe3c e080 913c
00000180: fc2f 323d 7445 b1bc 46c9 643d 4069 c53b
00000190: 5cfb dd3c 4c94 de3c 5225 29bd f265 7a3d
000001a0: 90e2 5d3c 48ab a23c 58ff 293d c897 cfbc
000001b0: 3043 e2bc 48db a33c e06b c0bb 9818 243c
000001c0: c01b c43b 0e1d 6a3d 4661 1e3d e26b 2b3d
000001d0: a8d8 1cbd 24a1 0b3d 540e fc3c e4dd 16bd
000001e0: e0f3 31bb b692 493d f86d 51bc fc98 6e3d
000001f0: 8011 a63c 96fb 5c3d 10c6 b13c 3089 c8bc
00000200: 0855 e13c 20fb b33b a0e2 85bc 04b0 b83c
00000210: e6b5 54bd f43e 463d e2b6 09bd a2d2 57bd
00000220: 0e5c 073d 7286 43bd 3c3d 083d 68e8 95bc
00000230: d68c 1ebd 3812 f1bc 5e38 6ebd e8ae e7bc
00000240: e0e5 e1bb a62f 5c3d e4de b93c a859 59bd
00000250: 909c 46bd 00ba 903a c816 c23c bcc9 8e3c
00000260: 3c2e 66bd 8cdb 3ebd bade 073d 1c37 6a3d
00000270: a49e e53c dcfb 263d a8ec eebc f065 7b3c
00000280: 207f b6bb 2081 623c 6c5b d33c 564e 483d
00000290: eead 273d 8229 193d a062 c43c 7cfc ce3c
000002a0: d0d9 89bc 3c6e a3bc 8039 8d3b e0f9 863c
000002b0: 74c0 91bc 30ae 57bd c01d 4fbc ce9b 1a3d
000002c0: 6083 563b e0e9 7f3d b874 e43c 90d2 53bc
000002d0: d6d7 05bd 5c71 e03c c2b3 3b3d 3816 53bc
000002e0: da29 5abd 94c5 71bd c4ac 0a3d 4072 5e3b
000002f0: 24a9 fcbc 3013 ba3b 2e0d 4a3d 48d6 903c
00000300: 0cb6 ba3c 0056 baba d0ef 2cbd 1a4c 053d
00000310: 08e6 453c fc63 003d 38b1 af3c 22d4 55bd
00000320: 58f7 083d ce5e 1bbd d867 d8bc fc5c f73c
00000330: c035 caba 9e92 68bd 0863 45bc bc5a 16bd
00000340: c801 30bd 6c4e 293d 6cdb bd3c f0da 9e3c
00000350: 6427 09bd f419 453d 8e6e 07bd 3cd4 d93c
00000360: 1605 77bd 30e3 04bd dc67 d93c 40e0 3f3c
00000370: 405d 19bd e47d 10bd 0078 7939 7ccc 173d
00000380: 9c56 e4bc c279 633d 88cb 64bc 407b 643c
00000390: fccc 113d 3a0a 5a3d 027a 263d 28d2 a4bc
000003a0: a031 c43c d49a 783d ca34 3cbd 1026 27bd
000003b0: 5e0d 01bd 5832 4bbd 10d0 69bd 00a4 3a3d
000003c0: 08b1 48bd 40f1 1b3b 889a 35bd a8be 68bd
000003d0: 488d 45bd 60f4 c43b ac05 843c c0c1 fd3a
000003e0: e0f8 aabc b0b8 1ebc f4c0 d7bc f68a 1fbd
000003f0: 98dd 243d e00f 673d 18a7 cfbc 8641 663d
-0.0058107823 -0.04540821 -0.033094257 -0.0020354763 -0.04316257 -0.004811041 0.032337733 0.03736528
0.04793705 0.014883406 0.056167856 0.059596203 0.032854818 0.05118946 0.024559505 0.0047571883
0.055507205 0.002768144 0.04332912 -0.02648405 0.0383192 0.029763557 0.05608716 0.023838349
0.028855897 -0.008425489 0.0072353855 -0.059880093 -0.013476394 -0.010541469 0.007269785 -0.057281785
0.025884382 -0.02931787 -0.026051953 0.016925842 -0.055086464 0.030669682 -0.033408545 0.056478582
-0.0150293335 0.017045937 0.047603704 -0.026322529 0.053749114 0.028525673 0.006413415 -0.048500724
-0.03199134 -0.015738793 0.014652148 -7.607043e-06 0.04798834 0.041369192 -0.008589461 0.052838944
-0.03289476 0.02054213 0.029577687 -0.055138327 0.015947536 -0.012476906 0.056550927 0.042549208
0.024991542 -0.044921108 -0.04115077 -0.059273034 0.059182502 0.021186367 0.017498061 0.028573379
-0.034068167 0.007893287 -0.008120738 0.023138463 0.045018397 -0.056087896 -0.011425756 0.00889647
-0.030141808 -0.026456222 0.048121065 0.0076227337 0.007195972 -0.041321218 0.047070578 -0.0041310415
0.007720791 -0.031083755 -0.0094747245 0.035741553 -0.04302568 0.037054792 0.031097107 0.017761648
0.043502793 -0.021639563 0.05585601 0.0060245097 0.027097397 0.027170323 -0.041295357 0.06113238
0.013542786 0.019857064 0.04150328 -0.02534093 -0.027619928 0.020002022 -0.0058722347 0.010015629
0.0059847534 0.057156615 0.038666986 0.041850932 -0.038292557 0.034089223 0.030768551 -0.036832705
-0.0027153417 0.04921218 -0.012782566 0.058251366 0.020272017 0.05395087 0.021700889 -0.024479479
0.027506366 0.005492583 -0.016343415 0.022544868 -0.051931284 0.04839988 -0.033621676 -0.05269111
0.033046775 -0.04773564 0.033261523 -0.018299296 -0.03870853 -0.029427633 -0.058159225 -0.028281644
-0.0068938583 0.05375638 0.02268929 -0.05306402 -0.048489153 0.001104176 0.023692504 0.017430179
-0.056196436 -0.046596095 0.033171393 0.057181463 0.028029747 0.040767536 -0.02916558 0.015344128
-0.0055693537 0.013824731 0.02580043 0.048902832 0.040937357 0.0373931 0.02397281 0.025266878
-0.016827494 -0.019950025 0.004309833 0.016476572 -0.017791964 -0.052656353 -0.01264137 0.037746243
0.0032732114 0.0624789 0.027887687 -0.01292862 -0.03267654 0.027397804 0.045825727 -0.012883715
-0.05326257 -0.059026316 0.03385617 0.003394261 -0.030842371 0.005678557 0.049328975 0.017680302
0.022791885 -0.0014216304 -0.04222089 0.03254328 0.0120787695 0.031345353 0.02144681 -0.05220426
0.03343901 -0.03793221 -0.026416704 0.030195706 -0.0015427396 -0.05678045 -0.012047537 -0.036707625
-0.04297045 0.041334555 0.023175918 0.019391507 -0.03348483 0.048120454 -0.033064418 0.026590459
-0.060307585 -0.032443225 0.026538782 0.01171118 -0.037442446 -0.03527631 0.00023791194 0.037060246
-0.02787333 0.05553604 -0.013964541 0.013945401 0.03559588 0.05323241 0.0406437 -0.020119742
0.023949444 0.06069453 -0.04594878 -0.040807784 -0.03150689 -0.04960856 -0.05708319 0.04556656
-0.048996955 0.002379492 -0.044336826 -0.05682245 -0.04823044 0.006010577 0.016115986 0.001936011
-0.020870626 -0.009687588 -0.026337124 -0.038950883 0.04025039 0.056411624 -0.025348231 0.05621483

bias f4 [32]
00000000: fc3b 173d c826 143d 20ae bdbb 5839 12bc
00000010: f0a8 8cbb b8f2 0dbd 6098 db3b 809a 063c
00000020: e080 47bd feae 4fbd 462f 433d 9015 a5bb
00000030: 4014 32bd 8e2d 54bd 0cc7 923c 7874 40bc
00000040: e055 173d 603e a63c ee65 733d 5eb9 6f3d
00000050: 2047 9f3b ecb2 863c 68b1 643c 8cc9 7a3d
00000060: 5c05 5bbd 72be 29bd 000a b3b9 803e 6a3d
00000070: 185e 7dbc 1630 60bd 845d 8dbc 5c71 8bbc
0.03692244 0.036169797 -0.0057885796 -0.008924805 -0.0042926 -0.034655303 0.006701514 0.008215547
-0.04870689 -0.050703995 0.047652505 -0.005037971 -0.043476343 -0.051801257 0.017917179 -0.011746518
0.03694713 0.020293415 0.05942338 0.05852639 0.0048607737 0.016442738 0.013958313 0.061227366
-0.053471908 -0.04144139 -0.0003414899 0.05718851 -0.015464328 -0.05473336 -0.017256506 -0.017021827

weight f4 [64, 32, 4, 4]
00000000: 90a9 37bc 5d8c 45bc 39ce 00bd 531e 17bd
00000010: cbee e7bc 997b 043d 45ec 06bd 8549 823c
00000020: a77c 6bbc da9c 233d c48b bdbc 2cd2 553c
00000030: f440 483c 2c12 f73a d368 2abd 7068 833c
00000040: 7c29 ff3c 4b09 04bb ac14 bd3c af01 a13c
00000050: 41d2 bb3c 96a9 99bb fae2 233d d0e2 44bc
00000060: 1cce fd3c 64e0 e0bc 6a71 e53b 8cfd eb3c
00000070: 34ae bf3a 7b49 31bd 7052 b23c c1a3 2d3d
00000080: 22dd 663b f241 403c a782 2f3d 862c 1e3d
00000090: 9d82 9c3a 99cc 97bc 4813 3bbc c75a 5a3c
000000a0: 84f4 a4bc b7b2 04bc b575 c2bc 97b1 ba3c
000000b0: 22dc 52bc eae4 f83c cebb 563b f7f1 1b3c
000000c0: fc50 1d3d 840c 1f3d b7b9 a6bc a015 07bd
000000d0: dc98 133d 4406 ac3c 33c1 0abc 6d53 20bd
000000e0: 5f6c 813b cb4e cdbc 35c6 ff3c 8c96 33bd
000000f0: d9dc 593c f7af d1bb b9b6 973a dd99 b93b
00000100: 5e91 3fbc 8283 05bc 9a85 033d 3ec4 db3a
00000110: 7a14 88bc a067 80bb 177d 15bd 75c9 dfbc
00000120: 46fd d53c a370 ee3b 8dce a23c 5e85 9ebc
00000130: 2d4f 053d b4c4 10bc c0f9 163b fdc0 f1bb
00000140: 7529 02bc 00f4 0a3d ada2 5b3c 1d68 803c
00000150: 5652 ed3c 465d 12bd 6f5e 7ebb 1ca0 d83c
00000160: 1aeb 87bc bb55 103d eca0 d9bc 5576 16bd
00000170: d008 debc 5794 da3c 2d9d 33bd ce23 af3c
00000180: 870c 7d3a 0fdd 893c 3e34 10bd 9ef2 b0bc
00000190: 5374 1ebd 8e47 a5bc c731 ae3c 2bcc 953c
000001a0: 41c8 33bc d23d 17bd 3e4d 193c f3e7 cb3c
000001b0: 6d9d 1e3d 9db6 d63c 8d59 d0bb 4d4d f3bc
000001c0: 950b 1cbd 89b9 01bb a5f1 3b3c 58cc a83c
000001d0: f193 a83c ea9f eabc f3b2 05bc f3b1 eb3b
000001e0: 8739 b5bc bc3f 2abd 16ea f6bb 764d 323d
000001f0: a4b9 bf3c 39ec c9bc bc76 273d 7dd8 8abb
00000200: a3b5 063d 582e a33c 0603 6cbc 6de9 b2bb
00000210: e706 e23b 7056 07bd 5a3f 6c3c 1a7d 32bd
00000220: 967b b1bc 21fb f5bb 398c 71bb 09f7 8d3c
00000230: 9476 d8bc 7acb 273c e7e6 10bd 1d24 2d3d
00000240: 27ac 8a3c 95cb a4bb 8e3f c53a 694a 2bbd
00000250: 4c3e 20bd 4e81 713c be98 123d 496a a23c
00000260: 849f 13bd 7bb2 6bba e1ce 4d3c 9fb0 5f3c
00000270: aa67 96bc e5a7 a0bb 9099 8dbb 6fcb 87bc
00000280: 3d5b 113d 166a 57bc 0e41 103d 9d02 3c3c
00000290: 6415 ca3b 7a6e 043d e48c 073c 646a 9bbc
000002a0: ace2 133b 749b 203d a020 f2bb 2297 87bc
000002b0: 152e 1abc 1a79 f2bc 8c6b 74bc 639f f6bc
000002c0: a784 52bc 2780 b9bc e811 85bc 2262 b1bb
000002d0: 4130 133d 8afd 04bd 74fd 0fbd cec2 1a3d
000002e0: 2dae 40bb 1204 c33c ecfe d9bc c4fd 933b
000002f0: e0b4 eebb 6bdc 5b3c 5b68 76bc 98bc 29bc
00000300: 415b 34bd 5c28 483c 48dd 393c b6e4 6f3c
00000310: 6ff5 113d 5cd2 24bd cb4d a63c f633 ca3c
00000320: 3886 67bc 408b ed3c 510b fe3c 5eea a33a
00000330: ccb5 5a3c 984d c4bc 4fa9 0a3d 539e 33bd
00000340: 7feb 55bc f87d cd3c 42a6 573c 419a bc3c
00000350: 2d5c 013c 2a64 a03c f1ec a53c aa78 2fbd
00000360: 03fe 0fbd cf11 0ebd 27d0 33bd 9b04 873c
00000370: 1a60 00bd 4419 85bb 2250 01bc a455 363c
00000380: 6480 27bd 434f 353c 6535 1e3d b517 033d
00000390: b322 fbbc 5efc 163d 3306 25bd e465 84bc
000003a0: c2b3 7dba 8c26 1e3c d874 1f3d ef9e 333d
000003b0: d3b4 f3bc 346d cabb d402 f4bb 0d1e 5f3c
000003c0: bdf8 303d cf33 c1bc 155b a039 9dd3 0c3d
000003d0: e3a5 823c 9b9b e8bc f00b a13c 3391 f0bc
000003e0: bfe2 443b 1602 ffbc fd5c efbc 8d85 e43c
000003f0: 8d91 db3c 5a04 ecbc 7b91 0e3d db0a 25bd
-0.01120986 -0.012057391 -0.03144667 -0.036894154 -0.028312108 0.032344434 -0.032940168 0.015904197
-0.014372981 0.039944507 -0.023137935 0.013050597 0.012222517 0.001885002 -0.041603874 0.01604101
0.031147711 -0.002014714 0.023081146 0.019654123 0.022927405 -0.0046894057 0.040011384 -0.012016967
0.03098207 -0.027450748 0.0070020454 0.028807424 0.001462406 -0.043282967 0.021767825 0.042392496
0.003522702 0.011734473 0.04284921 0.03861668 0.0011940781 -0.018530177 -0.011418171 0.013327307
-0.020136125 -0.00809925 -0.023737768 0.02278976 -0.012869867 0.030382592 0.003276575 0.009518138
0.03840731 0.038830295 -0.020352228 -0.032979608 0.03603445 0.020999081 -0.008468914 -0.03914206
0.0039496864 -0.025061985 0.031222442 -0.043844745 0.013297283 -0.0063991505 0.0011574841 0.005664094
-0.011692373 -0.00814903 0.032109834 0.0016766859 -0.016611326 -0.003918603 -0.036496248 -0.027317742
0.026121747 0.007276611 0.019873882 -0.019350704 0.03254621 -0.00883596 0.0023037046 -0.0073777423
-0.007944454 0.033924103 0.013405484 0.015674645 0.028969925 -0.035733484 -0.003881361 0.026443534
-0.016591597 0.03523801 -0.026565991 -0.036733944 -0.027103812 0.026682062 -0.043851066 0.021379378
0.0009653051 0.016829042 -0.035206072 -0.021600064 -0.038685154 -0.020175721 0.02126397 0.018285831
-0.010973037 -0.03692419 0.009356795 0.024890875 0.03872435 0.026210124 -0.0063583315 -0.029699946
-0.038096983 -0.0019794425 0.011471187 0.020605251 0.020578356 -0.028640706 -0.008160341 0.007192844
-0.022122158 -0.041564688 -0.0075352294 0.043530904 0.02340395 -0.024648773 0.04088472 -0.004237233
0.032888066 0.01991956 -0.014405018 -0.0054599554 0.0068977955 -0.033041418 0.014419401 -0.043576337
-0.021665376 -0.0075067435 -0.003685726 0.01732971 -0.02642373 0.010241384 -0.035376456 0.04227077
0.016927792 -0.0050291517 0.0015048848 -0.04181901 -0.03912191 0.014740301 0.035790198 0.019826071
-0.036040798 -0.0008991134 0.012561531 0.01365295 -0.018359978 -0.004902827 -0.0043212846 -0.016576497
0.035487402 -0.013147851 0.03521829 0.011475232 0.0061671007 0.03233192 0.008273337 -0.01897163
0.0022565527 0.03921075 -0.007389143 -0.016551558 -0.009410401 -0.029598761 -0.014918219 -0.030105298
-0.01284901 -0.022644116 -0.01624389 -0.0054133097 0.03593469 -0.032468356 -0.03515382 0.037783436
-0.0029400692 0.023805652 -0.026610814 0.004516335 -0.0072847456 0.013419251 -0.015039529 -0.010359906
-0.04403234 0.012216654 0.0113442615 0.014641931 0.035634454 -0.040239677 0.020300766 0.02468298
-0.014131121 0.028997064 0.031011255 0.001250576 0.013349008 -0.02396278 0.03385287 -0.04385216
-0.013056635 0.02508448 0.013162198 0.023022773 0.007895512 0.019579012 0.020254584 -0.042839684
-0.035154354 -0.034684952 -0.04389968 0.016481688 -0.03134165 -0.00406185 -0.00789264 0.011128817
-0.040893927 0.011066261 0.03862514 0.03200503 -0.030656194 0.03686177 -0.040289115 -0.016161866
-0.000967797 0.009652745 0.03892979 0.043852743 -0.02974931 -0.006177569 -0.007446626 0.0136180045
0.043205965 -0.023584275 0.0003058544 0.034381498 0.015948242 -0.028394511 0.019659013 -0.029366111
0.0030042378 -0.031128924 -0.029219145 0.027895713 0.026802802 -0.028810669 0.03480671 -0.040293556

bias f4 [64]
00000000: a820 53bc 9334 20bd 2267 1ebd 5c77 23bd
00000010: 4aa0 ba3b 7e9a 1ebd 30de ae3c 0d29 213d
00000020: f85f 02bd a17e 2abd 4246 9c3c d021 20bd
00000030: 6c09 bcbc 77d2 61bc e8f0 e73b 796a d5bc
00000040: 5594 323d 5422 8d3a 069e f33b 4899 d83b
00000050: fbfa 863c b82b f6bc 82cf 10bd 3e73 3c3c
00000060: 6c4c 263a 0103 8bbc 4490 213d a377 c5bc
00000070: 67d2 efbc fef4 ebbb bddf 32bd 83cd 9a3c
00000080: 5681 cebb a4af 023d d81b 013d c79d 97bc
00000090: 695d 333d 47ef a6bc 9162 1dbd 1df5 19bd
000000a0: dccd 2e3d b7d2 073c 1b94 33bb 7d53 f93c
000000b0: c1f8 273d 3fc8 ebbc 58be 23bd ccc3 88bc
000000c0: 58c0 30bd b194 e7bc eb52 8dbc e7aa 043d
000000d0: 7b21 debb 2efc 51bc a373 e33b 18fb 0bbd
000000e0: 6ad6 a7bb 834c 65bc c7cd 553c 0bec bb3c
000000f0: 0d6d b93c 7c6c db3c f076 333d 5d68 03bd
-0.012886204 -0.03911264 -0.038672574 -0.03990875 0.0056953775 -0.038721554 0.021346182 0.03934579
-0.031829804 -0.04162467 0.01907647 -0.039094746 -0.022953711 -0.013783089 0.007078279 -0.026051747
0.04359849 0.0010767677 0.0074346093 0.0066100694 0.016477099 -0.030050144 -0.035354145 0.011502085
0.0006343785 -0.016969206 0.039444223 -0.024104899 -0.029275132 -0.007200836 -0.043670405 0.018896824
-0.006302039 0.031905785 0.031520694 -0.018507851 0.043790255 -0.020377768 -0.03842408 -0.037587274
0.04267679 0.008289984 -0.002740151 0.030435318 0.041008715 -0.028782008 -0.039976448 -0.016694926
-0.043152183 -0.028269144 -0.017251452 0.032389548 -0.0067788935 -0.012816472 0.006941275 -0.03417501
-0.0051219957 -0.013995293 0.013049549 0.022939702 0.022635007 0.026785128 0.0438146 -0.03208195

weight f4 [64, 64, 3, 3]
00000000: cb71 b5bb d063 463c 474c 06bd 7662 b5bc
00000010: c30a 02bd 464a 20bd d66f 133b b76b 0dbd
00000020: 8f99 19bd 6625 973c 9311 a7bc b66c debb
00000030: 26d7 f6bc 82d2 18bd 96dd e0bb b699 023d
00000040: d350 153d ab9f 5cba b6a5 9a3b e6d1 973c
00000050: 9ed3 a3bc ca0d 2abd e0b0 0a3c 4c31 06bd
00000060: 1bc2 ed3c e350 11bd f747 1fbd 0b9a c0bc
00000070: 67a0 17bd cb94 0b3d d689 d73c 865a eabc
00000080: 5692 b5ba 4a41 0cbd 6650 d7bc 7aad 1e3d
00000090: 5693 123a c6f1 c43c 76cb 23bc df52 21bd
000000a0: 7b92 f63c 6b4c 2dbc 502c 66bc aa56 0d3d
000000b0: 6043 e4bb b354 02bd 6fe5 0b3d 8b7e 8f3b
000000c0: f643 c83b 16cf 023d d690 20bc 4aff 0ebd
000000d0: 4bec 95bc d8db 113d 80cc e9bc c80f 963c
000000e0: 735d 01bd 8a91 0d3d f80e 23bd b3b5 063d
000000f0: 18d3 0bbd 524d 1c3d db5d a6bc ab0f e73b
00000100: 566d a3bb 7b36 da3c 0b19 c93c fe2a edbc
00000110: 8bf3 113c 4b41 c1bb 2b77 263d abb4 f8bc
00000120: e85e 043d 8630 9fbc 6be3 fdbb d6d4 bcbc
00000130: b0b2 c2bc 980c ea3c 8bb7 223c e61f 44bc
00000140: f642 58bc 1797 0b3d 7aac 0a3d 7b2b 183c
00000150: 4bee 67bc 03cd be3c 9690 7dbc fe67 21bd
00000160: c62a f7bc 56ad dcb8 5b83 0abd cfed 28bd
00000170: 3626 1ebc 50d0 d9bc f028 c63c 8043 81ba
00000180: c3fc 023d 4b43 cfbc 8bc8 193c 46cb 4e3c
00000190: 2a1a 293d 0bde 123d 4aca 093d 3338 cebc
000001a0: 20d4 853b e3d1 03bd 6bab 8bbb 0b6e 56bc
000001b0: f313 91bc b898 0d3d 10e9 ea3c c076 643c
000001c0: 4881 8abc 96b4 523c d881 8abc 2b6d 17bc
000001d0: 9be1 88bc fb30 f13c 76ea e03b 4b89 e7bc
000001e0: 766e 0cbd 2bd4 aa3c 4026 153c e435 253d
000001f0: d699 03bd b60b f8bc 408d 57bc 7665 fe3c
00000200: 8e06 963c f632 3f3c 5c70 18bd a823 bdbc
00000210: 4045 d2bc b6c8 993c 60fa ba3c 9b16 92bc
00000220: d6d4 f0bb a0b6 b93c 6e41 053d f80d 983c
00000230: f857 d4bc 36e0 dd3b 7394 fb3c f897 c83c
00000240: abd5 1bbd 28fa d13c 181f f13c 2716 22bd
00000250: 8b1c f8bc 0094 6c3c d6c2 bc3c febf f93c
00000260: ab75 3ebb 7e61 f0bc 3c2e 163d fb6c 10bd
00000270: ae37 dcbc 3282 22bd 363b 8dbc abb3 c4bc
00000280: 7bc2 06bc 3289 08bd e800 8b3c 8307 9ebc
00000290: be23 a03c 968a a23b 4049 17bd 28b0 debc
000002a0: 802a c93a e380 bfbc f748 1fbd af60 223d
000002b0: 2bf0 883b 5355 893c c6ab e23c 8b78 703c
000002c0: 6371 a6bc b655 80bc 9ba9 7abc 9e9b a7bc
000002d0: 16b7 833c 6833 9d3c c322 233d b825 eb3c
000002e0: 2b70 a53b a0e0 1d3d a06c b93c 9366 09bd
000002f0: 3b0a d43c 9b58 613c 8ebc 24bd e466 123d
00000300: 0044 4ebc b42d 243d 8e72 f3bc 9336 29bd
00000310: 0e01 08bd a636 153c 1808 d53c 1696 433c
00000320: a07b 523c 18f7 91bc d616 8bba 0024 583c
00000330: 40e0 7f3c 5b9a 06bd 5661 dcba b679 dfbc
00000340: e3e0 963c 6e86 8cbc 0087 753a 9047 98bc
00000350: 2e20 a1bc 76d4 99bb 5c62 073d 0ec1 e83c
00000360: 3373 ca3c 2a8a 00bd d701 183d 20e6 223c
00000370: 5b76 a63c b4ef 09bd a089 f1bc 5e5b da3c
00000380: 50d0 c53c e3e0 293d f63d 3b3c cb53 093c
00000390: 6b1c b1bc 5636 5a3b ab8a f6b9 5eaf b43c
000003a0: db21 bbbc cb6a b43c eb05 313b 0e28 943c
000003b0: 5034 82bc 009e 3a3a 3ccd 08bd a006 e2bb
000003c0: a06f e93c b852 b4bc 4bf5 8dbb 4b09 bd3c
000003d0: 7b7d 1fbc 0682 173c 0b83 ad3b 6839 d1bc
000003e0: 00d6 45ba 8cd5 153d 7ca0 04bd 76ee 07bc
000003f0: 1be7 bcbc fbb0 283d b420 023d bf40 02bd
-0.005537247 0.012108758 -0.032787587 -0.022141676 -0.031748544 -0.039133333 0.002249708 -0.034526553
-0.03749996 0.01845045 -0.020394122 -0.0067878617 -0.030131888 -0.03731013 -0.0068623526 0.03188487
0.036454033 -0.00084161264 0.0047194613 0.018532705 -0.019998368 -0.041517057 0.008465022 -0.032761857
0.02902322 -0.03547753 -0.03888699 -0.023510953 -0.037018206 0.034077447 0.026310842 -0.028607618
-0.0013852816 -0.034241952 -0.026283454 0.03873966 0.0005591413 0.024041068 -0.009997239 -0.039385673
0.030099144 -0.0105773015 -0.014048651 0.034506477 -0.0069660395 -0.031819057 0.03415435 0.004379099
0.006111617 0.031935774 -0.009800157 -0.03491143 -0.01830115 0.03561005 -0.028539896 0.018318072
-0.03158326 0.034562625 -0.039809197 0.032888126 -0.03413686 0.038159676 -0.020308426 0.0070514283
-0.004987399 0.026637306 0.024548074 -0.028951164 0.008908163 -0.005897676 0.04064099 -0.030359587
0.032317072 -0.019432317 -0.0077480576 -0.023050707 -0.023766845 0.028570458 0.009931455 -0.011970496
-0.0131995585 0.034079637 0.033855893 0.00928771 -0.014155935 0.023291117 -0.0154763665 -0.039405815
-0.030171763 -0.00010522704 -0.033816677 -0.041242417 -0.009652665 -0.026588589 0.024189442 -0.0009862036
0.031979334 -0.025300642 0.009386192 0.012621706 0.041284718 0.035856288 0.033640184 -0.025173282
0.004084125 -0.032182585 -0.004262378 -0.01308776 -0.017709708 0.034569472 0.028675586 0.013944328
-0.01690735 0.012860438 -0.016907617 -0.009242336 -0.01670914 0.029442301 0.0068638874 -0.028263709
-0.03428503 0.020853123 0.009103358 0.040334597 -0.03212913 -0.030279022 -0.013156235 0.03105424
0.018313672 0.011669865 -0.03721653 -0.023088291 -0.025667787 0.018772464 0.022824466 -0.017833045
-0.007349591 0.02267009 0.0325331 0.018561348 -0.025920853 0.006771113 0.030710435 0.024486527
-0.038045567 0.02563198 0.029433772 -0.039571907 -0.030287048 0.014439583 0.023042124 0.030487057
-0.0029061835 -0.029343363 0.036665186 -0.035260182 -0.026882019 -0.039674945 -0.017240148 -0.024011454
-0.008225079 -0.033333965 0.016968206 -0.019290691 0.019548293 0.0049603684 -0.03693509 -0.027183607
0.0015347749 -0.023376888 -0.038887944 0.039642986 0.004179021 0.016764319 0.027669799 0.014677177
-0.020317739 -0.01566587 -0.015299226 -0.020459946 0.016078513 0.019189551 0.039828073 0.02870451
0.005048772 0.038544297 0.022634804 -0.033545088 0.025883785 0.013754035 -0.040218882 0.035742655
-0.012589455 0.04008265 -0.02971771 -0.04131181 -0.03320413 0.0091072675 0.026004836 0.011937639
0.012846857 -0.017818019 -0.0010611664 0.013192177 0.01561743 -0.03286205 -0.0016813676 -0.027279716
0.018417781 -0.017153945 0.0009366125 -0.018588811 -0.019668665 -0.004694517 0.033052787 0.028412368
0.024713134 -0.031381764 0.03711113 0.009942561 0.020320108 -0.033675864 -0.02948457 0.026654895
0.024147183 0.041474234 0.011428347 0.008381794 -0.021619996 0.0033296547 -0.00047024092 0.022056278
-0.022843292 0.02202358 0.0027011584 0.018085506 -0.015894085 0.0007118881 -0.03339885 -0.0068977624
0.02849561 -0.0220121 -0.0043322197 0.02307572 -0.009734507 0.009247309 0.0052951626 -0.025540069
-0.0007546842 0.036580607 -0.032379612 -0.0082966 -0.023059418 0.041184407 0.03176947 -0.031800028

bias f4 [64]
00000000: 232a f9bc bb0a 533c 60e1 823b d039 d4bc
00000010: 8fd3 283d e616 cf3c d31d 813c ab6a f5bb
00000020: a4a4 063d 2baa b63c bedc c9bc a0de 72bc
00000030: ce8a f9bc 5637 a7bb 3099 0c3c f8d6 ea3c
00000040: c034 683b 809e 943c c644 0e3d 16e9 213c
00000050: 8353 913c eb83 7c3b 9bc1 633c e07e db3b
00000060: 8c4b 0fbd 0e65 053d 80aa e6bb 9629 f6bb
00000070: de36 0ebd 5bd5 143c 8b34 493c 6b72 513c
00000080: e062 a7bb 4b01 2cbc 5391 c0bc eb9f 053b
00000090: 1b8f 4a3c cb94 963c 8c11 173d 8ed3 293d
000000a0: bb8e 19bc 2b7d f8bb 0040 29b9 6676 d8bc
000000b0: cf0c 1c3d 629a 033d e6ae a43c 7627 e33b
000000c0: 63f3 833c a089 ba3c f3d1 9bbc ab7f 1d3a
000000d0: 76b4 763c 769e 8fbb 289f 813c 2255 29bd
000000e0: 76c3 b43c 9bac ca3c 0ee7 ecbc 6395 bb3c
000000f0: 168a 0e3d 504b 293c 005e fe3a ebb3 d1bc
-0.0304156 0.012880976 0.003994152 -0.025906473 0.041217383 0.025279474 0.015761292 -0.0074895225
0.032871857 0.02229794 -0.02464139 -0.014823586 -0.030461695 -0.005103032 0.008581445 0.028666958
0.0035431832 0.018141985 0.034733556 0.009882232 0.017740017 0.0038530778 0.01390114 0.0066984743
-0.034984156 0.032567076 -0.007039368 -0.0075122816 -0.034720294 0.009084071 0.012280594 0.012783627
-0.0051082224 -0.010498355 -0.023506796 0.0020389508 0.012363221 0.018381497 0.03688197 0.04146152
-0.0093724085 -0.0075832806 -0.00016140938 -0.026423644 0.038098153 0.032129653 0.02010293 0.0069321943
0.016107267 0.022770703 -0.01902101 0.0006008099 0.015057674 -0.0043829037 0.015822962 -0.041340955
0.02206586 0.024740508 -0.02891877 0.022898382 0.034799658 0.010332897 0.0019406676 -0.025598487

weight f4 [256, 64]
00000000: ba5c ce3d 2024 2d3c 6669 aabd b036 44bc
00000010: cade c23d 4012 783d 9a1b ba3d 00f6 f13d
00000020: 7093 0c3d 946a fa3d 3a1a 9a3d 4465 313d
00000030: 1ce7 0b3d f44d e0bd 805a b13a 0e3b c1bd
00000040: e6b1 b73d a06b 6bbd 7cbf 2a3d 80ef d23b
00000050: 967b 903d 3c3c 34bd 60ea 7c3d fc3a 0bbd
00000060: 8c71 fe3d a481 d03d 183a b7bc 007d 113b
00000070: e8c5 aebd a8cf e2bd 52ba ff3d 0eb5 c03d
00000080: f8c8 4fbd 7485 933d 280d db3d 7668 c23d
00000090: 10e2 933c ecc0 c23d 0095 dcbd 2c45 a23d
000000a0: 6082 d4bc e0ed d7bd 3843 b43c 20fc 623c
000000b0: c0d2 0ebb d482 0abd 007c e63a d8cc 3ebd
000000c0: 92d9 a6bd a0c9 f0bb 2800 00bd b4c8 6e3d
000000d0: 9aa5 d2bd 367c c3bd 94c3 07bd 328e a5bd
000000e0: dc27 80bd 00c4 b33a e009 e43b 72d1 a33d
000000f0: b065 5c3d 005f 713a c499 263d 2877 c13c
00000100: d485 853d 9220 93bd 3852 73bd a2c5 973d
00000110: 6e04 e5bd f4eb 053d c069 3dbc b077 c1bc
00000120: 3c01 a7bd 74c6 c83d 1aa9 c3bd f825 dabc
00000130: 08db bcbd daf9 f4bd ee04 e0bd d4cc afbd
00000140: e005 9bbd 2085 ae3b 4efd c9bd 3453 fc3d
00000150: f86b 8dbd e0b1 1ebc 62c3 aebd 4042 bfbb
00000160: e480 21bd 60d3 ab3d 985f d93c 403a ae3d
00000170: 70bc 473d e4e6 02bd eef2 c0bd 30b2 07bc
00000180: 6c9e 6bbd 2c94 353d 1078 4f3c 3662 a6bd
00000190: e21b d93d daeb c43d 44c4 debd 047e cc3d
000001a0: d296 e73d 5242 c63d de86 ddbd 98e4 ec3c
000001b0: 5858 eb3d 7030 813d a680 b0bd e025 17bd
000001c0: 0a34 db3d 0cfd 073d 7062 16bc 703f bf3d
000001d0: 7c10 223d 96c7 c83d 081e cd3c 8c51 2ebd
000001e0: 24cd 1c3d 345f a6bd c425 dd3d 8e74 8bbd
000001f0: e605 803d 6a89 83bd c457 a3bd 40a6 3abc
00000200: d83f 48bd 6c1f 3e3d 30c5 a23d 20e5 c5bd
00000210: 5867 f0bd 4a7a a73d a4ab 053d b003 203c
00000220: 46db f93d 60bf dc3d d8e4 90bd a099 b8bc
00000230: e0f8 863c 005f 46bb 5201 ec3d 46d1 dcbd
00000240: 802c 5a3b 741f 9ebd 2656 d83d 307e 65bc
00000250: 983d d4bd bcda 8a3d be63 9c3d 443f 543d
00000260: 2c3f 073d 1ef3 80bd b0e7 b13c 507b 803d
00000270: 5018 3d3d a001 a3bd 98fe 9c3c 9075 03bc
00000280: 7093 3fbd 1404 c7bd ac28 853d ca4c e63d
00000290: e45c 5fbd 0c41 a2bd fc1e 3ebd 54c4 623d
000002a0: 00e8 22bc d24d 96bd e8ec 1b3d ac32 ffbd
000002b0: 4e40 cdbd a4e8 0c3d cca7 083d 0260 823d
000002c0: 4416 cfbd e675 96bd 5a1d b63d 0ebf a23d
000002d0: 5c7a 19bd 90ec ad3d 60a0 62bd ac39 053d
000002e0: e0b6 bfbc e268 f03d cc54 f8bd 8a8a dfbd
000002f0: 78ce 45bd 4c74 b83d b678 ef3d 9aad fb3d
00000300: 24e0 f3bd b846 83bc c87a cabc c802 aebc
00000310: e8d2 a03d 3274 cebd 1266 e5bd 5ef1 d6bd
00000320: acf5 483d 462e c33d 00c7 c9bd 94a3 fdbd
00000330: 6cb0 8ebd 88a9 cfbc 541a 6fbd 3640 b93d
00000340: f882 0abd 489b d0bc 08ec b3bc 0060 9738
00000350: 58eb 8dbd 503b 6d3c 9c47 6d3d a0a4 963c
00000360: 7af1 e5bd d808 a7bd b07c 2d3d 30fb 93bd
00000370: 705b 56bc 30ce 973d a882 13bd 7ca5 59bd
00000380: c4b3 febd 188c 583d d893 75bd d818 2b3d
00000390: 00ba 6dbc 1efb 81bd 3839 f73c 4008 b63c
000003a0: 480d cbbc 945b e83d b858 993d 5a41 9b3d
000003b0: e6ca f13d 6efd 923d 0815 a6bd 8467 a0bd
000003c0: b207 acbd 7059 263c 20de 003d 9007 e93d
000003d0: 083e d43c a073 c2bb a2b2 bb3d 40b1 3dbc
000003e0: 308d 3ebd 7c6d 64bd fa93 c9bd 8070 403d
000003f0: e09f f8bb 6654 ee3d 9ce3 7f3d 10ca 9e3c
0.1007628 0.010567695 -0.083208844 -0.011975929 0.0951515 0.06056428 0.09087296 0.11814499
0.034320295 0.122273594 0.075245336 0.043309465 0.03415595 -0.109523684 0.0013531 -0.09435092
0.08969478 -0.057475686 0.04168652 0.006437242 0.07054822 -0.044002756 0.061746955 -0.0339918
0.12424001 0.10180977 -0.022366568 0.002219975 -0.08533841 -0.110747635 0.1248671 0.094095334
-0.050728768 0.072031885 0.10695869 0.094925806 0.018052131 0.09509453 -0.10770607 0.0792335
-0.025941074 -0.10543418 0.022004709 0.013854057 -0.0021793097 -0.033816174 0.0017584562 -0.046582073
-0.08146967 -0.0073482543 -0.03125015 0.058296874 -0.10285492 -0.09545176 -0.033145502 -0.08083762
-0.062576026 0.0013715029 0.006959185 0.07998933 0.053807914 0.00092075765 0.040673986 0.023616388
0.06519666 -0.07183947 -0.05940458 0.07410742 -0.111824855 0.032695726 -0.011560857 -0.023616642
-0.08154532 0.09803477 -0.09553738 -0.026629433 -0.092214644 -0.11961718 -0.1093844 -0.0858399
-0.0756948 0.0053259283 -0.09862767 0.12320557 -0.06905359 -0.009685963 -0.0853336 -0.005836755
-0.03942956 0.08389926 0.02653484 0.08507204 0.048763692 -0.031958476 -0.09421335 -0.008282229
-0.05752413 0.04433076 0.0126629025 -0.08124201 0.10601021 0.096152976 -0.108772784 0.09984973
0.113080636 0.09680618 -0.108167395 0.028917596 0.114914596 0.06308067 -0.08618288 -0.036901355
0.10703285 0.03320031 -0.009178743 0.093382716 0.039566502 0.09803693 0.025038734 -0.042558238
0.038281575 -0.08123627 0.10798219 -0.068093404 0.06251125 -0.06422694 -0.07975724 -0.011392176
-0.04888901 0.046416685 0.07947767 -0.09662843 -0.11738461 0.08177622 0.032634392 0.009766504
0.12200026 0.107786894 -0.070748985 -0.022534192 0.016476095 -0.0030269027 0.11523689 -0.10782103
0.0033290684 -0.07720843 0.105633065 -0.014007136 -0.103633106 0.067800015 0.07636212 0.051818147
0.03301923 -0.06296371 0.021716923 0.0627352 0.046165764 -0.07959294 0.019164369 -0.008023635
-0.046771467 -0.09717575 0.06501898 0.11245115 -0.054531947 -0.07922563 -0.046416268 0.055363014
-0.009943008 -0.07339062 0.03806773 -0.12460837 -0.10022031 0.03440155 0.03336315 0.06365968
-0.10111669 -0.07346706 0.08892317 0.07946597 -0.037470207 0.08492386 -0.055328727 0.032525703
-0.023402631 0.11738755 -0.12125549 -0.10915096 -0.048292607 0.09006557 0.11692946 0.12288971
-0.11907986 -0.016024932 -0.02471675 -0.02124156 0.07852727 -0.10080756 -0.11201109 -0.10495256
0.049062416 0.0953031 -0.09852409 -0.12384716 -0.069672436 -0.025349393 -0.058374718 0.090454504
-0.033816308 -0.025464669 -0.021963134 7.2181225e-05 -0.06929654 0.014479473 0.05792962 0.018389046
-0.112276986 -0.08155984 0.04235524 -0.072256446 -0.013083324 0.07412374 -0.036013275 -0.053136334
-0.12436631 0.05286798 -0.059955448 0.04177174 -0.014509678 -0.06346725 0.030178651 0.02222073
-0.024786606 0.11345592 0.07487625 0.07580824 0.11806278 0.07177244 -0.0810948 -0.07832244
-0.08399905 0.0101531595 0.031461835 0.113783956 0.025908485 -0.0059341937 0.09164931 -0.011577904
-0.046521366 -0.055768475 -0.098426774 0.04698229 -0.007587418 0.116371915 0.062472925 0.01938346

bias f4 [256]
00000000: 984b c33c 60ae d83b e89b b63c f8b3 473d
00000010: e036 0b3c 6609 e23d 60f5 913d 84d4 d7bd
00000020: b670 fa3d 4439 7c3d 6265 993d d8bc 4dbd
00000030: 1425 6e3d e83c e1bc d884 bc3d c02c 673b
00000040: f845 a5bc f491 bebd 3c87 14bd 84b7 0f3d
00000050: 2884 523d b61c d7bd cce3 e3bd 7ae2 f9bd
00000060: 00c1 a0bc d067 ca3c 3470 763d da48 d33d
00000070: 9445 98bd c412 ff3d 7056 0cbd 0099 d5bd
00000080: f0f6 e63c 8c68 c7bd 0829 aabc b406 1ebd
00000090: 4ece ed3d 6ca7 9ebd a02b b53c ca48 c7bd
000000a0: a8b8 9c3c b418 9fbd ba35 d5bd 64cd b4bd
000000b0: 8852 05bd fa70 ee3d a2d6 f53d de21 af3d
000000c0: 0ab8 e5bd e8de f43d 2080 e03b 60b2 b83b
000000d0: 205f f53b 8078 c8bd 68e4 ee3d 7ea7 e93d
000000e0: f071 473c b042 f8bc ba41 f7bd 3a31 df3d
000000f0: 1c49 84bd fc77 d03d 94f3 203d 6405 97bd
00000100: 9846 66bd 9427 7e3d ca9f ecbd c87f 1cbd
00000110: 10cc e3bd 646a 04bd ca96 803d 26cc ecbd
00000120: 50ba 93bd c25a be3d 2219 c23d e435 403d
00000130: 46b3 8e3d d213 a0bd 2caa 1ebd f4fe 04bd
00000140: 0a7d d3bd 0ab8 cf3d f084 04bc f652 a4bd
00000150: 5ee2 fc3d 8c05 953d 9ab5 a7bd 746e dd3d
00000160: 5080 cc3d 14ed c93d 7c0d c2bd d04f bf3d
00000170: 6cce d3bd 28de 16bd 18f5 b2bd 66e9 b7bd
00000180: cc8f e13d 486c cb3c 089e e1bd 18ac aebc
00000190: 18d5 a5bc a837 3bbd 00e8 213a e8f5 c93c
000001a0: 4094 173b 6678 b2bd c0ad 0dbc 4cad 28bd
000001b0: 506a d23d 6071 29bc 805c 91bb 1206 b9bd
000001c0: 8e21 823d 2c70 eb3d 62f5 b9bd d8af f43c
000001d0: 9418 173d a63d ca3d 606c cdbb c431 acbd
000001e0: cedf 80bd 1064 febc d4fe 6dbd 9c9e 21bd
000001f0: 94ff f23d 40e4 753b 90d8 333c ec8c dcbd
00000200: 9a97 e3bd 4018 70bb 52b6 d53d b42e b8bd
00000210: 447d b7bd c011 683b 029c 94bd f012 463d
00000220: 3af3 9e3d 6cec 3b3d ea73 d03d f802 a53c
00000230: d076 3f3d 6279 e73d e808 cebc f477 be3d
00000240: 74ce 823d 46d7 babd e45c 29bd 50d7 8cbd
00000250: 7ee9 b43d a8d7 d0bc 0ef2 fdbd c82e c33d
00000260: 96d6 b2bd 34aa 49bd 248f c63d 6202 a83d
00000270: 109a 79bd e01a 5fbd f04b d93d 2009 c7bb
00000280: 7e33 843d a87e 753d 400e de3b 5084 093c
00000290: 8099 ea3c 2a80 d03d 70e6 a73d 62e3 e13d
000002a0: cef0 bebd a021 c33b 8869 93bc 4c4a 823d
000002b0: b0b9 43bd 60de 66bc 82a6 e2bd f490 5e3d
000002c0: 9c27 963d 86e4 a13d 4010 783c 604a 5abd
000002d0: 401e 303c 3830 cd3d e4c4 1fbd b8b1 d5bc
000002e0: 2054 eebd da9f ad3d f814 06bd 34a5 65bd
000002f0: 80ce 25bd 4a5d b9bd 8892 eabc ac30 c23d
00000300: d869 c5bd 0e51 d0bd 3a15 b0bd ee60 ba3d
00000310: 709c 00bc 4447 e8bd a4f5 aebd b433 1f3d
00000320: 809e 4e3b fcad ecbd 0c50 e9bd 7875 96bc
00000330: 74ec ddbd 50ee e83d 6c81 323d d8a2 113d
00000340: 12fb bb3d 2240 823d 9065 103d 6050 dbbb
00000350: ecba cabd ecbf e1bd c4cd 063d fad0 c4bd
00000360: 7295 cbbd a43e 663d 6494 593d 9868 693d
00000370: e6c7 bdbd 763e d23d 907b 923c c4a3 d43d
00000380: 8431 8e3d 0035 d9bd 504c edbc 0c4f cebd
00000390: 2067 f63d 5c64 eb3d a02c efbd 641e fa3d
000003a0: ee87 f63d 802c b3bd 5c5e e33d 10b3 913d
000003b0: 7ac2 a83d 861a b6bd 8834 ffbd 208e a3bd
000003c0: 2074 1b3d dc71 3d3d c01b 29bd 80f0 1abd
000003d0: 663b a6bd 96fb b93d 0068 7c3b 6862 aa3c
000003e0: 4698 a0bd b054 06bc a891 d93c 747c 88bd
000003f0: 0cb7 33bd d05d 9abd 4075 603b b845 c83d
0.023839757 0.006612584 0.022291139 0.048755616 0.00849697 0.11036949 0.0712688 -0.10538581
0.12228529 0.06157805 0.0749004 -0.050228924 0.05814083 -0.027494863 0.092050254 0.0035274476
-0.020174965 -0.09305182 -0.036261782 0.035087124 0.051395565 -0.10503523 -0.11127433 -0.122014
-0.01962328 0.024707705 0.0601656 0.1031663 -0.07435146 0.12454751 -0.03426212 -0.10429573
0.02819392 -0.097367376 -0.020771518 -0.03858061 0.11611615 -0.07746777 0.022115529 -0.0973068
0.01913102 -0.077683836 -0.10410638 -0.08828238 -0.03254941 0.11642642 0.120038286 0.085513815
-0.11216743 0.119565785 0.006851211 0.0056364983 0.0074881464 -0.097886086 0.11664659 0.114089
0.012173161 -0.030305237 -0.12073083 0.10898061 -0.06459257 0.10179135 0.039294794 -0.07374075
-0.056219667 0.062049463 -0.11553915 -0.0382078 -0.11122906 -0.032328025 0.06278761 -0.11562376
-0.07213271 0.092946544 0.0947745 0.046926394 0.069677874 -0.078162804 -0.038736507 -0.032469705
-0.10326584 0.101425245 -0.008088335 -0.08023636 0.123478636 0.072764486 -0.081889346 0.10812083
0.09985411 0.09859672 -0.09475228 0.09341395 -0.10342106 -0.03683296 -0.08738154 -0.08980064
0.11013755 0.024831906 -0.1101647 -0.021322295 -0.020243213 -0.045707375 0.00061762333 0.02465339
0.0023129135 -0.087143704 -0.008647382 -0.041180894 0.10274184 -0.010341972 -0.0044360757 -0.09034361
0.06354056 0.114960045 -0.09080006 0.029869005 0.036888674 0.0987504 -0.006269023 -0.084079295
-0.06292687 -0.031053573 -0.05810435 -0.039457902 0.11865154 0.003752008 0.0109769255 -0.10769066
-0.111129 -0.0036635548 0.104351655 -0.08993283 -0.089594394 0.003541097 -0.07256319 0.048357904
0.077612355 0.045879766 0.10178359 0.020143017 0.046744168 0.11302449 -0.025150731 0.09300223
0.06387034 -0.091230914 -0.041348353 -0.06877005 0.088335976 -0.025493458 -0.12399684 0.09530407
-0.08732335 -0.049234584 0.09695271 0.082035795 -0.06093794 -0.05446899 0.10610187 -0.006074086
0.06455134 0.059935242 0.006776601 0.008393362 0.028637648 0.10180695 0.08198249 0.11029698
-0.093232736 0.005954936 -0.017994657 0.06361827 -0.047784507 -0.014091104 -0.11066915 0.054337457
0.07331774 0.079049155 0.015140593 -0.053293586 0.0107494 0.100189626 -0.03900613 -0.02608572
-0.11637139 0.08477755 -0.03273484 -0.056065753 -0.040480137 -0.090509966 -0.028634325 0.0948194
-0.09639329 -0.1017171 -0.08597799 0.09100519 -0.007849798 -0.11341718 -0.08542946 0.038867667
0.0031527579 -0.115566224 -0.11392221 -0.01836656 -0.108361155 0.113735795 0.043580458 0.03555569
0.09178747 0.063598886 0.035253108 -0.006692931 -0.09898934 -0.11022934 0.032911077 -0.096101716
-0.09940614 0.056212083 0.053120032 0.056984514 -0.09266643 0.1026582 0.017881185 0.10382798
0.06943038 -0.10605812 -0.028967053 -0.10073671 0.12031388 0.114937514 -0.116784334 0.12212828
0.12037645 -0.08748722 0.11101982 0.071142316 0.082402185 -0.08891778 -0.124611914 -0.079860926
0.037952542 0.046251163 -0.04128623 -0.037827015 -0.08116798 0.09081189 0.0038514137 0.020798877
-0.07841544 -0.008198902 0.026558712 -0.066643625 -0.04387574 -0.075374246 0.0034249574 0.09778923
