cnn_models/cnn_model_ver4.pth (torch, 383636 bytes, 8 tensors)

weight f4 [32, 4, 8, 8]
0.044548802 0.008642688 -0.048358366 0.017212369 -0.055248857 -0.028789401 0.016427055 0.031410582
-0.03291864 -0.03252186 -0.0036446229 0.037278004 0.034859963 -0.0556285 -0.03513179 -0.012298875
0.04529494 0.055954956 -0.028481498 -0.0031095818 0.04675322 -0.04500515 0.044030532 0.044893824
0.04415518 0.05815018 -0.025286973 0.053650834 0.05477912 0.014678657 0.04119625 -0.03683205
0.046842463 -0.057463557 -0.051395968 0.014680862 -0.03644923 -0.027484164 -0.008316815 -0.047382437
-0.009865463 0.01400087 -0.027229272 -0.056657553 -0.04761924 0.019738004 0.037813485 -0.052271627
0.010836348 0.020487353 -0.03887742 0.039438583 -0.03510862 -0.011014409 0.0041673034 0.052631274
-0.016889371 0.035485715 0.012877703 -0.061725773 0.05742787 -0.018106967 -0.045965552 0.026477426
0.026969545 -0.026708491 -0.020127833 -0.009776339 0.0024268478 -0.040254064 0.015795007 -0.04554008
0.011611126 -0.035069756 0.003816694 -0.044605985 -0.031977102 -0.0554372 0.005456798 -0.022935577
-0.00939814 -0.01662071 0.0051734447 0.06006156 0.032970056 0.053821035 0.039232597 0.03805373
0.030483045 0.062008597 -0.00920812 -0.06005761 -0.009945564 -0.013730533 -0.031171404 -0.050690666
-0.011131771 0.05544377 0.05985012 0.023526669 -0.0049698874 -0.049150884 0.02676674 -0.054388322
-0.0036709234 0.029779099 0.029008076 0.02766028 -0.0013344809 -0.038963027 0.0374211 0.045704246
0.0553035 0.052076705 0.044668615 0.0028195307 -0.024587475 -0.06003429 -0.01641792 0.022258982
-0.012316868 0.059015736 0.016084366 -0.04058393 -0.033629358 0.05626317 0.012507014 -0.025605753
0.04651747 0.021150336 -0.0012804344 0.028748207 -0.026106954 0.028958172 -0.03797464 -0.05864048
-0.06214094 0.04743599 -0.040777363 -0.028187178 -0.057977647 0.025726728 -0.039152578 0.022852033
0.060842812 -0.012317061 -0.053484328 0.0394433 0.0039703622 0.05465565 -0.023120917 0.029381834
0.054730423 -0.009391248 -0.06103433 -0.0013337359 0.04920423 -0.008008257 0.041153647 0.048248813
-0.0049042776 -0.023541577 -0.008100018 -0.007221438 0.004555024 -0.035442084 0.058941714 -0.011407867
0.0017674267 0.049940176 0.017759107 0.011174716 0.058742084 -0.030083649 -0.033058196 -0.039184727
-0.050418578 0.061792426 0.028591327 0.014036395 -0.029519126 -0.048399568 -0.03671162 -0.00527972
-0.032489322 0.045459628 -0.06015139 -0.017718539 0.016565017 -0.02547276 0.020298794 -0.025463685
0.0006818846 -0.029268496 0.046826243 0.031699106 -0.03002087 -0.043265708 0.007517606 -0.056163087
-0.028078638 -0.048720084 0.053182207 0.03222043 -0.029031046 -0.03398972 -0.017441764 -0.058004677
-0.00010176748 -0.042673357 0.044547208 -0.004175499 0.010727145 -0.005099602 -0.043093204 -0.009350508
-0.019546159 0.0048353374 0.02338402 0.0478032 -0.03090477 0.017991886 -0.010067031 0.005076334
-0.009159006 -0.00066708773 -0.035122745 0.014120378 0.02936761 0.025156751 -0.0013929978 0.007696882
-0.008254692 0.032034375 0.05042597 0.0028692856 -0.05432208 -0.056915224 -0.061113007 0.019586474
0.03057728 -0.00034561753 -0.017402388 0.0026904494 0.022061236 0.03988964 0.048390932 -0.004477747
0.005033925 0.039849818 0.0013399348 -0.04345561 0.019229062 -0.0074066967 0.017285183 0.010676734
00000000: ce78 363d 109a 0d3c 6c13 46bd f400 8d3c
00000010: a04c 62bd c0d7 ebbc 0892 863c 62a8 003d
00000020: b2d5 06bd a435 05bd a0da 6ebb d2b0 183d
00000030: 52c9 0e3d b6da 63bd 5ae6 0fbd 3881 49bc
00000040: 3087 393d 0631 653d 0852 e9bc 20ca 4bbb
00000050: 4e80 3f3d 5257 38bd 5c59 343d 96e2 373d
00000060: 10dc 343d e22e 6e3d a026 cfbc fac0 5b3d
00000070: 1260 603d c07e 703c 66bd 283d 34dd 16bd
00000080: e2dd 3f3d e85e 6bbd 9484 52bd 0088 703c
00000090: ca4b 15bd 7826 e1bc 4043 08bc 1614 42bd
000000a0: c0a2 21bc e863 653c ec0f dfbc c011 68bd
000000b0: 640c 43bd 98b1 a13c 50e2 1a3d c61a 56bd
000000c0: f08a 313c 18d5 a73c ee3d 1fbd 5a8a 213d
000000d0: 0ece 0fbd c875 34bc e08d 883b e493 573d
000000e0: 945b 8abc 7859 113d 00fd 523c 2ad4 7cbd
000000f0: 7c39 6b3d 1055 94bc 6046 3cbd 30e7 d83c
00000100: 3cef dc3c c4cb dabc 20e3 a4bc f02c 20bc
00000110: c00b 1f3b 72e1 24bd 8864 813c 3c88 3abd
00000120: 983c 3e3c 4ea5 0fbd 8021 7a3b c4b4 36bd
00000130: 6cfa 02bd 1e12 63bd f0ce b23b 64e3 bbbc
00000140: a8fa 19bc 2828 88bc 0086 a93b 1c03 763d
00000150: 9c0b 073d 7273 5c3d 5cb2 203d 3ade 1b3d
00000160: 94b7 f93c bafc 7d3d a8dd 16bc f8fe 75bd
00000170: b8f2 22bc 08f6 60bc 2c5b ffbc 04a1 4fbd
00000180: 0862 36bc 0219 633d 6625 753d 00bb c03c
00000190: 70da a2bb 7052 49bd ec45 db3c 4ac6 5ebd
000001a0: e093 70bb 4cf3 f33c 58a2 ed3c d097 e23c
000001b0: c0e9 aeba b297 1fbd de46 193d 6034 3b3d
000001c0: ec85 623d 624e 553d 70f6 363d e0c7 383b
000001d0: ac6b c9bc 84e6 75bd e07e 86bc 7858 b63c
000001e0: b0cc 49bc 7cba 713d 5cc3 833c 563b 26bd
000001f0: f0be 09bd 3674 663d 38ea 4c3c 28c3 d1bc
00000200: 1a89 3e3d 7843 ad3c 40d4 a7ba 5c81 eb3c
00000210: 40de d5bc b039 ed3c 4c8b 1bbd 0031 70bd
00000220: 8087 7ebd 3e4c 423d 2a06 27bd cce8 e6bc
00000230: f879 6dbd dcc0 d23c 745e 20bd 3034 bb3c
00000240: 5036 793d 80cd 49bc 6212 5bbd 4c8f 213d
00000250: d019 823b 9ade 5f3d 1468 bdbc 2cb2 f03c
00000260: 022d 603d c0dd 19bc 22ff 79bd c0d0 aeba
00000270: 608a 493d 1035 03bc ba90 283d 8ca0 453d
00000280: 10b4 a0bb 44da c0bc f0b5 04bc d0a1 ecbb
00000290: 5042 953b b82b 11bd de6c 713d 10e8 3abc
000002a0: 00a9 e73a 128e 4c3d 8c7b 913c 2816 373c
000002b0: 8a9b 703d fc71 f6bc 0868 07bd 2a80 20bd
000002c0: b683 4ebd 0e1a 7d3d 5c38 ea3c e8f8 653c
000002d0: 18d2 f1bc a03e 46bd ec5e 16bd 8001 adbb
000002e0: 8613 05bd e033 3a3d 4e61 76bd 7826 91bc
000002f0: 5cb3 873c 40ac d0bc a849 a63c 3899 d0bc
00000300: 80c0 323a 7cc4 efbc e0cc 3f3d ecd6 013d
00000310: 54ee f5bc 6237 31bd 4056 f63b 440b 66bd
00000320: 2c05 e6bc b68e 47bd 96d5 593d 92f9 033d
00000330: 84d2 edbc ce38 0bbd 08e2 8ebc 5096 6dbd
00000340: 006c d5b8 42ca 2ebd 2277 363d a0d2 88bb
00000350: e8c0 2f3c 901a a7bb 8082 30bd e032 19bc
00000360: 441f a0bc c071 9e3b d88f bf3c 4acd 433d
00000370: 002c fdbc b863 933c 30f0 24bc 6057 a63b
00000380: a80f 16bc 80df 2eba dedc 0fbd 2859 673c
00000390: 5894 f03c 8815 ce3c 4095 b6ba 2036 fc3b
000003a0: b03e 07bc 7a36 033d 768b 4e3d a00a 3c3b
000003b0: d480 5ebd f01f 69bd a251 7abd d073 a03c
000003c0: 347d fa3c 0034 b5b9 748f 8ebc 4052 303b
000003d0: c4b9 b43c 5263 233d 9235 463d 10ba 92bb
000003e0: a0f3 a43b 9039 233d c0a0 af3a 82fe 31bd
000003f0: 4486 9d3c e0b3 f2bb a899 8d3c 78ed 2e3c

bias f4 [32]
0.039471105 -0.025095388 0.020494245 0.016677618 -0.0487966 -0.013143666 0.0048443377 -0.042903528
0.057613 0.037699424 0.042519398 0.057263054 0.008046187 -0.04082764 -0.035113625 -0.019900918
-0.012010135 -0.006369911 0.05857277 -0.015729435 0.014512338 0.061255723 -0.0102810785 -0.062244378
-0.016082533 -0.04787907 0.008486234 -0.007936947 0.025073498 0.0008974895 0.051937237 0.051983096
00000000: 74ac 213d d894 cdbc 8ce3 a73c 809f 883c
00000010: f2de 47bd 8858 57bc 40bd 9e3b 9cbb 2fbd
00000020: 9cfb 6b3d b66a 1a3d d228 2e3d aa8c 6a3d
00000030: 28d4 033c e23a 27bd 4ed3 0fbd 4007 a3bc
00000040: 28c6 44bc b0ba d0bb 00ea 6f3d 04db 80bc
00000050: 28c5 6d3c 48e7 7a3d f871 28bc f6f3 7ebd
00000060: 84bf 83bc d81c 44bd d809 0b3c f809 02bc
00000070: f066 cd3c 8045 6b3a 24bc 543d 3aec 543d

weight f4 [64, 32, 4, 4]
-0.0012398075 0.019562375 -0.027005393 -0.022440625 0.0229539 0.029192746 -0.016379666 -0.008770559
-0.038601696 -0.0012665233 0.0120381145 0.013623895 -0.041269377 -0.015755277 0.03136269 -0.025928102
0.029079935 -0.025094634 0.018978957 0.02231477 -0.02765987 0.02086937 -0.015283153 -0.01258744
-0.020890312 0.0017767531 -0.031232547 -0.010146142 -0.013656996 -0.04032745 -0.034684617 0.00027073553
-0.016047344 0.042375825 -0.02538875 -0.03689479 0.009189931 -0.0019484962 -0.033881173 -0.04410442
0.030185547 0.0038156912 -0.04163192 -0.040139634 0.026234105 -0.0392861 -0.02506345 0.018719444
0.015118464 -0.006426704 0.017849311 0.007490796 0.0037899078 0.008245035 -0.01667697 0.04214879
-0.018324548 -0.03085087 0.007409932 0.03995387 0.03545873 0.011278939 -0.017306307 0.009636371
0.0060530407 0.010345287 0.0011664509 -0.017351309 -0.040758815 0.039026167 0.0049983105 0.014039399
0.033900104 -0.019276999 -0.037349235 0.010293146 -0.033400383 -0.0077505736 -0.020451332 -0.0362727
0.04003232 0.0016072068 0.021252185 0.026950775 -0.028416928 0.024371825 -0.010742504 0.0010354953
0.014703391 -0.012396926 0.0340578 -0.012442771 -0.03744207 -0.021789746 -0.030076254 0.00801818
0.043414462 0.0024246029 0.04147577 0.029162748 -0.024831828 0.03257287 0.014264848 -0.036189232
0.03761266 -0.0054805283 0.00024308721 0.03657319 -0.035117026 -0.025118852 0.025343822 0.024902185
0.030388119 -0.032799352 -0.006857429 -0.0100657055 0.0007029304 0.015857136 -0.02574899 -0.018559886
-0.032248367 -0.0038168395 -0.038207814 -0.0054498296 -0.038527064 -0.032796953 -0.014104959 0.0064913575
0.024506621 -0.015998464 -0.011284913 -0.0071731196 0.016515074 -0.030376619 0.038999338 -0.0236621
0.016921043 0.011778611 -0.029749416 -0.0006116561 0.037513644 0.039477784 -0.0022214076 -0.04204911
0.03712191 0.02912746 0.03751181 0.027299747 0.0394511 -0.017844154 -0.028366473 -0.029867258
0.009128412 -0.017214185 -0.016026592 0.027312975 -0.027827704 0.0050190627 0.014800461 -0.03089119
0.02551172 -0.04026292 -0.041138463 -0.022136535 -0.004391749 0.014271998 0.019699458 0.027702685
-0.020676933 -0.030651342 -0.0106982505 0.013003219 -0.022272276 0.011483783 0.01487376 -0.00105826
-0.01730094 -0.015980056 -0.01650212 -0.034417097 -0.006993748 0.030266332 0.00164457 0.043139394
-0.015953979 0.008201629 -0.013001591 0.019258892 -0.029536948 0.04247668 0.012155878 -0.008605327
0.021276029 0.004721095 0.044060368 -0.027808094 0.038271833 0.007327377 0.021598306 -0.030782346
0.028939653 -0.025957054 0.019998295 -0.009130798 -0.03786589 0.011871534 0.025379831 -0.02926195
-0.021385137 0.02765536 0.008320779 -0.009493603 0.039328426 0.007912844 -0.0074220123 -0.034606375
-0.005133923 -0.029044658 -0.04417403 0.007320375 -0.040016897 -0.0118073495 -0.0060503487 -0.037146542
0.04109859 -0.01287386 0.015305981 -0.012432746 -0.02914816 0.03087758 -0.003565049 -0.023467887
0.020644236 -0.03733864 -0.036094446 -0.020577256 -0.031308286 -0.039144807 0.030467646 -0.010630004
0.03989543 -0.032445695 0.020035831 -0.016509911 0.0046766303 -0.005073827 0.008107604 -0.029021798
0.042665932 -0.015426827 0.010332311 0.028158398 0.044178512 -0.020428324 0.024562893 -0.022138411
00000000: 0981 a2ba 4641 a03c 6a3a ddbc 67d5 b7bc
00000010: d109 bc3c a025 ef3c a62e 86bc 64b2 0fbc
00000020: d01c 1ebd 7801 a6ba 833b 453c c236 5f3c
00000030: 140a 29bd 3611 81bc 2a76 003d 2c67 d4bc
00000040: 0b39 ee3c 4393 cdbc c279 9b3c 77cd b63c
00000050: f496 e2bc 3ef6 aa3c 3166 7abc 8d3b 4ebc
00000060: 2922 abbc f1e1 e83a 66db ffbc 013c 26bc
00000070: 98c1 5fbc 652e 25bd 7511 0ebd 82f1 8d39
00000080: b875 83bc 4692 2d3d 11fc cfbc fe1e 17bd
00000090: 5d91 163c af64 ffba fcc6 0abd d6a6 34bd
000000a0: ae47 f73c ad10 7a3b 3b86 2abd 7569 24bd
000000b0: e8e8 d63c 76ea 20bd dd51 cdbc 8559 993c
000000c0: 6fb3 773c 1a97 d2bb b838 923c 5a75 f53b
000000d0: 1a60 783b 2f16 073c 249e 88bc 36a4 2c3d
000000e0: 5d1d 96bc f7ba fcbc 04cf f23b aba6 233d
000000f0: 2c3d 113d 4dcb 383c f5c5 8dbc dfe1 1d3c
00000100: 9658 c63b 477f 293c 99e3 983a 5524 8ebc
00000110: b7f2 26bd e7d9 1f3d dec8 a33b 8205 663c
00000120: d6da 0a3d ccea 9dbc 83fb 18bd 95a4 283c
00000130: d7ce 08bd 86f8 fdbb 8d89 a7bc af92 14bd
00000140: eef8 233d e9a8 d23a 1019 ae3c dfc7 dc3c
00000150: 9eca e8bc 6ca7 c73c 5401 30bc 75b9 873a
00000160: 7ee6 703c 7a1c 4bbc 3180 0b3d c4dc 4bbc
00000170: db5c 19bd 6980 b2bc 7a62 f6bc af5e 033c
00000180: 5dd3 313d 16e6 1e3b 7fe2 293d b7e6 ee3c
00000190: 1e6c cbbc 216b 053d 1cb7 693c 293b 14bd
000001a0: bc0f 1a3d 0196 b3bb 3ae5 7e39 c5cd 153d
000001b0: dfd6 0fbd 0dc6 cdbc d99d cf3c abff cb3c
000001c0: 81f0 f83c 9d58 06bd 49b4 e0bb a1ea 24bc
000001d0: dc44 383a d3e6 813c 8cef d2bc e70a 98bc
000001e0: dd16 04bd f123 7abb cc7f 1cbd 7c94 b2bb
000001f0: 8ece 1dbd 1956 06bd 7c18 67bc 74b5 d43b
00000200: 1cc2 c83c 360f 83bc 5be4 38bc 7d0c ebbb
00000210: 9f4a 873c 63d8 f8bc c5bd 1f3d 05d7 c1bc
00000220: 009e 8a3c 13fb 403c 0cb5 f3bc 8c57 20ba
00000230: e8a7 193d 75b3 213d 0995 11bb b03b 2cbd
00000240: 250d 183d b69c ee3c fca5 193d b8a3 df3c
00000250: 7a97 213d e72d 92bc ce60 e8bc 2eac f4bc
00000260: 568f 153c c304 8dbc 334a 83bc 76bf df3c
00000270: edf6 e3bc f376 a43b a27d 723c 850f fdbc
00000280: f4fd d03c bbea 24bd ce80 28bd ae57 b5bc
00000290: a9e8 8fbb 19d5 693c c260 a13c bef0 e23c
000002a0: ac62 a9bc 8618 fbbc b747 2fbc 740b 553c
000002b0: 5974 b6bc 7a26 3c3c 12b1 733c 50b5 8aba
000002c0: b3ba 8dbc 9be8 82bc 742f 87bc f1f8 0cbd
000002d0: cf2b e5bb 19f1 f73c 9d8e d73a efb2 303d
000002e0: ebb1 82bc 2060 063c a004 55bc d3c4 9d3c
000002f0: 78f7 f1bc 07fc 2d3d 7329 473c 5cfd 0cbc
00000300: 114b ae3c 6ab3 9a3b a578 343d cdcd e3bc
00000310: edc2 1c3d 7e1a f03b eeee b03c 422b fcbc
00000320: da12 ed3c e3a3 d4bc 77d3 a33c 5899 15bc
00000330: 4319 1bbd d380 423c 5de9 cf3c c2b6 efbc
00000340: e22f afbc 7e8d e23c e053 083c 0f8b 1bbc
00000350: d816 213d e0a4 013c 5a34 f3bb 6abf 0dbd
00000360: 783a a8bb 10ef edbc d4ef 34bd c2df ef3b
00000370: c2e8 23bd 9d73 41bc 0142 c6bb f926 18bd
00000380: ff56 283d e2ec 52bc f0c5 7a3c b7b2 4bbc
00000390: 1fc8 eebc fbf2 fc3c 99a3 69bb ba3f c0bc
000003a0: 1a1e a93c 67f0 18bd c5d7 13bd a291 a8bc
000003b0: 1e3d 00bd 4e56 20bd 4997 f93c 7829 2ebc
000003c0: 6469 233d c7e5 04bd 2f22 a43c cb3f 87bc
000003d0: 6b3e 993b 5942 a6bb c2d5 043c 1fbf edbc
000003e0: 79c2 2e3d cdc0 7cbc da48 293c 71ac e63c
000003f0: 87f4 343d 4d59 a7bc 1f38 c93c 9d5b b5bc

bias f4 [64]
0.001778223 0.0015656448 -0.02060217 -0.0437696 0.022767907 -0.0377187 0.011392562 0.015357653
0.025655119 -0.0066384445 0.025530906 -0.029693667 -0.017378183 -0.025169475 -0.008143561 -0.04359739
-0.026275868 -0.0028653112 -0.02111322 -0.032958724 0.0065876786 0.029854188 -0.021342712 0.019606192
-0.007317251 -0.01664683 -0.02106902 -0.03896707 -0.015828691 -0.020328332 0.027576314 -0.014707364
0.041176118 -0.01922077 0.025415182 -0.040331192 -0.036257338 0.0433083 0.013211799 -0.037271395
0.012855953 0.001348736 -0.0054911496 -0.028844876 0.03752291 -0.02412299 -0.031188266 -0.020198045
-0.022958752 -0.012352562 -0.023687592 -0.033165697 0.008448135 -0.020422414 0.025714867 -0.038330477
0.040522046 0.011770651 0.016097477 0.036510993 -0.0433272 0.030606251 0.019597715 -0.013698743
00000000: 4313 e93a 5236 cd3a e2c5 a8bc c147 33bd
00000010: c383 ba3c ec7e 1abd dea7 3a3c aa9e 7b3c
00000020: af2a d23c 4f87 d9bb 3126 d13c 2240 f3bc
00000030: b15c 8ebc 3730 cebc 926c 05bc 2d93 32bd
00000040: 7d40 d7bc f2c7 3bbb a2f5 acbc baff 06bd
00000050: 74dd d73b c590 f43c e9d6 aebc 2a9d a03c
00000060: 8dc5 efbb ef5e 88bc f098 acbc ef9b 1fbd
00000070: 2cab 81bc 9a87 a6bc b9e7 e13c 28f7 70bc
00000080: 4aa8 283d e074 9dbc 8033 d03c 5232 25bd
00000090: 9382 14bd 0b64 313d 4d76 583c e4a9 18bd
000000a0: c6a1 523c 12c8 b03a 1aef b3bb 174c ecbc
000000b0: 9fb1 193d 949d c5bc 897e ffbc 5f76 a5bc
000000c0: fe13 bcbc 6662 4abc 7b0c c2bc c1d8 07bd
000000d0: 0c6a 0a3c e84c a7bc fca7 d23c 6b00 1dbd
000000e0: 72fa 253d b0d9 403c dbde 833c 8d8c 153d
000000f0: dd77 31bd f6b9 fa3c 638b a03c b170 60bc

weight f4 [64, 64, 3, 3]
0.018046519 0.03041771 -0.022592833 0.000102361046 0.029945737 0.017585477 0.03182859 0.010575047
0.016779741 0.02066585 0.003896023 -0.028650507 -0.0038484037 0.040948298 0.0142465085 0.031427495
0.0051691136 -0.02187857 0.004723981 0.005338967 0.03214243 -0.018806428 0.026861172 -0.01100726
-0.027544867 -0.007948389 -0.02820116 0.025660172 0.025153082 0.017621538 -0.024892678 -0.026845675
-0.019232959 -0.0401394 -0.021373358 0.023470154 0.012302449 0.024776593 0.030320516 0.017745033
-0.02267032 0.040321555 -0.033051006 -0.030273646 -0.022051027 0.030464228 0.0027821264 -0.015710777
-0.00015639763 -0.0263292 -0.04148626 -0.017390624 0.015796613 -0.024624448 -0.007920206 -0.038380217
0.032286108 0.03304778 -0.018968996 -0.040800713 -0.021600103 -0.008009523 -0.004170522 0.029725498
0.034556966 0.0003247559 0.026111212 -0.017914012 0.01803801 0.036633875 -0.023130935 0.00039904317
-0.013789187 0.013518041 -0.034826435 -0.035387617 0.026948607 -0.0050646514 -0.020546144 0.0024391562
0.031066298 0.033941533 -0.015947148 -0.031475812 -0.028194543 -0.039584048 -0.023883691 -0.014687395
0.011143461 -0.02268014 -0.03040455 0.025939535 -0.0010164877 -0.023797413 -0.028008124 0.031491823
0.015807997 0.0072991005 0.038095545 0.0044934005 0.007596731 -0.034378536 0.0197056 -0.04124961
-0.012764628 -0.01995702 0.006771058 0.009050747 -0.010863885 -0.017512387 -0.00347509 0.032579403
-0.026226714 0.032479998 0.040937945 0.03405311 -0.012033006 -0.026241234 -0.018886557 0.035253312
-0.00835602 0.0008762628 0.030120224 0.012667487 -0.006785373 -0.040660948 0.013268019 -0.040409334
-0.034127753 -0.0035285454 -0.024498424 -0.015527616 -0.015846595 -0.014414936 -0.009658943 -0.006815384
-0.0008573731 -0.04164171 -0.0072336546 -0.031845044 -0.015137534 0.00096324587 -0.04012309 0.022042375
0.0413658 -0.023990747 0.012257691 -0.021664198 0.032140903 0.033505403 0.0036688547 0.00914157
-0.0106751025 0.006620492 -0.031419396 -0.0038873702 -0.007924254 -0.016861182 0.0014906526 0.014322008
0.0015533864 0.037177052 -0.019664636 0.0019320548 -0.015795827 0.0026647798 0.02361161 0.037356645
-0.020097654 0.001711155 0.024808362 -0.03753422 0.017346736 0.011290794 0.019049969 0.02533037
0.015324637 0.017943135 -0.006383588 -0.025158083 0.019096782 0.040217232 -0.03448444 0.0013669282
0.034173504 0.03805337 0.03962342 -0.024238393 -0.027795365 -0.018244505 0.026882863 -0.01268208
-0.004890497 0.024325624 0.03279517 0.008309782 0.022665124 -0.0040558577 -0.035713255 0.0069556683
0.0042656166 -0.013032372 -0.004086937 0.0031811695 0.032971375 -0.033687916 -0.0361651 -0.0028695068
-0.041423894 0.034604322 -0.017864605 0.028150555 0.017600432 -0.013024494 0.014315104 -0.0151413735
-0.031858563 -0.010446623 -0.032939203 0.023370177 -0.030377155 0.00046206018 -0.0035643529 0.035255544
0.039363932 -0.03488429 -0.035272628 0.009905502 -0.040162794 0.03579335 -0.01556247 0.041021153
-0.01156131 -0.0385355 -0.0021973304 0.011722083 -0.0072107716 -0.012727539 0.0288333 -0.038666278
-0.04003484 0.026137441 -0.02827551 0.026329592 0.021663144 0.021917015 0.016857442 0.026253577
-0.03080096 -0.0070378087 -0.038867123 -0.010837784 0.012293488 -0.010775487 0.02669708 -0.009816483
00000000: 4bd6 933c 902e f93c 9b14 b9bc abaa d638
00000010: c350 f53c 6b0f 903c b25e 023d f642 2d3c
00000020: ab75 893c 6e4b a93c 6b54 7f3b 78b4 eabc
00000030: 8035 7cbb 67b9 273d 306a 693c 1eba 003d
00000040: ab61 a93b b03a b3bc a0cb 9a3b 80f2 ae3b
00000050: c8a7 033d f00f 9abc f60b dc3c cb57 34bc
00000060: c6a5 e1bc f639 02bc 1e06 e7bc 4835 d23c
00000070: d60d ce3c 0b5b 903c bbeb cbbc 76eb dbbc
00000080: 708e 9dbc 3669 24bd 2e17 afbc 7b44 c03c
00000090: 3690 493c 48f8 ca3c bb62 f83c 085e 913c
000000a0: 1bb7 b9bc 3728 253d 7e60 07bd 7000 f8bc
000000b0: 5ba4 b4bc 1e90 f93c 5654 363b e3b3 80bc
000000c0: abfe 23b9 56b0 d7bc 7fed 29bd c876 8ebc
000000d0: e667 813c 36b9 c9bc c0c3 01bc 9334 1dbd
000000e0: 703e 043d 1c5d 073d de64 9bbc a61e 27bd
000000f0: b3f2 b0bc 603a 03bc e0a8 88bb e382 f33c
00000100: 9b8b 0d3d 0044 aa39 2ee7 d53c 68c0 92bc
00000110: 73c4 933c 670d 163d 167d bdbc ab36 d139
00000120: 0bec 61bc c67a 5d3c 2aa6 0ebd 9bf2 10bd
00000130: 53c3 dc3c 60f5 a5bb 6350 a8bc 40da 1f3b
00000140: c07e fe3c 4706 0b3d 98a3 82bc c8ec 00bd
00000150: 3ef8 e6bc e222 22bd bba7 c3bc 66a3 70bc
00000160: 1093 363c b3cb b9bc f612 f9bc 267f d43c
00000170: ab3b 85ba cbf2 c2bc 4b71 e5bc 92fd 003d
00000180: c67f 813c 4b2d ef3b 130a 1c3d 603d 933b
00000190: 00ee f83b 82d0 0cbd a36d a13c 5af5 28bd
000001a0: bb22 51bc e87c a3bc c0df dd3b 9649 143c
000001b0: 70fe 31bc 2376 8fbc 56be 63bb fb71 053d
000001c0: 68d9 d6bc bf09 053d 8cae 273d 467b 0b3d
000001d0: 1626 45bc dbf7 d6bc fbb7 9abc c765 103d
000001e0: b0e7 08bc 00b5 653a b0be f63c 4b8b 4f3c
000001f0: d657 debb 188c 26bd 1b62 593c 4284 25bd
00000200: 8bc9 0bbd 2b3f 67bb ebb0 c8bc 8b67 7ebc
00000210: b8d0 81bc a02c 6cbc 8b40 1ebc 9653 dfbb
00000220: 56c1 60ba 7f90 2abd 4b08 edbb f36f 02bd
00000230: 6b03 78bc 5682 7c3a 1c58 24bd 3692 b43c
00000240: 2f6f 293d 3e88 c4bc 7bd4 483c 1e79 b1bc
00000250: 2ea6 033d f63c 093d 2b71 703b 86c6 153c
00000260: a0e6 2ebc b6f0 d83b a0b1 00bd 40c3 7ebb
00000270: bbd4 01bc 7620 8abc 0062 c33a dba6 6a3c
00000280: 009b cb3a f746 183d bb17 a1bc 003d fd3a
00000290: 4066 81bc 96a3 2e3b 236d c13c 4803 193d
000002a0: d6a3 a4bc d648 e03a e83a cb3c 7bbd 19bd
000002b0: be1a 8e3c 06fd 383c ae0e 9c3c a381 cf3c
000002c0: 3014 7b3c 7bfd 923c 6b2d d1bb 5318 cebc
000002d0: db70 9c3c d3ba 243d 8e3f 0dbd 802a b33a
000002e0: 84f9 0b3d dadd 1b3d 2b4c 223d 988f c6bc
000002f0: 1bb3 e3bc 8075 95bc 7339 dc3c 80c8 4fbc
00000300: 7640 a0bb 8846 c73c 3a54 063d c025 083c
00000310: 36ac b93c 00e7 84bb 1048 12bd 60ec e33b
00000320: 96c6 8b3b bb85 55bc b6eb 85bb 2b7b 503b
00000330: fe0c 073d 57fc 09bd db21 14bd 560e 3cbb
00000340: 1aac 29bd 43bd 0d3d cb58 92bc fe9b e63c
00000350: c82e 903c b064 55bc e689 6a3c 8613 78bc
00000360: 207e 02bd 5028 2bbc 42eb 06bd d072 bf3c
00000370: 83d9 f8bc ab40 f239 eb97 69bb 1e68 103d
00000380: 133c 213d d4e2 0ebd 087a 10bd b04a 223c
00000390: be81 24bd 0c9c 123d bbf9 7ebc cc05 283d
000003a0: a66b 3dbc 67d7 1dbd 1601 10bb fb0d 403c
000003b0: 5648 ecbb 2b87 50bc d033 ec3c 8860 1ebd
000003c0: 93fb 23bd 301e d63c 0ba2 e7bc 28b1 d73c
000003d0: e876 b13c 508b b33c 9e18 8a3c be11 d73c
000003e0: 4b52 fcbc 6b9d e6bb 2233 1fbd f690 31bc
000003f0: a06a 493c ab8b 30bc d6b3 da3c 50d5 20bc

bias f4 [64]
0.0014034759 0.013339192 0.005306249 -0.032030206 0.04089598 0.01828299 0.040749364 -0.04045733
0.0079424735 0.032430246 -0.029559955 0.029155543 -0.031493567 0.037348956 0.007637486 -0.037065096
0.034663983 0.020863712 -0.03108885 0.012213295 -0.034947135 0.012378326 -0.029283565 0.023766547
0.011482298 0.022583162 -0.033944428 0.020271536 -0.03712059 0.017428523 0.0028953552 0.039507426
0.011548887 -0.03196239 0.0010321786 0.035253957 -0.032722168 0.021157851 0.038106605 -0.030400505
-0.020629525 0.018468942 -0.008740773 -0.025192693 0.011022478 0.0309079 0.0035539716 0.028399458
0.013279915 -0.040675472 0.035032645 0.032280743 0.029362276 0.026371902 0.037572216 -0.009761622
0.007780835 0.0029726427 -0.021523044 -0.03012368 0.01953058 -0.032040715 -0.031323697 0.024538752
00000000: d6f4 b73a a08c 5a3c 0be0 ad3b 1b32 03bd
00000010: 8b82 273d 36c6 953c cee8 263d 96b6 25bd
00000020: 2621 023c 94d5 043d b827 f2bc 9bd7 ee3c
00000030: 66ff 00bd 38fb 183d e043 fa3b 92d1 17bd
00000040: d2fb 0d3d 60ea aa3c 0bae febc 461a 483c
00000050: ba24 0fbd 76ce 4a3c 16e4 efbc 10b2 c23c
00000060: 4020 3c3c 5300 b93c 5009 0bbd 7e10 a63c
00000070: c30b 18bd 43c6 8e3c 00c0 3d3b 8ad2 213d
00000080: 8b37 3d3c ffea 02bd 2b4a 873a 7466 103d
00000090: ae07 06bd 3b53 ad3c ac15 1c3d 7b0a f9bc
000000a0: 40ff a8bc 2e4c 973c 7635 0fbc e860 cebc
000000b0: a097 343c 9032 fd3c c0e9 683b fba5 e83c
000000c0: 0094 593c 539b 26bd 647e 0f3d d038 043d
000000d0: 2889 f03c e309 d83c 53e5 193d 36ef 1fbc
000000e0: 60f6 fe3b abd0 423b 1851 b0bc f0c5 f6bc
000000f0: 98fe 9f3c 203d 03bd 474d 00bd 7e05 c93c

weight f4 [256, 64]
-0.08838157 0.090025425 -0.12442894 -0.04948029 0.022707298 0.055288076 0.06622034 0.059502363
-0.076279655 -0.09815821 0.001755029 0.04826753 -0.032589316 0.0828515 0.055559143 0.05580288
0.106659025 -0.09907602 0.093501344 0.06977484 0.100636765 -0.11739263 0.05497834 -0.041185975
0.049550295 0.069895774 -0.020661801 0.09803991 -0.12377177 -0.044012517 0.034615397 -0.05376178
0.081665084 -0.02071686 -0.032432616 -0.06786689 -0.021759376 0.011784196 -0.10760698 -0.11251028
-0.11634964 0.07703768 -0.06594163 0.04993117 -0.08265142 0.028888851 0.040004507 -0.04836762
0.03673905 0.07717122 -0.022004813 0.11909549 0.012474954 0.04277733 0.1151035 0.03343375
-0.041476637 -0.06792034 -0.09153667 0.05082275 0.044209614 -0.09411001 0.0068786144 -0.009584799
0.0936071 0.08762966 -0.09859799 0.06051922 -0.09379338 -0.012949705 0.08968784 0.0774782
0.05981025 0.10664727 -0.059390217 -0.0398411 0.05252619 -0.09360759 0.014491111 -0.071439326
-0.10619621 0.0771147 -0.008552209 0.052908957 0.09149097 -0.10720618 -0.051276162 0.003174603
0.056670263 0.025317535 -0.05473125 -0.04629238 0.053352848 0.111286804 0.0011024326 0.10074282
0.022219539 -0.067439124 0.09029932 -0.124532625 -0.07735087 0.10680534 -0.082299665 -0.10764748
0.017548978 -0.065242454 -0.0654275 -0.004404351 -0.11016835 0.06594528 0.019870132 0.10197067
0.07240331 0.0796375 0.06951976 0.008561268 0.030920163 -0.010543749 0.084010735 0.07124148
0.10622987 0.07803927 0.028982535 -0.044292197 -0.058350295 -0.0712935 -0.049531832 -0.008289427
-0.11351071 0.032449096 0.118596196 0.09344824 0.057157874 -0.09363024 0.07584742 0.033067152
-0.06674251 -0.038269028 0.11028814 0.05223678 0.021266773 0.022242814 -0.09806907 -0.061173826
-0.112412825 0.05997254 -0.09576844 0.027671248 0.0153166205 -0.0077465177 0.11034587 -0.047923177
-0.075096145 -0.07527515 0.026835725 0.037976414 -0.02269949 -0.055869102 -0.08644879 -0.057596132
0.1142056 -0.08383609 -0.100984424 0.07885991 0.050367624 -0.022842005 0.029795706 0.064788446
-0.10115597 0.085647985 -0.078174785 0.007236168 0.104176044 0.065952346 -0.096399084 0.11394572
-0.09585567 -0.068814844 -0.021635175 -0.08022539 -0.07113078 0.06894642 -0.025148466 -0.035585016
-0.066992 -0.01847604 -0.08668308 0.10021046 -0.055434644 -0.03115867 0.011751249 0.10321757
0.005748585 -0.023106381 0.06375271 -0.052261055 -0.01856026 -0.03080447 0.025725186 -0.047063082
-0.021140635 0.038282394 0.052210674 -0.030243978 -0.08672799 -0.029724285 0.04612872 0.030117229
-0.020324722 -0.026113987 0.09434947 -0.02574262 -0.10764998 0.032494187 -0.11519739 -0.037544623
0.01883535 0.052255362 0.11724602 0.09103438 0.12282956 -0.047403663 0.11340067 -0.05357535
-0.10767034 -0.021628752 0.10855386 -0.06491661 -0.06645137 -0.031161606 -0.09698145 0.011587739
-0.0022212416 0.019894093 0.099849746 -0.061309516 0.038646758 0.03002572 -0.11348422 0.0552703
-0.0019201338 -0.10808265 0.1096769 0.04148002 -0.10867517 -0.06951693 -0.06278376 0.11335039
-0.09757215 0.053434595 -0.0404644 0.020526305 0.0675668 -0.123345524 0.08390325 -0.09029199
00000000: 6601 b5bd 405f b83d 9ad4 febd d8ab 4abd
00000010: a804 ba3c c075 623d 889e 873d c0b8 733d
00000020: 8238 9cbd 2c07 c9bd 0009 e63a 2cb4 453d
00000030: 607c 05bd 0cae a93d fc91 633d 9091 643d
00000040: 0c70 da3d 5ee8 cabd a27d bf3d 1ce6 8e3d
00000050: a61a ce3d 8c6b f0bd f830 613d a0b2 28bd
00000060: 40f5 4a3d 8425 8f3d f042 a9bc 26c9 c83d
00000070: 0e7c fdbd 7846 34bd e0c8 0d3d 5035 5cbd
00000080: 0640 a73d 68b6 a9bc 10d8 04bd ccfd 8abd
00000090: b840 b2bc 8012 413c 0c61 dcbd ca6b e6bd
000000a0: b848 eebd eec5 9d3d 680c 87bd a084 4c3d
000000b0: 2645 a9bd 50a8 ec3c c4db 233d 201d 46bd
000000c0: b07b 163d f20b 9e3d 7043 b4bc 56e8 f33d
000000d0: c063 4c3c 4837 2f3d 62bb eb3d d4f1 083d
000000e0: 68e3 29bd d219 8bbd 9477 bbbd 842b 503d
000000f0: 2415 353d c0bc c0bd 0066 e13b 9009 1dbc
00000100: 14b5 bf3d 2e77 b33d beed c9bd 00e3 773d
00000110: be16 c0bd 002b 54bc 42ae b73d e4ac 9e3d
00000120: 98fb 743d e269 da3d 2843 73bd 6c30 23bd
00000130: b425 573d 56b5 bfbd 206c 6d3c c84e 92bd
00000140: 667d d9bd 50ee 9d3d 901e 0cbc 10b7 583d
00000150: 9e5f bb3d ea8e dbbd f406 52bd 000d 503b
00000160: 141f 683d b866 cf3c e02d 60bd 149d 3dbd
00000170: 8488 5a3d 56ea e33d 807f 903a 4052 ce3d
00000180: c005 b63c 861d 8abd daee b83d f60a ffbd
00000190: 226a 9ebd c2bc da3d ba8c a8bd 4876 dcbd
000001a0: e0c2 8f3c d69d 85bd dafe 85bd 6052 90bb
000001b0: f29f e1bd 520e 873d b0c6 a23c 00d6 d03d
000001c0: 3048 943d fc18 a33d 6060 8e3d 9044 0c3c
000001d0: 484c fd3c b0bf 2cbc d20d ac3d 0ee7 913d
000001e0: 0c8f d93d 0ed3 9f3d c86c ed3c bc6b 35bd
000001f0: b800 6fbd 5402 92bd e4e1 4abd 60d0 07bc
00000200: 4e78 e8bd 58e9 043d 90e2 f23d ca61 bf3d
00000210: 601e 6a3d 36c1 bfbd e455 9b3d 6c71 073d
00000220: 4cb0 88bd fcbf 1cbd c0de e13d 3cf6 553d
00000230: a837 ae3c 9036 b63c 70d8 c8bd 6891 7abd
00000240: b238 e6bd c4a5 753d 3e22 c4bd d0ae e23c
00000250: 90f2 7a3c 80d6 fdbb 04fd e13d 184b 44bd
00000260: 02cc 99bd dc29 9abd 98d6 db3c 288d 1b3d
00000270: 48f4 b9bc 00d7 64bd 100c b1bd ece9 6bbd
00000280: a0e4 e93d 42b2 abbd ecd0 cebd 4e81 a13d
00000290: 484e 4e3d 281f bbbc 2016 f43c ceaf 843d
000002a0: dc2a cfbd 3668 af3d 1a1a a0bd 601d ed3b
000002b0: 405a d53d 0612 873d e26c c5bd 605c e93d
000002c0: fa4f c4bd ccee 8cbd 403c b1bc 364d a4bd
000002d0: 04ad 91bd c833 8d3d 2804 cebc 98c1 11bd
000002e0: 1a33 89bd 105b 97bc e686 b1bd 243b cd3d
000002f0: 700f 63bd 7840 ffbc 5088 403c bc63 d33d
00000300: a05e bc3b 9849 bdbc c890 823d b00f 56bd
00000310: b00b 98bc a859 fcbc a0bd d23c 38c5 40bd
00000320: 202f adbc 00ce 1c3d dcda 553d 38c2 f7bc
00000330: 729e b1bd 5880 f3bc 78f1 3c3d 68b8 f63c
00000340: 0880 a6bc 00ed d5bc 4c3a c13d 30e2 d2bc
00000350: 9877 dcbd a018 053d 9cec ebbd 64c8 19bd
00000360: 984c 9a3c b809 563d ae1e f03d 3c70 ba3d
00000370: 108e fb3d 582a 42bd 9c3e e83d d471 5bbd
00000380: 4482 dcbd c82e b1bc 7c51 de3d 00f3 84bd
00000390: a817 88bd a046 ffbc 369e c6bd 80da 3d3c
000003a0: 4092 11bb f0f8 a23c 067e cc3d b01f 7bbd
000003b0: 104c 1e3d 80f8 f53c 6a6a e8bd 1c63 623d
000003c0: 00ad fbba 705a ddbd 489e e03d f4e6 293d
000003d0: 1691 debd e45e 8ebd c694 80bd 4024 e83d
000003e0: e8d3 c7bd 3cde 5a3d 00be 25bd c826 a83c
000003f0: 7660 8a3d 949c fcbd 78d5 ab3d 02eb b8bd

bias f4 [256]
-0.090726495 0.11355561 0.09565362 -0.11938119 -0.053999722 0.072768986 -0.11812922 -0.045613855
0.03680156 -0.058122307 -0.068417266 -0.075598106 -0.04315786 -0.02491799 -0.09504171 -0.013137057
0.115673885 -0.031223223 -0.11482301 -0.11096668 -0.08571102 0.12149593 -0.02668184 0.12343554
0.0028106123 0.1099689 0.058054 -0.10000819 -0.0249383 0.06224273 -0.11287968 -0.007409811
-0.047638014 -0.06069146 -0.097289264 -0.059472963 -0.029915988 -0.040712133 0.108631164 -0.12369369
0.0042154044 0.06327979 -0.041648343 -0.0077330917 -0.10594851 -0.0656656 -0.025765806 -0.07032341
-0.047182813 0.08815743 -0.00105685 0.036352202 -0.09749046 0.050131276 0.10276182 0.09050523
-0.023894876 0.03257428 -0.072264254 -0.038462937 -0.09219514 -0.07569079 0.048266202 -0.021619722
0.11057478 -0.04708284 0.12281677 -0.057304457 -0.038306758 0.085515276 0.08849017 0.08178763
-0.054791436 0.057652205 0.055693418 0.041586384 0.092001796 -0.077024 0.010542795 -0.07429314
-0.009807155 -0.11872023 0.0027347058 0.10790594 -0.067506745 0.060511827 0.0973189 -0.06528568
-0.038290575 -0.010861456 0.0012694746 0.014148116 -0.12027635 0.09937075 -0.013076916 -0.0006104708
0.03169106 -0.12373285 0.010289878 -0.12373236 -0.021620885 -0.078328 -0.08678453 0.09621777
0.0874389 0.0133455545 -0.10777314 0.07221259 0.10505013 -0.08582866 -0.022951588 -0.07952854
-0.10076104 -0.019370124 0.054037407 -0.04217051 -0.119151205 -0.10284546 0.09759578 0.094567284
0.018093228 0.027707174 -0.12460001 -0.12476793 -0.0291055 -0.050407305 -0.082746476 0.072469145
0.079391554 0.10687412 -0.065523356 0.08581948 -0.033673912 -0.08380622 0.11876869 0.021285921
0.0426704 0.09638825 0.05139464 0.08512345 -0.025597796 0.08826958 -0.094569296 0.02068846
-0.06647757 -0.10691652 -0.120167196 -0.11525075 0.085536554 -0.073788226 -0.039828166 -0.12044683
0.0125411 -0.008194402 -0.114289686 -0.11888982 0.0701337 0.10708663 0.09883517 -0.047975257
0.045877844 -0.056917652 -0.10007851 0.10243371 0.023972303 0.12314741 0.06214288 -0.07535349
-0.030813009 0.024496213 -0.04927811 -0.01845406 -0.090277895 -0.061894223 -0.04940729 0.01032187
-0.035690308 0.050417945 0.08938359 -0.11213176 0.079144105 0.08298977 -0.093189836 0.097557515
-0.08400203 -0.061142266 0.086490765 0.09630333 0.07641895 -0.097229406 0.12176947 0.08498137
-0.047217667 -0.055728227 0.067393064 -0.10756117 -0.042881325 -0.111602336 -0.020999596 -0.08757961
-0.021925598 0.087929696 -0.021655336 -0.07262984 -0.054259315 0.0674233 -0.10581696 0.12451036
0.037759304 -0.0073798746 0.122443214 0.038036257 0.005509451 0.12453574 0.031321153 0.092044726
0.08793405 -0.013946831 -0.11047456 -0.09368625 0.12474212 -0.014818072 0.054945037 0.0628832
-0.103545874 -0.11932719 -0.08413778 0.006809339 -0.004264578 0.008701846 0.08244434 -0.020978048
-0.06547178 0.11535767 0.048785806 0.05445899 0.07540934 0.03287311 0.07725769 -0.100831136
0.12257734 0.07830061 -0.010454774 -0.017431095 -0.038499713 -0.008363932 0.050266206 0.084598795
-0.020610258 0.08307761 -0.103113085 -0.04650247 0.039096966 0.11162941 -0.09370704 0.10551663
00000000: d0ce b9bd d88f e83d 0ce6 c33d 207e f4bd
00000010: d02e 5dbd e807 953d bced f1bd 98d5 3abd
00000020: 3cbd 163d a811 6ebd 5a1e 8cbd 2ed3 9abd
00000030: 4cc6 30bd d020 ccbc 3aa5 c2bd d03c 57bc
00000040: 6ee6 ec3d d8c7 ffbc 5428 ebbd 8042 e3bd
00000050: 4289 afbd dcd2 f83d e093 dabc c6cb fc3d
00000060: 4032 383b 6037 e13d 08ca 6d3d 18d1 ccbd
00000070: 684b ccbc 3cf2 7e3d 762d e7bd 00ce f2bb
00000080: 1420 43bd 9c97 78bd 983f c7bd ec99 73bd
00000090: 6012 f5bc c4c1 26bd 047a de3d 1e53 fdbd
000000a0: 6021 8a3b d698 813d 7497 2abd e065 fdbb
000000b0: 88fb d8bd b07b 86bd d012 d3bc b805 90bd
000000c0: c442 41bd e28b b43d 0086 8aba 0ce6 143d
000000d0: 14a9 c7bd 7456 4d3d ca74 d23d ce5a b93d
000000e0: 30bf c3bc 9c6c 053d 48ff 93bd 508b 1dbd
000000f0: ced0 bcbd c603 9bbd c8b2 453d d81b b1bc
00000100: 0875 e23d f0d9 40bd 5c87 fb3d 14b8 6abd
00000110: 8ce7 1cbd a222 af3d 563a b53d 4680 a73d
00000120: fc6c 60bd b824 6c3d c81e 643d 7c56 2a3d
00000130: 706b bc3d c2be 9dbd b0bb 2c3c 0027 98bd
00000140: 30ae 20bc 9823 f3bd c038 333b cafd dc3d
00000150: fa40 8abd 40db 773d 224f c73d 80b4 85bd
00000160: 94d6 1cbd 40f4 31bc 8064 a63a 80cd 673c
00000170: 7253 f6bd e482 cb3d 9040 56bc 0008 20ba
00000180: 7cce 013d a667 fdbd e096 283c 6467 fdbd
00000190: 481e b1bc 6e6a a0bd 16bc b1bd d20d c53d
000001a0: 2a13 b33d 50a7 5a3c 2ab8 dcbd 32e4 933d
000001b0: 8624 d73d f0c6 afbd f804 bcbc dcdf a2bd
000001c0: ce5b cebd 18ae 9ebc 5456 5d3d fcba 2cbd
000001d0: 8c05 f4bd a4a0 d2bd 4ce0 c73d 7eac c13d
000001e0: 4038 943c 28fa e23c 4a2e ffbd 5486 ffbd
000001f0: a86e eebc e477 4ebd fc76 a9bd b46a 943d
00000200: 0a98 a23d d2e0 da3d 1c31 86bd 20c2 af3d
00000210: a8ed 09bd 98a2 abbd 003d f33d d05f ae3c
00000220: 28c7 2e3d 3467 c53d 3083 523d 3455 ae3d
00000230: 78b2 d1bc aec6 b43d 8cad c1bd d87a a93c
00000240: 6425 88bd 0cf7 dabd 381a f6bd 9608 ecbd
00000250: ca2d af3d 481e 97bd dc22 23bd d4ac f6bd
00000260: 3079 4d3c d041 06bc b610 eabd 827c f3bd
00000270: 42a2 8f3d 3c50 db3d 186a ca3d b481 44bd
00000280: 68ea 3b3d 7c22 69bd f6f5 ccbd c4c8 d13d
00000290: 9061 c43c b634 fc3d 8889 7e3d ee52 9abd
000002a0: 906b fcbc 48ac c83c d8d7 49bd f82c 97bc
000002b0: 9ee3 b8bd cc84 7dbd 4c5f 4abd 101d 293c
000002c0: 0030 12bd 0c83 4e3d be0e b73d 56a5 e5bd
000002d0: 4e16 a23d 8af6 a93d 50da bebd 3ccc c73d
000002e0: 4209 acbd 5070 7abd 1222 b13d ae3a c53d
000002f0: 8a81 9c3d 3620 c7bd 4662 f93d b60a ae3d
00000300: 5067 41bd 4843 64bd 6005 8a3d 0849 dcbd
00000310: 54a4 2fbd c48f e4bd 5807 acbc f05c b3bd
00000320: 509d b3bc 7c14 b43d 8866 b1bc f4be 94bd
00000330: 043f 5ebd 3a15 8a3d 90b6 d8bd 4aff fe3d
00000340: 80a9 1a3d e0d2 f1bb 82c3 fa3d e8cb 1b3d
00000350: a088 b43b 980c ff3d 9c4a 003d f281 bc3d
00000360: c416 b43d 4081 64bc 7c40 e2bd 94de bfbd
00000370: cc78 ff3d 80c7 72bc 0c0e 613d e8c8 803d
00000380: dc0f d4bd d061 f4bd 6e50 acbd e020 df3b
00000390: e0bd 8bbb 3092 0e3c 94d8 a83d 28da abbc
000003a0: 1216 86bd a440 ec3d a0d3 473d 6410 5f3d
000003b0: 3670 9a3d f4a5 063d 4839 9e3d 8e80 cebd
000003c0: d409 fb3d 125c a03d 804a 2bbc a8cb 8ebc
000003d0: e0b1 1dbd e008 09bc f0e3 4d3d 2242 ad3d
000003e0: d8d6 a8bc 9824 aa3d f42c d3bd 6079 3ebd
000003f0: 2424 203d f69d e43d 7ae9 bfbd 1a19 d83d
