cnn_models/cnn_model_ver7.pth (torch, 383720 bytes, 8 tensors)

weight f4 [32, 4, 8, 8]
0	0xbd13449c	-0.035954103
1	0xbc7e3e68	-0.0155178085
2	0x3d3141c2	0.043275602
3	0x3ba12bc0	0.0049185455
4	0x3d1b4d9e	0.03791582
5	0xbd262e16	-0.040571295
6	0x3cbf51bc	0.023354404
7	0xbd3149ae	-0.043283157
8	0x3d4a3342	0.04936529
9	0x3d1ad292	0.03779847
10	0xbbf2ce70	-0.007409863
11	0x3ce34400	0.027742386
12	0xbd11c768	-0.03559056
13	0x3d51cdc8	0.05122164
14	0xbcddbfbc	-0.027068965
15	0xbd29766a	-0.041372694
16	0x3cb1ea18	0.02171807
17	0xbd0676fa	-0.03282831
18	0xbc69aea0	-0.014262825
19	0x3bc58c80	0.006028712
20	0x3d12c742	0.03583456
21	0x3d7a7a06	0.061151527
22	0x3c678568	0.014130928
23	0x3d19208e	0.037384562
24	0x3c09bef0	0.008407339
25	0x3d5bfe7c	0.053709492
26	0x3cfa53d8	0.030557558
27	0x3d0dff04	0.03466703
28	0x3d62e3e4	0.055393115
29	0x3d5722ca	0.05252341
30	0x3c889ee4	0.016677327
31	0x3cb1525c	0.021645717
32	0xbca72c2c	-0.020406805
33	0xbd63d9a2	-0.055627473
34	0xbd61ab7e	-0.05509519
35	0x3d08855c	0.033330306
36	0x3b1e8260	0.0024186596
37	0xbccce914	-0.025013484
38	0xbd2c6dee	-0.042097025
39	0xbcd04e98	-0.025428101
40	0xbd33a16e	-0.043855123
41	0xbc42d678	-0.011891954
42	0x3c91f094	0.017814912
43	0x3cdc5748	0.026897088
44	0xbd1dddb0	-0.038541496
45	0x3ab9aec0	0.001416646
46	0xbb99ad80	-0.0046898723
47	0xbce9410c	-0.0284734
48	0x3d3332b4	0.043749526
49	0x3c86baf0	0.01644656
50	0xbc733830	-0.014844939
51	0xbcc7e280	-0.024399996
52	0x3cdbd88c	0.026836656
53	0xbc8d6ca4	-0.017263718
54	0xbc4e1fb0	-0.012580797
55	0xbd3379f8	-0.04381749
56	0x3cd1f024	0.025627203
57	0x3d3dbdba	0.046323515
58	0x3aee4680	0.001817897
59	0x3d2d4226	0.042299412
60	0x3cdab1cc	0.026696108
61	0xbd728e9a	-0.059218027
62	0x3ce40714	0.027835406
63	0xbd431498	-0.04762706
64	0xbd5f691a	-0.054543592
65	0xbc240468	-0.010010816
66	0xbc366680	-0.011132836
67	0x3d4af262	0.04954756
68	0x3c06eda0	0.008235365
69	0xbd61423a	-0.0549948
70	0xbcbc9460	-0.02301997
71	0xbc07f438	-0.008297972
72	0x3c4f82b8	0.012665443
73	0xb9fe7900	-0.00048536807
74	0xbcfdbc04	-0.030973442
75	0x3b2198e0	0.002465777
76	0xbc8bdf84	-0.017074354
77	0x3add95c0	0.0016905591
78	0x3cf6d648	0.030131474
79	0x3bf766d0	0.007550098
80	0x3ccc1580	0.024912596
81	0x3bd7eb00	0.0065892935
82	0xbcaf56f4	-0.021403767
83	0xbc9b46a0	-0.018954575
84	0x3d7d9bbc	0.061916098
85	0x3c8badc0	0.017050624
86	0xbd6f872e	-0.058478527
87	0x3d2c2f4a	0.042037286
88	0xbd7c97e2	-0.061668284
89	0xbbcbf9b0	-0.0062248334
90	0xbd0807c4	-0.03321053
91	0xbc6be6c8	-0.014398284
92	0xbc1153c0	-0.008870065
93	0xbcf08e0c	-0.029364608
94	0x3ceb5dcc	0.02873125
95	0x3c9ee19c	0.019394688
96	0xbd0c0fd6	-0.03419479
97	0x3bcc8770	0.0062417313
98	0xbbe21b20	-0.006900206
99	0x3d03c842	0.032173403
100	0x3ced29b4	0.02895055
101	0x3d2764c0	0.040867567
102	0x3cacd440	0.021097302
103	0xbce75734	-0.028239824
104	0x3d302738	0.043006152
105	0x3d10c1ec	0.03534119
106	0xbcb12004	-0.021621712
107	0xbd308360	-0.04309404
108	0x3d4405ca	0.047857083
109	0x3d1cce28	0.038282543
110	0xbc167040	-0.009182036
111	0x3d13172c	0.03591077
112	0x3c841b50	0.016126305
113	0x3d5be6fc	0.05368708
114	0x3d332702	0.043738373
115	0xbd4c05c8	-0.0498102
116	0xbb91c820	-0.0044489056
117	0x3b180e00	0.0023201704
118	0xbcb1e40c	-0.021715187
119	0xbd38cfaa	-0.04511992
120	0x3ce427f0	0.027851075
121	0xbd38a77e	-0.045081608
122	0xbd6f51bc	-0.058427557
123	0xbd794afc	-0.060862526
124	0x3cf4d418	0.02988629
125	0x3cbe35e4	0.023219056
126	0xbc9c5f34	-0.019088365
127	0xbd05fd74	-0.032712415
128	0xbc1c2080	-0.009529233
129	0xbc81b60c	-0.015833877
130	0x3c347120	0.011013299
131	0xbbad4210	-0.0052874163
132	0x3d1fce78	0.039015263
133	0xbd57f270	-0.05272144
134	0x3d129f96	0.035796724
135	0x3c6b8d78	0.0143769905
136	0x39940700	0.00028233975
137	0xbd56c9d0	-0.052438557
138	0xbb410820	-0.0029454306
139	0xbd590b10	-0.052989066
140	0xbd6e596a	-0.05819074
141	0xbcfd41dc	-0.030915193
142	0xbd52444a	-0.051334657
143	0xbd2b52e8	-0.041827112
144	0x3d7b370e	0.0613318
145	0xbcfff7b8	-0.031246051
146	0x3bdd5ed0	0.0067556873
147	0x3afa6080	0.0019102246
148	0x3cf514e4	0.029917188
149	0xbd6b8cca	-0.057507314
150	0xbd2261ac	-0.03964393
151	0x3d49c5b8	0.049260825
152	0xbd419d08	-0.047268897
153	0xbd059264	-0.032610312
154	0x3cf80324	0.030274935
155	0xbb951810	-0.0045499876
156	0xbd0b60a0	-0.034027696
157	0x3c0ac670	0.008470163
158	0xbd558586	-0.05212929
159	0x3c944cb8	0.018102989
160	0xbd1bd674	-0.038046315
161	0x3d515954	0.05111058
162	0x39c5b800	0.0003771186
163	0xbd161714	-0.036643103
164	0x3b05f940	0.0020442754
165	0xbb40e480	-0.0029433072
166	0x3b9dab30	0.004811667
167	0x3d510d8c	0.05103831
168	0xbd220acc	-0.039561078
169	0xbd7a0656	-0.0610412
170	0x3cd5fa50	0.026120335
171	0xbd0e018c	-0.034669444
172	0xbc9d1cc8	-0.019178763
173	0x3cf77928	0.030209139
174	0xbcda0c30	-0.02661714
175	0xbd4d2212	-0.05008132
176	0xbd26d446	-0.040729783
177	0xbc127b78	-0.00894057
178	0x3d2709ec	0.040780947
179	0x3d00c01a	0.031433202
180	0xbd1a4618	-0.037664503
181	0xbccd89f8	-0.025090203
182	0xbc4241e8	-0.011856534
183	0x3b86d7a0	0.00411506
184	0x3d7cb84a	0.06169919
185	0xbd002714	-0.031287268
186	0xbc34f938	-0.0110457465
187	0x3c5efce8	0.013610102
188	0x3d147a36	0.036249362
189	0x3d7e2fcc	0.0620573
190	0xbd1b1816	-0.037864767
191	0xbd07ac7e	-0.033123486
192	0x3c0db900	0.0086500645
193	0xbc019ed0	-0.007911399
194	0x3bace2a0	0.0052760392
195	0xbd1f8b58	-0.038951248
196	0xbc93b88c	-0.018032335
197	0x3d52fb6c	0.051509306
198	0x3c3c71b0	0.011501715
199	0xbb622180	-0.003450483
200	0x3d0e5948	0.034753114
201	0xbcf4cb40	-0.029882073
202	0xb9e31f00	-0.0004331991
203	0xbd0bdd5c	-0.03414665
204	0x3c980df0	0.018561333
205	0xbd32f372	-0.0436892
206	0x3d11663c	0.03549789
207	0xbd0b076a	-0.033942617
208	0x3ca91a80	0.020642519
209	0xbc8d8b64	-0.01727838
210	0x3d533c70	0.05157131
211	0xbd5faed2	-0.05461008
212	0x3cd4eb10	0.025990993
213	0xbcd5a8e4	-0.02608151
214	0xba9e8e80	-0.0012096912
215	0xbc6df308	-0.014523275
216	0xbcf9ba7c	-0.03048443
217	0xbd110ff6	-0.035415612
218	0x3d5cce2a	0.05390755
219	0x3d1f0a9e	0.038828485
220	0xbd1959b4	-0.037439063
221	0x3cf7d650	0.03025356
222	0x3d64640c	0.055759475
223	0xbd6af7e6	-0.05736532
224	0xbd36fd6c	-0.044675276
225	0x3d634a84	0.055490986
226	0x3b4922a0	0.0030690804
227	0x3d151f1e	0.03640663
228	0x3ce90e64	0.028449245
229	0x3cf7159c	0.030161671
230	0x3d60975a	0.05483184
231	0x3d3d49cc	0.046212956
232	0x3d50f0d2	0.051010914
233	0xbd07d150	-0.0331586
234	0xbd7510b4	-0.059830382
235	0xbd2e87ea	-0.042610087
236	0xbd119b48	-0.03554848
237	0xbd480a56	-0.048837982
238	0x3ceffcc8	0.02929534
239	0xbd70e7fc	-0.058814988
240	0xbcedab14	-0.02901224
241	0x3cfadc8c	0.030622743
242	0xbd4d885a	-0.050178863
243	0x3d3e138a	0.046405353
244	0x3c9269c4	0.017872699
245	0x3b7a0a80	0.003815323
246	0x3c0c59e0	0.00856635
247	0xbbf90b70	-0.0076002404
248	0xbd549ab2	-0.05190534
249	0x3d0cacec	0.0343446
250	0x3d5e3bae	0.054256134
251	0xbc86c2b0	-0.016450256
252	0x3d1dd7e6	0.038535975
253	0xbc65bfa8	-0.014022745
254	0xbd4bc59a	-0.049748994
255	0xbb47b3e0	-0.0030472204

bias f4 [32]
0	0xbcf48e84	-0.029853113
1	0x3c97029c	0.018433861
2	0xbd615a5a	-0.055017807
3	0x3d205f24	0.039153233
4	0xbc8522f4	-0.016252019
5	0x3bfa9d70	0.0076481625
6	0x3d1726a6	0.036902092
7	0x3b278140	0.0025559217
8	0x3a781800	0.00094640255
9	0xbcc3dae0	-0.023908079
10	0xbcfd8648	-0.03094782
11	0xba9be040	-0.0011892393
12	0xbd08d4c2	-0.033406027
13	0x3d4007fe	0.046882622
14	0x3ca84458	0.020540401
15	0xbd4695c4	-0.04848267
16	0x3cebe010	0.028793365
17	0xbd7b76c4	-0.06139256
18	0xbd785b46	-0.06063392
19	0x3d282eca	0.041060247
20	0x3c6c7130	0.014431283
21	0xbd466ef8	-0.04844567
22	0x3d05d44a	0.032673158
23	0x3beabac0	0.0071633756
24	0xbae0bd80	-0.0017146319
25	0xbcc23094	-0.023704804
26	0xbd1742bc	-0.036928877
27	0xbc90eed0	-0.017692
28	0x3d0fd714	0.035117224
29	0x3d44e2d2	0.048067875
30	0xbcbfde58	-0.023421451
31	0xbd183cfa	-0.037167527

weight f4 [64, 32, 4, 4]
0	0xbb85e1b0	-0.004085742
1	0xbd0b7ab7	-0.034052577
2	0x3c99a0f8	0.018753514
3	0xbcbfdb70	-0.023420066
4	0x3d226dae	0.03965538
5	0xbc33e911	-0.01098086
6	0x3c582cd9	0.013194286
7	0xbcfd0857	-0.030887766
8	0x3d08da49	0.033411298
9	0xbd0fbf68	-0.03509465
10	0xbc960e92	-0.018317495
11	0xbd258237	-0.040407386
12	0x3cf44d8a	0.02982213
13	0xbbc572c7	-0.0060256454
14	0x3cb727c6	0.022357833
15	0x3c9d91b1	0.01923451
16	0xbcd6497d	-0.026158089
17	0x3c1fecb5	0.009761025
18	0xbd2c1ff0	-0.042022645
19	0x3d1a81ff	0.03772163
20	0xbb887527	-0.0041643563
21	0x3cb637a0	0.022243321
22	0xbd07a5b1	-0.033117
23	0x3d033c87	0.032040145
24	0xbc8f613d	-0.017502422
25	0xbd1af1f5	-0.037828404
26	0xbd0220d7	-0.0317696
27	0x3d262136	0.040559016
28	0x3d0217b5	0.03176089
29	0xbccb212a	-0.024796087
30	0x3cc4aa6c	0.024007045
31	0xbc3050bf	-0.010761439
32	0x3d22bbbf	0.03972983
33	0xbd269c22	-0.040676244
34	0xbcd4c70b	-0.025973817
35	0x3cbba97a	0.022907961
36	0x3d0ce043	0.03439356
37	0xbc4db04c	-0.0125542395
38	0xbbd91769	-0.006625105
39	0xbc2507e2	-0.01007268
40	0xbbe51846	-0.006991419
41	0xbd1c6b87	-0.038188484
42	0x3d1bc845	0.03803279
43	0xbd04c87c	-0.03241776
44	0x3cdc6cfd	0.026907438
45	0x3c94d470	0.018167704
46	0x3d2e0ff8	0.042495698
47	0x3cef216a	0.029190738
48	0xbc953ca6	-0.018217396
49	0x3c28a588	0.010293372
50	0xbc4a4a83	-0.012346867
51	0x3d090b79	0.033458207
52	0x3c393f93	0.011306661
53	0xbccef9e3	-0.02526564
54	0xbd161b18	-0.036646932
55	0xbcde465d	-0.027133161
56	0xbd1916e2	-0.03737534
57	0xbc968752	-0.018375073
58	0x3cfe3e6a	0.03103562
59	0x3c9e7254	0.019341625
60	0x3c6005ce	0.013673259
61	0x3ce8fcec	0.028440915
62	0xbcb172a9	-0.02166112
63	0x3d1ae6fa	0.037817933
64	0xbc7720ff	-0.0150835505
65	0x3c6ec649	0.014573642
66	0x3d1ffde2	0.03906048
67	0x3c6687dc	0.014070477
68	0xbd041836	-0.03224965
69	0x3c81cadc	0.015843801
70	0x3bd0ad4c	0.006368315
71	0x3d12f2ba	0.035876013
72	0xbd32a787	-0.043616798
73	0xbd23aa53	-0.039957356
74	0x3bdfe99c	0.0068332683
75	0x3c77c84b	0.015123437
76	0xbd0fd6c4	-0.035116926
77	0x3d03387a	0.032036282
78	0xbc60a7ab	-0.01371185
79	0xbc18897c	-0.009310123
80	0xbbb3ef47	-0.0054911706
81	0x3caef989	0.021359222
82	0xbca75a4c	-0.0204288
83	0xbc9d477a	-0.019199122
84	0xbd308a81	-0.043100838
85	0x3bde5dfc	0.006786106
86	0x3cbe26f4	0.023211934
87	0xbd015f5a	-0.031585075
88	0x3d106c58	0.035259575
89	0x3d17f624	0.037099972
90	0xbc58c804	-0.013231281
91	0x3cafda70	0.021466464
92	0xbc1d6149	-0.009605714
93	0xbcc6b302	-0.02425528
94	0x3d2192a6	0.039446495
95	0x3d2a8cf6	0.041638337
96	0xbc87099f	-0.01648408
97	0xbcb00d6d	-0.021490777
98	0xbcd1a225	-0.025590012
99	0xbd0db0b7	-0.034592357
100	0xbc3aea12	-0.011408346
101	0xbb1c629e	-0.0023862491
102	0xbccb7620	-0.0248366
103	0x3cca6b6d	0.024709428
104	0xbc705b04	-0.014670137
105	0xbd0f7de2	-0.03503216
106	0x3bbf5993	0.0058395355
107	0xbd0b2d92	-0.033979006
108	0x3c066393	0.008202451
109	0xbc0f3c37	-0.008742384
110	0xbcb89567	-0.022532178
111	0x3c174941	0.009233774
112	0x3d05d117	0.032670107
113	0x3ce2a92e	0.027668562
114	0xbd02b767	-0.031913187
115	0x3d2c1bd8	0.04201874
116	0xbc67be3c	-0.0141444765
117	0xbcd5a1f8	-0.02607821
118	0xbb575bca	-0.0032861107
119	0xbd30c47b	-0.04315613
120	0x37d33436	2.5177473e-05
121	0x3b12fbb7	0.0022427866
122	0xbcda511f	-0.02665001
123	0x3d000e66	0.03126373
124	0xbb806313	-0.0039180606
125	0x3d26778f	0.040641364
126	0x3c0a6020	0.00844577
127	0xbd124bd7	-0.035716858
128	0xbd2e056b	-0.042485636
129	0xbc7ca5f4	-0.015420426
130	0xbd263e81	-0.040586952
131	0x3c349e33	0.011024046
132	0x3c89a55a	0.016802479
133	0x3c93d644	0.018046506
134	0x3cdbd890	0.026836663
135	0x3d1baae1	0.03800476
136	0x3c9a88cd	0.01886406
137	0xbd34daf3	-0.04415412
138	0x3b753e55	0.0037421186
139	0x3cbbf9c9	0.022946255
140	0x3c562fc1	0.013072909
141	0xbd1140c0	-0.03546214
142	0xbd203f4f	-0.039122876
143	0x3c6645bf	0.014054715
144	0x3cfd45f2	0.030917142
145	0x3c9220e0	0.017837942
146	0xbce3f172	-0.027825091
147	0x3c6ef61b	0.014585043
148	0x3cf1cfaf	0.029517977
149	0xbd0f6382	-0.035007007
150	0xbc3a0229	-0.011353054
151	0xbcc725e1	-0.024310054
152	0xbc4d7656	-0.0125404205
153	0x3ca12bcd	0.019674206
154	0xbcdfcd89	-0.027319686
155	0xbd22eda3	-0.03977741
156	0x3cf8c6d2	0.030368242
157	0x3d00f2ab	0.031481426
158	0xbc6a37bd	-0.014295516
159	0xbcc1a120	-0.0236364
160	0xbd19149f	-0.03737318
161	0x3d17bd1d	0.037045587
162	0x3c754d01	0.014971972
163	0x3c9cff57	0.019164724
164	0xbcf19f67	-0.029494954
165	0xbd090934	-0.033456042
166	0xbbcf8adb	-0.0063336915
167	0x3ca83de8	0.020537332
168	0xbd1d16da	-0.03835187
169	0x3c799bbc	0.015234884
170	0xbc08bade	-0.008345334
171	0x3c8c67bd	0.01713931
172	0x3bc02889	0.005864207
173	0xbc2f59ca	-0.01070256
174	0x3d071054	0.032974556
175	0x3c537752	0.012906866
176	0x3cf26e49	0.029593604
177	0xbd1b0e10	-0.037855208
178	0xbbb59cfa	-0.0055423947
179	0xbd2b6a13	-0.041849207
180	0xbd337a27	-0.043817665
181	0xbcccaaf4	-0.02498386
182	0xbcd143de	-0.025545057
183	0xbc8478da	-0.016170908
184	0xbca30845	-0.019901404
185	0x3c3f7ac3	0.0116869835
186	0xbc2297d7	-0.009923897
187	0xbc900569	-0.017580705
188	0x3c2e9a62	0.010656925
189	0xbc8609bd	-0.016362065
190	0x3c77ca05	0.015123849
191	0x3cf36566	0.029711436
192	0xbc7abb05	-0.015303378
193	0xbc916929	-0.01775034
194	0x3c1544de	0.0091106575
195	0xbbfe182a	-0.0077543454
196	0xbcc7eaa7	-0.024403883
197	0x3d1ef37e	0.03880643
198	0xbd070af5	-0.032969434
199	0x3d1fa419	0.038974855
200	0xbcd28ea9	-0.025702791
201	0x3d0eeed9	0.03489575
202	0xbcab0d88	-0.020880476
203	0x3cbe5654	0.023234524
204	0xbc3dc9f2	-0.011583792
205	0x3a466068	0.0007567466
206	0x39f2cc19	0.00046309902
207	0xbd29d6f3	-0.041464757
208	0x3d22eeae	0.039778404
209	0xbb9528f5	-0.0045520016
210	0x3ca9f1dc	0.02074521
211	0xbd0423bd	-0.032260645
212	0x3c954023	0.01821906
213	0x3d212f09	0.039351497
214	0x3a0d4226	0.000538858
215	0xbd177777	-0.036979165
216	0xbccaa37f	-0.024736164
217	0xbc3a749a	-0.011380339
218	0xbd0353d1	-0.032062355
219	0x3ca7bf20	0.020476878
220	0xbd26b959	-0.040704105
221	0xbd15edd8	-0.03660378
222	0x3cbda426	0.023149561
223	0x3d25c051	0.04046661
224	0x3d2160ec	0.039399073
225	0xbcf030c7	-0.029320134
226	0xbad2fa3b	-0.0016096303
227	0x3d0ba102	0.034089096
228	0x3cc83327	0.024438454
229	0x3c5537f0	0.013013825
230	0x3cf10935	0.029423336
231	0x3c9fa82f	0.019489376
232	0x3c42abc2	0.011881771
233	0x3cdb3333	0.026757812
234	0x3c57d750	0.013173893
235	0xbc7221dd	-0.014778581
236	0x3a15aed3	0.000570995
237	0x3d2ac098	0.041687578
238	0x3d0fae1f	0.035078164
239	0xbd2d9ac3	-0.04238392
240	0x3c9e389d	0.019314105
241	0xbc8eb4c2	-0.017420176
242	0x3b290a95	0.002579366
243	0x3ba69541	0.0050837104
244	0xbc4ccfca	-0.012500713
245	0x3c649b62	0.013953062
246	0x3c2b1621	0.010442288
247	0x3ce71de6	0.028212499
248	0x3d1e2e60	0.038618445
249	0x3c3c11b5	0.011478831
250	0xbd132e29	-0.035932694
251	0x3cab89f6	0.020939808
252	0x3d276a88	0.04087308
253	0xbd2322a6	-0.039827965
254	0x3b9e350b	0.0048281006
255	0x3bc483bb	0.005997149

bias f4 [64]
0	0x3c726a2a	0.014795819
1	0xbcdaccb0	-0.02670893
2	0xbcd8f241	-0.026482703
3	0xbd000f56	-0.031264625
4	0xbc478532	-0.012177752
5	0x3ca8a32d	0.02058562
6	0xbcc77237	-0.024346454
7	0x3c3bb672	0.011457073
8	0xbce78159	-0.02825992
9	0xbd272a3c	-0.040811762
10	0x3d09f8bb	0.033684473
11	0x3d10db7e	0.035365574
12	0xbabfd847	-0.0014636599
13	0xbd1bf133	-0.038071822
14	0x3cf5c62c	0.030001722
15	0xbc870394	-0.016481198
16	0x3c9819aa	0.018566925
17	0xbcb5f09b	-0.022209456
18	0xbd25f1fc	-0.040513977
19	0xba97691e	-0.0011551713
20	0xbba0e7f9	-0.004910466
21	0xbd105a47	-0.035242345
22	0x3c9d97b0	0.01923737
23	0xbbf56d44	-0.007489832
24	0x3c0c8b18	0.008578084
25	0x3ba82838	0.0051317476
26	0xbba6c4da	-0.0050893845
27	0x3c96f10b	0.018425485
28	0xbbceb346	-0.006307992
29	0xbc399fa7	-0.011329568
30	0x3c4eb768	0.01261697
31	0xbc2a5083	-0.010395172
32	0xbcda8660	-0.026675403
33	0xbd09affe	-0.033615105
34	0xb995ad69	-0.00028548695
35	0xbd2f1c4a	-0.042751588
36	0x3c09fc5c	0.008421984
37	0x3cec6a16	0.02885918
38	0x3bf27460	0.007399127
39	0xbad52850	-0.0016262624
40	0xbbee6794	-0.007275531
41	0xbd2f1aca	-0.042750157
42	0x3cbe076f	0.023196904
43	0xbc5f26e4	-0.013620112
44	0xbc9e4261	-0.019318761
45	0xbcd6de55	-0.026229063
46	0x3c4a1caf	0.01233594
47	0xbca344e2	-0.019930307
48	0xbcba4da8	-0.022742108
49	0xbc49308d	-0.012279642
50	0x3caae400	0.020860672
51	0xbcfcd0ee	-0.030861344
52	0xbd256e9c	-0.04038869
53	0xbc5da650	-0.0135284215
54	0x3c55697a	0.013025636
55	0x3d12a3e2	0.035800822
56	0xbc72a5ea	-0.014810065
57	0xbd005494	-0.03133066
58	0x3d3238df	0.043511268
59	0x3b14c931	0.0022702927
60	0xbb5d630d	-0.0033780963
61	0x3d050456	0.03247484
62	0xbcce825a	-0.02520864
63	0xbbfc033a	-0.0076908143

weight f4 [64, 64, 3, 3]
0	0xbc9ba0f6	-0.01899765
1	0x3a833880	0.0010011345
2	0xbd0f999c	-0.035058603
3	0x3c09bd9b	0.008407022
4	0xbca93d08	-0.020658985
5	0xbd1ae48f	-0.037815627
6	0x3c910bb8	0.017705783
7	0x3cb978f8	0.02264069
8	0x3c23a100	0.009987116
9	0xbcd53bb3	-0.026029443
10	0xbc82d080	-0.015968561
11	0x3c300ef6	0.010745754
12	0x3bf1876b	0.0073708794
13	0xbcee1776	-0.029063921
14	0x3cc9bd50	0.024626404
15	0x3c886153	0.01664797
16	0x3c815d36	0.015791517
17	0xbc048d6b	-0.008090357
18	0x3c8224be	0.01588666
19	0xbcd63753	-0.026149428
20	0xbc9f8698	-0.019473359
21	0xbcd2ac40	-0.0257169
22	0xbc8551c8	-0.016274348
23	0x3d26876b	0.04065649
24	0xbc191ae0	-0.009344786
25	0x3ca2c50e	0.019869354
26	0x3c0bc30b	0.008530389
27	0xbb262d16	-0.0025356463
28	0x3d16f760	0.03685701
29	0xbce84b4b	-0.028356215
30	0xbc6ac0a6	-0.0143281575
31	0x3ce4ba30	0.027920812
32	0x3cd73d30	0.026274294
33	0xbce58a80	-0.028020144
34	0xbcd6ae63	-0.026206201
35	0x3cec183b	0.028820148
36	0xbcd4b833	-0.02596674
37	0xbd285126	-0.041093014
38	0xbb7724d6	-0.0037711165
39	0x3c4cc810	0.0124988705
40	0x3c22dec0	0.009940803
41	0x3cb3378b	0.02187707
42	0x3bc6ced6	0.0060671372
43	0xbd0f7ed3	-0.03503306
44	0x3c32cfb6	0.01091378
45	0x39025000	0.00012427568
46	0xbc8bfc8e	-0.0170882
47	0xbc41b25b	-0.011822308
48	0x3d1ea9a3	0.038735997
49	0xbb534d96	-0.003224229
50	0x3ba4f8c0	0.005034536
51	0x3cb92efb	0.02260541
52	0x3c28218b	0.0102619035
53	0xbcf48f2b	-0.029853424
54	0x3c96d558	0.018412277
55	0xbc069800	-0.008214951
56	0xbc0dae7b	-0.008647556
57	0xbd18ebc2	-0.03733421
58	0xbba47c8b	-0.0050197295
59	0xbc2b1c7b	-0.010443802
60	0x3d06b898	0.032890886
61	0xbc2b1fcb	-0.010444592
62	0xbd0d2f34	-0.034468845
63	0x3c810346	0.015748631
64	0xbca87630	-0.020564169
65	0xbc807bd6	-0.01568405
66	0x3d1c4173	0.038148355
67	0x3d062750	0.032752335
68	0xba990580	-0.0011674613
69	0xbc662666	-0.014047241
70	0xbc2a69d6	-0.01040121
71	0x3cbb6210	0.022873908
72	0xbcff0583	-0.031130558
73	0x3bf27240	0.0073988736
74	0x3cb2e3ee	0.021837201
75	0x3c9841fb	0.01858615
76	0xbc0e099b	-0.008669282
77	0xbd165dc7	-0.036710527
78	0x3c44cb8b	0.012011419
79	0xbc8f6468	-0.017503932
80	0x3cd01db3	0.025404787
81	0xbaa2ad80	-0.0012411326
82	0x3c7f4eb0	0.015582725
83	0xbcee24f3	-0.029070353
84	0x3bdab3ab	0.00667425
85	0xbb00dfd6	-0.0019664667
86	0xbc78bf80	-0.015182376
87	0xbd1d0ae6	-0.03834047
88	0xbcb9ec80	-0.02269578
89	0x3c804fc8	0.015663043
90	0xbcc6946b	-0.024240693
91	0xbd06df52	-0.03292782
92	0x3cc9d598	0.024637982
93	0x3cc07de8	0.023497537
94	0x3ce4f198	0.027947232
95	0xbc8bf880	-0.017086267
96	0x3ba4eb16	0.0050329072
97	0xbd1b9fb6	-0.03799411
98	0x3d29f966	0.04149761
99	0x3c997ac0	0.01873529
100	0xbd05947c	-0.03261231
101	0x3ce2d880	0.027691126
102	0x3b8e4df6	0.0043427898
103	0xbd05e2df	-0.032687064
104	0x3c3a35bb	0.011365349
105	0x3cb0e966	0.021595668
106	0xbcaec486	-0.021333944
107	0x3c2a9590	0.010411635
108	0x3d0d85c3	0.034551393
109	0x3d27847c	0.04089783
110	0x3d053783	0.032523643
111	0xbd244dd6	-0.040113293
112	0xbcd59718	-0.026073024
113	0x3cf0a063	0.029373353
114	0x3c14c26b	0.009079556
115	0xbd0527e3	-0.032508742
116	0x3ca97c78	0.020689234
117	0xbc577440	-0.013150275
118	0xbd269bde	-0.04067599
119	0x3d087fbf	0.033324953
120	0xbc4780d0	-0.012176707
121	0x3cf4ecee	0.029898133
122	0x3c1f522b	0.00972418
123	0x3bd081d6	0.006363134
124	0x3b829f76	0.0039862944
125	0x3cbe5c4b	0.023237368
126	0x3b8c1a4b	0.0042755953
127	0xbd263b3c	-0.040583834
128	0x3b4e47c0	0.0031475872
129	0xbd210233	-0.039308738
130	0x3d265ad0	0.04061395
131	0xbd01bd6a	-0.03167478
132	0x3c271e6b	0.010200123
133	0xbc9d0486	-0.019167196
134	0xbca00bd8	-0.019536898
135	0xbcf77090	-0.030205041
136	0xbbade88b	-0.0053072623
137	0xbc01b286	-0.007916098
138	0x3b8abbf6	0.0042338325
139	0xbc5a93c0	-0.01334089
140	0xbbdf2736	-0.006810094
141	0x3ce78cde	0.028265413
142	0xbc4bc9e6	-0.012438273
143	0xbd0e9733	-0.034812164
144	0xbc0eb530	-0.008710191
145	0x3c97898b	0.018498203
146	0x3d013047	0.03154018
147	0xbc3fbaab	-0.01170222
148	0x3ca725b6	0.020403724
149	0xbc300d2b	-0.010745327
150	0x3d0b23fc	0.033969864
151	0x3cace5f3	0.021105742
152	0x3c1671b6	0.009182384
153	0xbd1d61c3	-0.03842331
154	0xbd1ff72c	-0.03905408
155	0x3ad86556	0.0016509693
156	0xbc456720	-0.012048513
157	0xbcdec170	-0.027191848
158	0x3ccdd5e0	0.025126398
159	0xbcae6ef0	-0.021293133
160	0xbc45ff10	-0.012084737
161	0xbc81ddbe	-0.015852805
162	0x3bbbf520	0.0057360083
163	0xbd1c35c2	-0.038137205
164	0x3c31655b	0.010827388
165	0xbb001440	-0.001954332
166	0xbc806528	-0.015673235
167	0xbab2182b	-0.0013587525
168	0x3d18cee6	0.03730669
169	0xbd1b2417	-0.037876215
170	0xbb9ed9c0	-0.004847735
171	0xbcc9a130	-0.024612993
172	0xbb8540ab	-0.004066547
173	0xbcb343bb	-0.021882882
174	0xbcef9543	-0.029245978
175	0xbbe9d0e0	-0.0071354955
176	0x3d203b5c	0.03911911
177	0x3bbccc56	0.0057616634
178	0xbc492ec0	-0.0122792125
179	0xbb978800	-0.0046243668
180	0xbcaa3856	-0.020778816
181	0xbc81592e	-0.015789595
182	0x3b033780	0.0020022094
183	0x3c88d7de	0.016704496
184	0xbd0bd35f	-0.034137126
185	0x3d0d909a	0.03456173
186	0x3bdbdb60	0.006709501
187	0x3d172e22	0.03690923
188	0x3c4aa270	0.01236783
189	0x3c80223e	0.015641328
190	0x3c1c363b	0.009534414
191	0x3c4c3210	0.012463108
192	0x3d086a9e	0.033304803
193	0xbcb35183	-0.021889454
194	0xbae3b4ab	-0.0017372569
195	0xbc53b5c6	-0.012921756
196	0x3c90446e	0.017610755
197	0xbd2581d0	-0.040407002
198	0x3cf66556	0.030077618
199	0xbcdd6ad3	-0.027028477
200	0x3d002468	0.03128472
201	0xbcfdaef3	-0.030967211
202	0x3bf385a0	0.007431701
203	0x3cb01b5b	0.02149742
204	0x3ce1037e	0.027467486
205	0xbc245450	-0.010029867
206	0x3cb6e94b	0.02232804
207	0xbb34f956	-0.0027614436
208	0x3bc789a0	0.006089404
209	0x3d0dafec	0.0345916
210	0x3cec8738	0.028873071
211	0xbcb6e200	-0.022324562
212	0xbd0590b7	-0.032608714
213	0x3b1e6ac0	0.0024172515
214	0x3bc7ee16	0.00610138
215	0x3c57820b	0.013153563
216	0x3bf38480	0.0074315667
217	0x3cfd28e0	0.03090328
218	0x3c4bb746	0.0124338325
219	0xbca4e840	-0.020130277
220	0xbbf26396	-0.0073971255
221	0x3cf93253	0.030419504
222	0x3ce7845e	0.02826136
223	0x3b2f2e2b	0.00267304
224	0x3c98729e	0.018609341
225	0x3ca70c08	0.02039148
226	0x3c45166b	0.012029271
227	0xbb91db56	-0.0044511957
228	0xbc636fb6	-0.013881614
229	0x3c575c56	0.013144573
230	0xbd1f3e62	-0.038877852
231	0xbcf67266	-0.030083846
232	0xbce7ae76	-0.028281432
233	0xbce17fa3	-0.027526682
234	0xbc967fdb	-0.018371513
235	0xbc5611e6	-0.013065791
236	0x3d11832e	0.035525493
237	0xbcd148a3	-0.025547331
238	0xbcff287e	-0.031147238
239	0x3c9f6bb3	0.019460535
240	0xbc024a2b	-0.007952253
241	0xbc2869d0	-0.010279134
242	0x3d00f8ae	0.03148716
243	0xbc84e2be	-0.0162214
244	0x3b14f3c0	0.0022728294
245	0xbc95dce6	-0.01829381
246	0xbca8bdf6	-0.020598393
247	0x3ccb7260	0.024834812
248	0x3c72653b	0.014794643
249	0xb8f31aab	-0.0001159211
250	0xbce24a86	-0.027623426
251	0x3cd3f516	0.025873702
252	0xbbc967e0	-0.006146416
253	0x3d21557f	0.039388176
254	0xbc93bf7e	-0.018035647
255	0xbcb324c0	-0.02186811

bias f4 [64]
0	0xbcf8a98b	-0.030354282
1	0x3af43bd6	0.0018633555
2	0x3cc73a5b	0.024319818
3	0x3c154e46	0.0091129
4	0xbd0a6d18	-0.033795446
5	0x3b86eca0	0.0041175634
6	0x3c6f73cb	0.01461501
7	0x3c1a1e9b	0.009406711
8	0x3c9044e6	0.017610978
9	0xbd2a59c2	-0.041589506
10	0x3d21d8de	0.03951346
11	0x3c5db80b	0.013532649
12	0xbd1397c7	-0.036033418
13	0xbc835516	-0.016031783
14	0xbcbc889e	-0.023014363
15	0x3cd8ba48	0.026456013
16	0xbc92e6ee	-0.017932381
17	0xbcdca246	-0.026932847
18	0x3c9b4b0b	0.018956682
19	0xbd2098b4	-0.03920813
20	0x3b5727c0	0.003283009
21	0xbd210a9e	-0.039316766
22	0x3cc17e66	0.023619842
23	0x3d1b1bcc	0.037868306
24	0x3c87a5d0	0.016558558
25	0x3d06158a	0.032735385
26	0x3cb513f6	0.022104245
27	0x3bf97f00	0.0076140165
28	0x3c489e30	0.012244746
29	0x3c2b366b	0.010449986
30	0xbce9bc38	-0.028532133
31	0x3b25d8eb	0.0025306295
32	0x3c8e98bb	0.017406812
33	0x3c6de266	0.01451931
34	0xbd25934f	-0.040423688
35	0xbbf0f256	-0.0073531074
36	0xbc932b06	-0.017964851
37	0x3a3c54ab	0.00071842474
38	0x3cc3086b	0.023807725
39	0x3c2c6666	0.010522461
40	0xbd08fbe4	-0.033443347
41	0x3b99c16b	0.0046922467
42	0xbca71786	-0.020396959
43	0xbd20ebfb	-0.03928755
44	0xbc6a5e20	-0.014304668
45	0x3ba35e2b	0.004985591
46	0x3c58ddb0	0.013236448
47	0xbbe3e176	-0.0069543673
48	0x3cbc85f8	0.0230131
49	0xbbd9bc60	-0.0066447705
50	0xbd0db22f	-0.034593757
51	0xbd227cef	-0.039669927
52	0xbd27a6a8	-0.04093042
53	0xbcbd74ce	-0.023126986
54	0x3ce0e3cb	0.02745237
55	0x3d17cbf8	0.037059754
56	0xbcd5b8a3	-0.026089018
57	0xbce7acbb	-0.028280606
58	0xbcbe8468	-0.023256496
59	0x3d28ff80	0.04125929
60	0x3cef35be	0.029200431
61	0x3d0d4d94	0.034497812
62	0xbbc71d80	-0.0060765147
63	0x3c413106	0.011791473

weight f4 [256, 64]
0	0xbbdb04e0	-0.0066839308
1	0x3c3c6c50	0.011500433
2	0x3d6ade34	0.057340816
3	0xbdd7d8b8	-0.10539383
4	0xbd594d44	-0.053052202
5	0xbca4b5f0	-0.020106286
6	0xbd6fe218	-0.05856523
7	0x3da441fc	0.08020398
8	0x3def5454	0.11686006
9	0x3dbee98c	0.09321889
10	0x3cf98350	0.030458122
11	0xbd8fd732	-0.07023467
12	0xbda11ff8	-0.07867426
13	0x3cb5a930	0.022175401
14	0xbd2bae1c	-0.04191409
15	0x3d39d388	0.045367748
16	0xbcc44a88	-0.02396132
17	0xbc3d96b0	-0.011571571
18	0x3dbb3650	0.09141219
19	0xbdf8d6d8	-0.12150353
20	0xbd97e93a	-0.07417531
21	0xbb04f540	-0.0020287782
22	0xbce18d20	-0.027533114
23	0x3c736e40	0.014857829
24	0x3d1ac534	0.037785724
25	0x3d7a8b2c	0.06116788
26	0xbd3fa1cc	-0.04678516
27	0x3dbd22d4	0.092351586
28	0x3d874ba8	0.06606227
29	0xbd256f5c	-0.040389404
30	0xbd94ca14	-0.07265106
31	0xbc90e758	-0.017688438
32	0x3d63a6ec	0.05557911
33	0xbd90ef5e	-0.07076906
34	0xbba9a4c0	-0.0051771104
35	0xbcb3a980	-0.02193141
36	0xbdadcaa8	-0.08485919
37	0x3dc197d4	0.09452787
38	0xbde170c4	-0.110078365
39	0x3de6402e	0.1124271
40	0x3d47a844	0.048744455
41	0x3dc0f3c2	0.09421493
42	0x3cbe9ca0	0.023268044
43	0x3dc3b4ae	0.09555946
44	0xbdfab9e4	-0.12242487
45	0x3d31fee4	0.043455973
46	0xbdc74d92	-0.09731592
47	0xbc4c1080	-0.012455106
48	0x3dfaa39e	0.12238239
49	0xbde12346	-0.10993056
50	0xbd4027ec	-0.046913072
51	0xbdb01590	-0.08597863
52	0x3de46d22	0.11153628
53	0xbd9e8df8	-0.07741922
54	0x3d8d8a18	0.06911105
55	0x3b861440	0.0040917695
56	0xbd6c3cdc	-0.057675228
57	0xbd3c67b4	-0.045997337
58	0xbdd49ad2	-0.10381092
59	0xbd32edb8	-0.043683738
60	0x3bcb2e40	0.006200582
61	0xbdd408ec	-0.10353264
62	0x3de96238	0.11395687
63	0x3dcb62ca	0.09930952
64	0x3dd62bb8	0.104575574
65	0xbd9b6670	-0.07587898
66	0x3d3c8f8c	0.046035334
67	0x3c8678c0	0.016415
68	0x3d0c8988	0.034310848
69	0x3d2b6a90	0.041849673
70	0x3c0880e0	0.008331507
71	0x3cae4f08	0.02127792
72	0xbd944ecc	-0.07241592
73	0x3c6f5ac0	0.014609039
74	0x3d0c07f8	0.034187287
75	0xbd034f04	-0.032057777
76	0xbd9b31e2	-0.07577874
77	0x3cfaf108	0.03063251
78	0x3d69a0a0	0.05703795
79	0x3de7989e	0.11308406
80	0x3da3258e	0.07966147
81	0xbdcece24	-0.10097912
82	0xbc25cea0	-0.010120064
83	0xbdfc09d8	-0.12306565
84	0xbdc3e44a	-0.09565027
85	0xbddb2d6a	-0.107020214
86	0x3de6ed32	0.1127571
87	0xbde01fb6	-0.109435484
88	0xbd5172f0	-0.051135004
89	0xbdd1a4f4	-0.102365404
90	0x3ce60da8	0.028082684
91	0x3db12626	0.08649854
92	0xbcb1f828	-0.021724775
93	0xbdc1053e	-0.09424828
94	0xbd29c94c	-0.041451737
95	0x3d995220	0.07486367
96	0xbd177c58	-0.036983818
97	0x3ca92620	0.020648062
98	0x3d06cfa8	0.03291288
99	0x3d790aa8	0.06080118
100	0x3db6dbb8	0.08928627
101	0xbd24f8d0	-0.04027635
102	0x3cdf9150	0.02729097
103	0xbd41d108	-0.04731849
104	0x3cc7c988	0.02438809
105	0x3d1a46b0	0.03766507
106	0xbda44562	-0.08021046
107	0xbb733780	-0.0037111938
108	0xbd786fa4	-0.060653344
109	0xbdfd61fe	-0.12372206
110	0x3daa83d4	0.083259255
111	0x3dc04d42	0.09389736
112	0x3de0a884	0.10969642
113	0x3d8046b2	0.06263484
114	0x3dc549fe	0.096332535
115	0xbcf71218	-0.030159995
116	0x3dd2202c	0.102600425
117	0xbd8cec2a	-0.06880982
118	0xbd43885c	-0.047737464
119	0x3dbbfd1c	0.09179136
120	0x3dc6b312	0.09702124
121	0xbdb949a4	-0.09047249
122	0xbc3e7930	-0.011625573
123	0xbd40fedc	-0.047118053
124	0xbdd41f6e	-0.10357557
125	0x3d31f220	0.0434438
126	0x3d4123cc	0.04715328
127	0xbbff4ee0	-0.007791385
128	0xbde47b6e	-0.11156355
129	0xbde08046	-0.10961966
130	0x3dc7b11c	0.09750578
131	0xbd582be8	-0.052776247
132	0x3dfba31a	0.122869685
133	0x3dd0fe2e	0.10204731
134	0x3cc4feb0	0.024047226
135	0xbb822120	-0.003971234
136	0xbd342154	-0.043977097
137	0x3cce3b10	0.025174648
138	0xbd3ce844	-0.046119943
139	0x3db6502c	0.0890201
140	0x3db93430	0.09043157
141	0x3b6e1cc0	0.0036333054
142	0x3dd55804	0.10417178
143	0x3dd34d44	0.103174716
144	0x3c1ede30	0.009696528
145	0x3aeda380	0.0018130392
146	0xbcca25a0	-0.024676144
147	0xbccc2fe8	-0.024925187
148	0x3dc5f6d6	0.09666221
149	0x3d957090	0.0729686
150	0x3de7ab56	0.113119766
151	0xbd2477c4	-0.04015328
152	0x3def3ad8	0.116811454
153	0x3d9afbc8	0.07567555
154	0x3d40fa34	0.047113612
155	0xbdac67ca	-0.08418234
156	0xba07c500	-0.00051791966
157	0xbd9dd810	-0.07707226
158	0xbd99644e	-0.07489835
159	0x3bbc4140	0.005745083
160	0x3dc7a358	0.09747952
161	0x3de1bde4	0.11022547
162	0x3d5b8d1c	0.05360137
163	0x3d06135c	0.032733306
164	0xbcf3dbc0	-0.02976787
165	0x3ddf0bb6	0.108909056
166	0xbdec95c6	-0.115520045
167	0xbda550ba	-0.08072038
168	0x3daff37a	0.08591361
169	0x3df6750c	0.12034044
170	0x3dfb06d0	0.12257159
171	0xbd1aa400	-0.03775406
172	0xbda3d38e	-0.07999335
173	0xbdf190a6	-0.117951676
174	0x3d1bcfa0	0.038039804
175	0xbc0a9d40	-0.008460343
176	0x3d58193c	0.05275844
177	0xbd4ebf88	-0.050475627
178	0x3d32e808	0.043678313
179	0x3d6eb3b0	0.058276832
180	0x3c7f2080	0.015571713
181	0xbaa6dc00	-0.001273036
182	0x3df47db8	0.119380414
183	0x3df57c92	0.119866505
184	0x3def5b4a	0.11687334
185	0x3d8f11b8	0.069858015
186	0x3d0f3aa8	0.03496805
187	0x3d37d9dc	0.0448855
188	0x3df9d148	0.1219812
189	0x3bdcd060	0.0067387074
190	0x3cd1e178	0.025620207
191	0xbdd8510c	-0.105623335
192	0xbd389744	-0.045066133
193	0xbddd676e	-0.10810743
194	0xbcef4378	-0.029206976
195	0xbda063fc	-0.078315705
196	0xbc14bf30	-0.009078786
197	0xbdca33d4	-0.09873167
198	0xbd293f2c	-0.04132001
199	0x3cfe27e8	0.031024888
200	0xbdba85d2	-0.091075554
201	0x3df62500	0.12018776
202	0xbd29e914	-0.041482046
203	0xbdb1835a	-0.086676314
204	0xbb84e960	-0.004056141
205	0x3d5f573c	0.054526553
206	0x3c9af8e8	0.018917516
207	0x3df50aac	0.11964926
208	0x3a522a00	0.0008017123
209	0xbd857bb0	-0.06517732
210	0xbd2fe8a4	-0.042946473
211	0xbd2db7c0	-0.042411566
212	0xbc31fae0	-0.010863036
213	0x3dcec666	0.10096435
214	0xbda92bde	-0.0826032
215	0xbdc74276	-0.09729473
216	0xbcb245d0	-0.021761805
217	0x3daf967c	0.085736245
218	0xbd36f7e8	-0.044670016
219	0xbdb7a9ec	-0.08967957
220	0x3d803852	0.06260742
221	0xbdd8ecb6	-0.10592024
222	0xbdbde612	-0.09272398
223	0xbdca9936	-0.09892504
224	0x3da679f4	0.081287295
225	0x3d685480	0.05672121
226	0x3c32e8a0	0.01091972
227	0x3d618040	0.05505395
228	0xbd5f93f0	-0.054584444
229	0x3973d400	0.00023253262
230	0xbc6287e0	-0.01382634
231	0xbd802f26	-0.06258993
232	0xbd990fa4	-0.07473686
233	0x3d8e3a98	0.069447696
234	0x3d5df8f0	0.054192483
235	0xbdd39d9e	-0.103327975
236	0x3d4ca6e4	0.049963847
237	0xbd6367a8	-0.055518776
238	0x3d232288	0.039827853
239	0xbd1faa0c	-0.03898053
240	0x3db2ea84	0.087361366
241	0xbd04ef34	-0.032454684
242	0xbda4c118	-0.08044642
243	0xbce61e08	-0.028090492
244	0xbde36080	-0.1110239
245	0xbdf26816	-0.11836259
246	0xbdea81c4	-0.11450532
247	0x3d3484b0	0.044071853
248	0xbcf7ec60	-0.03026408
249	0x3d1fd720	0.03902352
250	0xbd23a60c	-0.039953277
251	0xbb333700	-0.0027346015
252	0xbd9967e6	-0.0749052
253	0xbdca4de6	-0.09878139
254	0xbd026784	-0.031837
255	0xbd97a210	-0.07403958

bias f4 [256]
0	0x3d28ab40	0.04117894
1	0x3d958cc0	0.073022366
2	0xbdf53dec	-0.11974701
3	0x3b084600	0.0020793676
4	0x3dd34e5a	0.10317679
5	0xbd15de8c	-0.03658919
6	0x3dd3bbaa	0.103385285
7	0x3db6844c	0.089119524
8	0xbd773328	-0.06035152
9	0x3dbae9ca	0.09126623
10	0x3d104618	0.035223097
11	0xbd112f68	-0.0354456
12	0xbd780c20	-0.06055844
13	0x3d963992	0.073351994
14	0xbdcaddce	-0.09905587
15	0xbdf8340c	-0.12119302
16	0xbd887d60	-0.066645384
17	0x3dd824ea	0.10553916
18	0xbde89980	-0.11357403
19	0x3d971dfa	0.073787645
20	0xbd24cbe4	-0.040233508
21	0xbcb85200	-0.022500038
22	0x3de776dc	0.113019675
23	0x3d844f12	0.06460394
24	0xbd530cf4	-0.051526025
25	0x3dfb754e	0.122782335
26	0x3d08a378	0.03335902
27	0xbda644ec	-0.081186146
28	0x3ddd959e	0.10819553
29	0xbd9646cc	-0.07337722
30	0xbdc88026	-0.097900674
31	0x3cbc6fc8	0.02300252
32	0x3dfeab44	0.1243501
33	0x3cfc45f0	0.030795068
34	0x3d2052d0	0.039141476
35	0xbdd74498	-0.1051113
36	0xbcbf7c88	-0.02337481
37	0xbd8ab682	-0.06773092
38	0x3dfa80ee	0.12231623
39	0x3cd274f0	0.025690526
40	0x3dee3c08	0.11632544
41	0x3c1315f0	0.008977398
42	0xbddd175e	-0.107954726
43	0x3d10be70	0.035337865
44	0x3d34bc14	0.044124678
45	0x3d17f1d8	0.037095875
46	0xbd110ecc	-0.035414502
47	0xbb192800	-0.002336979
48	0xbd845e90	-0.06463349
49	0x3df0a462	0.117501035
50	0xbdd9d2ce	-0.10635911
51	0xbdba62be	-0.09100865
52	0x3dedb1ae	0.11606155
53	0x3dfbb670	0.122906566
54	0xbb9a6e00	-0.00471282
55	0xbdcf5f42	-0.10125591
56	0xbdf6751e	-0.12034057
57	0x3d061240	0.03273225
58	0x3c6d9500	0.014500856
59	0x3d7f8e14	0.062391356
60	0x3d11bf8c	0.035583064
61	0xbc75b270	-0.014996156
62	0x3dc9be4e	0.09850751
63	0x3dbb7838	0.09153789
64	0x3d744578	0.059636563
65	0x3d5411e4	0.051774874
66	0xbce44808	-0.027866378
67	0x3db06c66	0.08614425
68	0x3cfccf50	0.030860573
69	0xbce44410	-0.027864486
70	0xbcc1fb48	-0.02367939
71	0xbdc26ddc	-0.0949361
72	0x3dfb1102	0.12259103
73	0xbde7c5de	-0.11317037
74	0xbdb2bc5a	-0.087273315
75	0x3df00730	0.11720121
76	0xbce16318	-0.027513072
77	0x3df1a86a	0.117997006
78	0x3c51bd50	0.012801483
79	0xbdf2c87c	-0.118546456
80	0xbdc07960	-0.093981504
81	0xbddb86f0	-0.10719097
82	0xbdfd5212	-0.12369169
83	0xbd5c14fc	-0.05373095
84	0x3c3be3a0	0.011467844
85	0xbd9e7a72	-0.07738198
86	0xbd5204b4	-0.051274016
87	0xbd9003d6	-0.07031982
88	0xbdcfbee8	-0.10143834
89	0x3c8083a8	0.015687779
90	0x3da09018	0.07839984
91	0xbda9fdda	-0.083003715
92	0xbd7744c4	-0.060368314
93	0x3d45fc04	0.048336044
94	0xbcc66390	-0.024217397
95	0xbdff1b9e	-0.124564394
96	0xbd0c75d8	-0.034292072
97	0xbc95c5c8	-0.018282786
98	0x3d86dec0	0.06585455
99	0xbdba4f40	-0.09097147
100	0xbc99aa38	-0.018757924
101	0xbd491b68	-0.049098402
102	0x3d549c08	0.051906615
103	0x3d821f6c	0.063536495
104	0x3cecdc78	0.028913721
105	0x3ca553e0	0.020181596
106	0xbd8d9286	-0.06912713
107	0xbdfd89f8	-0.12379831
108	0x3dba5c06	0.09099583
109	0x3daccbf4	0.084373385
110	0x3dd8d87e	0.105881676
111	0xbab08380	-0.0013466924
112	0xbd775d98	-0.060391992
113	0x3a3ae500	0.00071294606
114	0xbd60b910	-0.05486399
115	0x3d28ee54	0.041242912
116	0xbde299ba	-0.11064477
117	0x3df23af8	0.11827654
118	0xbde1d578	-0.11027044
119	0x3dfffdee	0.12499605
120	0xbdc08586	-0.094004676
121	0xbca6d430	-0.02036485
122	0xbd82cb4c	-0.06386432
123	0xbdad9d80	-0.08477306
124	0x3d549490	0.051899493
125	0x3dd9c59e	0.106333956
126	0xbdab2ad2	-0.08357777
127	0x3d3df6a0	0.046377778
128	0x3d4711fc	0.048601136
129	0x3c6bea10	0.014399067
130	0xbdc500b2	-0.09619273
131	0xbd7b7f80	-0.06140089
132	0xbca08580	-0.019594908
133	0x3c4ea180	0.012611747
134	0xbd3dfcfc	-0.046383843
135	0x3da761ac	0.08172926
136	0xbdd446ee	-0.10365091
137	0xbd3188b0	-0.043343246
138	0xbd002cd0	-0.031292737
139	0xbd947134	-0.07248154
140	0x3df78522	0.1208594
141	0x3de4948c	0.111611456
142	0xbdd8b3a4	-0.10581139
143	0xbcb58e10	-0.022162467
144	0x3dfeeefc	0.124479264
145	0xbd88da10	-0.06682217
146	0xbd42a858	-0.047523826
147	0x3dea5a9a	0.11443062
148	0xbdf46828	-0.11933929
149	0x3d8608f2	0.06544675
150	0x3d3dd8a4	0.046349183
151	0x3dffff86	0.12499909
152	0xbd9b0a06	-0.07570271
153	0x3d9796f8	0.07401842
154	0x3dbdf96c	0.09276089
155	0xbd946c22	-0.07247187
156	0xbd2ea158	-0.04263434
157	0xbd7a5984	-0.061120525
158	0x3d23999c	0.039941415
159	0x3cf36498	0.029711053
160	0xbccd2cd8	-0.025045797
161	0xbddfce6a	-0.10928042
162	0xbdee82ee	-0.116460666
163	0xbd8a226c	-0.06744847
164	0xbd97293e	-0.07380913
165	0xbde128ce	-0.10994111
166	0x3defe0ae	0.11712776
167	0xbdea35e8	-0.11436063
168	0xbd10602c	-0.035247967
169	0x3d6b4868	0.0574421
170	0x3cc9a078	0.02461265
171	0x3c65d500	0.014027834
172	0x3db815b8	0.089885175
173	0x3df34be2	0.11879708
174	0x3c9d2b50	0.019185692
175	0x3c4ee2f0	0.012627348
176	0x3d1b2a84	0.037882343
177	0x3c8508e0	0.016239583
178	0x3dd2a462	0.1028526
179	0x3de8c324	0.11365345
180	0xbdd0a178	-0.10187048
181	0xbc6acdd0	-0.014331296
182	0x3dd6d61e	0.10490058
183	0xbd86315a	-0.06552382
184	0x3d469468	0.048481375
185	0xbdc805a4	-0.09766701
186	0xbce597a0	-0.028026402
187	0x3b485d00	0.003057301
188	0xbda7928e	-0.0818225
189	0xbda7e96a	-0.08198817
190	0xbc7f7cb0	-0.015593693
191	0x3d01ae24	0.031660214
192	0x3d157bcc	0.036495015
193	0xbd86af0a	-0.06576355
194	0x3ddef4da	0.108865455
195	0xbcc5ab18	-0.024129435
196	0xbd431a64	-0.04763259
197	0x3df37d4a	0.11889131
198	0xbd9122e4	-0.07086733
199	0xbda7ed2e	-0.08199535
200	0x3de2caf8	0.110738695
201	0xbdc2a968	-0.09504968
202	0x3d37c1c0	0.04486251
203	0xbb918ea0	-0.004442051
204	0x3de47572	0.111552134
205	0xbd162168	-0.036652952
206	0x3d1d44e8	0.038395792
207	0xbd493fe4	-0.049133196
208	0x3d9bd8d2	0.076097146
209	0xbd91bf46	-0.07116561
210	0xbd554ba4	-0.05207409
211	0x3d8f3c16	0.06993882
212	0x3c3af1c0	0.011410177
213	0xbd996036	-0.07489054
214	0xbdb25bb0	-0.08708894
215	0x3cd3a6c8	0.025836363
216	0x3d9bc8ec	0.07606682
217	0xbde6f7fa	-0.112777665
218	0x3d90e8ba	0.07075639
219	0x3d98528a	0.07437618
220	0x3da98462	0.08277203
221	0xbc86a410	-0.016435653
222	0xbd55f260	-0.0522331
223	0x3b9dae60	0.004812047
224	0xbc236020	-0.009971648
225	0x3d766fbc	0.060165152
226	0x3da5d98e	0.08098136
227	0x3d1a4ce4	0.037670985
228	0xbdbb737a	-0.09152885
229	0xbdd00f9c	-0.10159227
230	0xbd8241de	-0.063602194
231	0x3d116040	0.03549218
232	0x3d11f708	0.035635978
233	0x3d96ffa2	0.07372977
234	0xbc89b548	-0.016810074
235	0x3d99e754	0.075148255
236	0x3d335610	0.043783247
237	0xbd9af3ea	-0.07566054
238	0x3cb944a8	0.022615746
239	0xbdfd182e	-0.123581275
240	0x3d01fcd8	0.03173527
241	0xbd21cbfc	-0.039501175
242	0x3ce82a18	0.028340384
243	0xbd3f9a04	-0.04677774
244	0xbd124fd8	-0.035720676
245	0x3c91f420	0.017816603
246	0x3de7f622	0.11326243
247	0xbddd29c2	-0.1079898
248	0x3deb3462	0.114846006
249	0x3d803ffc	0.06262204
250	0x3d8f1e40	0.069881916
251	0xbd27b71c	-0.04094611
252	0xbdfa6214	-0.12225738
253	0xbca65470	-0.020303935
254	0x3db9e786	0.09077363
255	0x3dbb49a6	0.09144907
